Models/LaTeX_GRU.pt (torch_old, 811280 bytes, 15 tensors)

weight f4 [100, 100]
00000000: 47ca 9b3e 2002 5fbc ab27 6fbf 7338 5fbf
00000010: 688b 3f3f f8ee e7bf 13a4 72bf c5d5 e63e
00000020: 47b7 a2bf ec07 98bf 983f 63bf b225 81bf
00000030: fa81 86bf c9cd 0b3f 5d83 843e 70c3 b4bf
00000040: 11f5 dd3f 6027 26bd dab2 c23e 1ccc 56bf
00000050: cf9f 66bf 5381 5cbf 3ab6 123f b2a3 3dbf
00000060: 2763 373f ce19 db3d c28c b0bf 0c64 cabe
00000070: a0c4 c1be 26a4 223f 2b84 203f 354f 503f
00000080: 6c80 373e 6b21 6d3f 2260 913f 8c60 3ebf
00000090: 2c3c ca3e 8ce8 973f 9d54 b73c b6a1 a83d
000000a0: 3464 e8bf 1b32 88bf e230 033e 003d ce3e
000000b0: 1299 37be 8564 1cbf 55e2 c5be d890 44bf
000000c0: 81b9 04be 1544 eb3e 1732 953f 51e5 ca3e
000000d0: 17c1 fcbe fee7 a1bf 5ae0 1e3d 137a 29bc
000000e0: 6ca5 833f 0a7a a93e 8d01 58bf 9393 dcbe
000000f0: f60f 23bf 30f0 aebe eca0 013f 9973 4240
00000100: 4e00 02bf da9e a73f 4ace f83a a50c 19bf
00000110: e9af 4c3e 41d4 983f a687 a6bf 7efc e53e
00000120: 52f7 ef3e a536 903f 3cbc ddbf fc36 843e
00000130: 1af1 c63c 3965 f53f 063c 943e 19e8 d4be
00000140: fc5a cdbf c75f 71be 9f8b 6fbf ed4c a33f
00000150: 30a6 ca3e cbfd 0e3e 9412 39c0 5b0a 05bf
00000160: 5137 8e3e 9373 a4bf 104b 96bf a88d 04c0
00000170: c47c 00bf 0b55 8bbd a1b8 f7bf 6e8d 923f
00000180: d99c 39bf 281b 83bf 3dd7 40bf b4e4 f8bf
00000190: 6973 0b3f 2492 8bbf cc30 1d40 a4ad 1a3f
000001a0: 63c6 353f 5051 d03f 8da2 c9be ad42 2fbf
000001b0: 5f34 3dbe 8ebb f5be cbd7 09c0 de0f 48bf
000001c0: 33a8 23c0 5b0d e0bf 05ad 0fbf 58a8 51be
000001d0: 2d85 12bf 47eb da3e 601c bc3f ab67 3abf
000001e0: 2603 02bf 808c 56be b678 553f 575f 1040
000001f0: c770 a4bf 921a 88be 444a 023e 3cf7 1fbf
00000200: 686d b9be 4ab2 ba3f 954a f53e 9746 233d
00000210: ff4e e0bc 9f13 f43e 3069 03c0 9df5 36bf
00000220: 911d ef3f 4c18 80be 0775 88bf 03a5 ce3e
00000230: f150 8f3f 9cb3 d8be 6706 97bf b5aa 9fbf
00000240: 390b c6bf bafc 0440 f28d 82bf 8b7f 403f
00000250: 9a33 28be dd5a 9dbf 7d8f 7ebd f70e e13e
00000260: 65ea 34bf baaf 5abe 97a6 943f 5102 2f3f
00000270: 9659 ce3f 4750 a23e 460c e6be 0510 62bd
00000280: 6809 f3be 24fd 1ebf 391d e03e 1c73 073f
00000290: 801c 3abf b443 883f c343 f8bf 4d18 9fbf
000002a0: 0e56 993d 51e2 773c 5657 643f f477 95bf
000002b0: ba9f 37bf 382f 4f3f 2f26 81bf 10d7 973f
000002c0: 6566 82bf 78f2 45bf dde0 04c0 05be ea3e
000002d0: 58a2 863f f6f4 fc3e bc17 dbbe 6aa2 9abe
000002e0: df1c dcbc cf97 253f bfa3 71bf 4be4 2fbe
000002f0: 3988 5dbf e5e1 483f 13f5 1640 61fe 313f
00000300: 80e7 08c0 9eee 1ec0 3adf 15bf fec8 f9be
00000310: 31f7 9c3e 59fa 3b3f e0c1 4e3d 063c b1bf
00000320: 6191 523f 6b7c 63bf 6de2 bb3e 6465 923f
00000330: e322 eb3e b98b 8d3e bc88 123f a68b d33c
00000340: d9c0 aabe 6107 fe3e c7ba 173f 6fae aabe
00000350: 8ddd a73e da9c 33bf b0d9 80bf e8ae dcbe
00000360: 56b4 2b3f 081d fabf 5dba 0dbe 7890 d53e
00000370: 50d6 963e d472 78bf 065b 90bf 75b0 4abf
00000380: 0201 67bf d853 b9bf a5b6 503f 7abf 733d
00000390: e684 3f3f 637f a83e 8da4 00be 3e0b 79bf
000003a0: 1464 65bf 02f3 2cbf b3ca 03c0 e93f 453f
000003b0: a053 873f 1466 c3be 80ca fc3e 0514 8d3f
000003c0: e159 6e3f da91 08bf 8cab d3bf 1887 933d
000003d0: 12f3 403d 39da 063d e7d9 543d a46d 943f
000003e0: cf86 bbbf 864a 643e 1212 b03f 957f 78bd
000003f0: 7900 2dbf e302 d3be 3000 1240 775a b33f
0.30427763 -0.0136113465 -0.93419904 -0.8719551 0.7482209 -1.8119802 -0.9478161 0.45084968
-1.2712182 -1.1877418 -0.8876891 -1.0089629 -1.0508416 0.5461088 0.25881472 -1.4122143
1.7340413 -0.040564895 0.38027078 -0.83905196 -0.900876 -0.86134833 0.57309306 -0.74077904
0.7163567 0.10698281 -1.3792956 -0.39529455 -0.37845325 0.6353172 0.6270167 0.8137086
0.17920083 0.92629117 1.1357462 -0.7436607 0.39499032 1.1867843 0.022379214 0.08233969
-1.815558 -1.0640291 0.12811616 0.40280914 -0.17929485 -0.6109088 -0.3864924 -0.76783514
-0.12961389 0.4595038 1.1655911 0.3962808 -0.49366066 -1.2648923 0.038788177 -0.010344046
1.0284858 0.3310092 -0.84377366 -0.4308134 -0.6369623 -0.34167624 0.5063617 3.0383055
-0.50781715 1.3095353 0.0018982377 -0.5978492 0.1998898 1.1939775 -1.3010147 0.449192
0.46868378 1.1266676 -1.732307 0.258232 0.024284888 1.9171516 0.28952044 -0.41583326
-1.6043391 -0.23571692 -0.9357242 1.2757851 0.39579916 0.13964002 -2.891759 -0.51968926
0.27776578 -1.284777 -1.1741657 -2.071146 -0.5019038 -0.0680333 -1.9353219 1.1449411
-0.72504956 -1.0242662 -0.7532843 -1.9444795 0.54472977 -1.0903974 2.4561033 0.60421205
0.7100584 1.6274815 -0.3938183 -0.68461114 -0.18477009 -0.47994655 -2.153796 -0.7814921
-2.557141 -1.7504076 -0.5612338 -0.20474374 -0.5723446 0.42757627 1.4696159 -0.72814435
-0.50786054 -0.20952034 0.83387315 2.255819 -1.2846917 -0.26582772 0.12723643 -0.62486625
-0.36216283 1.458566 0.47908464 0.03986224 -0.027381418 0.4767122 -2.0532951 -0.71468526
1.8680898 -0.25018537 -1.0660714 0.4036027 1.1196576 -0.4232453 -1.1798829 -1.2473971
-1.5472175 2.0779252 -1.0199568 0.75194615 -0.16425934 -1.2293354 -0.06214856 0.4395673
-0.7067016 -0.21356097 1.1613339 0.6836291 1.612109 0.31701872 -0.4493124 -0.05519106
-0.47468114 -0.6210501 0.43772295 0.5291002 -0.7269974 1.0645661 -1.9395679 -1.2429291
0.07487117 0.015129642 0.89195764 -1.1677232 -0.717281 0.80931425 -1.0089778 1.1862507
-1.0187498 -0.773231 -2.0762246 0.45848098 1.0518293 0.4940564 -0.42791545 -0.30202037
-0.026869236 0.64684767 -0.9439048 -0.1717693 -0.86535984 0.7846969 2.3587081 0.69528776
-2.1391296 -2.483314 -0.5854374 -0.48786157 0.30657342 0.73428875 0.050477862 -1.3846443
0.8225308 -0.8886172 0.36696187 1.1437192 0.45925054 0.27645662 0.5723989 0.025823426
-0.33350256 0.49615005 0.59269375 -0.33336207 0.32786217 -0.7016121 -1.0066433 -0.43102193
0.67072046 -1.954011 -0.13840623 0.41711783 0.29460382 -0.97050214 -1.1277778 -0.791755
-0.9023591 -1.4478712 0.81528693 0.05950878 0.7481216 0.32909688 -0.12562771 -0.9728278
-0.8960583 -0.675583 -2.0592468 0.77050644 1.0572395 -0.38163817 0.49373245 1.1021734
0.93105894 -0.5334755 -1.6536727 0.072035015 0.04710681 0.032922957 0.05196562 1.159596
-1.4650515 0.22294053 1.3755515 -0.060668547 -0.67578846 -0.4121314 2.2812614 1.4011983

weight_ih_l0 f4 [300, 100]
00000000: 86ac f43e 762e 053f 5a2b 24be 7139 2a3f
00000010: 50a6 f23e 60a6 8abd 889a b73c ad79 e8be
00000020: a5d1 933c c814 49be 0ed1 0dbf 7e50 4f3f
00000030: fbe3 063e 4903 11be b099 35bf 7006 84be
00000040: a449 753e 1c6f cdbe 8b28 27be 818e d53e
00000050: 3de4 373e 31d2 1b3e 6900 98be aa22 82bf
00000060: c649 0abe 8f9a 823e 1ab7 76bc caaa a1be
00000070: d7e7 1e3f 927a 513e 3fbb 923d cc69 f73d
00000080: 228d 15be 3977 253f e6e0 c2be 4f28 9dbd
00000090: 9c46 d73e 33f9 3cbe f038 b93f 7561 213e
000000a0: e38c 59be 5f31 733e 7b34 45be 6dfd e3be
000000b0: 375d e6bf 2693 8a3e 75e9 8abe 94ed a83e
000000c0: 078a babe f340 5bbf 4c6b aebd 790e 26bd
000000d0: 308e 8d3e 5299 1c3f ede6 99bc ed49 413f
000000e0: e9ba 1b3e be70 cf3d 2b44 16bf 52c6 703f
000000f0: 2272 663f e895 8fbe 5655 e23d 133b 13bd
00000100: 9694 19bd 2366 1d3f 4f04 893e 7f59 52be
00000110: 175a 553e 1642 cdbe 38e3 223f f03f c1be
00000120: af00 45be 3877 35ba 396c 533f b545 61bc
00000130: d671 a23e 391b de3e 4d69 db3d df6b 2f3e
00000140: 2656 4fbf 400d e53c 804c 17be 7887 e53e
00000150: 4b6b 433f 5561 5e3c 275f f3bd 937d fe3e
00000160: ed56 fd3d ce9c 9c3f ff01 5e3f b592 eabd
00000170: 4ec9 84bd 8c00 5fbe 970a 4f3e bb87 f0bd
00000180: 171e c73d 55fd 4abf 493a 87bf 0e73 a03e
00000190: 887c 2c3e ec57 f73c 8c27 46bf 8f8a 9cbd
000001a0: 8e6c 9d3e a520 403f a816 d9bc bf6d 1c3e
000001b0: 6dd6 f2be b286 033f a144 c9be ce88 563f
000001c0: b3cd e73d 198d 0bbf 8494 f63e 22c6 9b3d
000001d0: 8b37 073f 9f10 19bf cc59 0d3e 633b d63e
000001e0: 33d1 513e cb50 393d 2e51 68be d647 8cbe
000001f0: 7f37 8b3e 6d7f 35bf ec41 ff3e be12 e5be
00000200: bae8 debd 9c58 1cbf a545 143e 82df edbd
00000210: 010b 0fbf 9965 6bbd dd75 423f 3374 2abf
00000220: 58cd 513e 5021 efbe 0f8c 893f ac83 25be
00000230: 9568 363c c971 4ebf 5b6f 0cbf 9762 a33d
00000240: 093c 9ebe 5a1a 8dbe f683 313f fba4 b53d
00000250: e40e 03bf 93d0 10bf 7cef e03e 1eeb a53c
00000260: bdab 523e dbde 8f3e 6e04 163d 35f0 0e3f
00000270: c31d 08be 9205 a33e 9a62 a53c f30f 823c
00000280: 0172 f83e 791f b53d 56a8 7fbe 398a 2a3f
00000290: 8306 873e 8678 a2be 1288 80be 9f1b f13d
000002a0: ad2f 0dbe ecda c53c 8a7f 14bf c19f b1be
000002b0: 4165 b83d 1049 bf3e 0ef4 ecbe 66ec 923e
000002c0: 2297 edbe d9f5 9a3e 0066 0b3e 6cf3 0dbf
000002d0: efb6 bb3e 74f6 253d 8ab8 c33e 6a0c 323f
000002e0: 7199 36be 5201 d6be 5f1f 5e3e 654b 103e
000002f0: 099f 41be e05c b83e cbfa a03e d226 d33e
00000300: 5dd5 333f 393e 6c3d d961 2e3f 406b 5f3e
00000310: c34a 0c3f 1735 c3be 4028 d0be d2ca 4ebe
00000320: 02c6 7bbe 57d7 fc3e 5717 7ebd 6246 5fbe
00000330: 588e 36bf 33d4 95bd 115e db3e 358b a5bf
00000340: 14af 56bf 5443 fa3e 2056 c3bd 0a16 b13e
00000350: f24d 453e 3a5a bbbe 603a 95be 1796 18be
00000360: f6fa 923e 4139 10ba c765 143f 30ed 513f
00000370: b9e4 0dbf 4b31 9ebe 1e91 f0be 4889 81bd
00000380: e483 fe3d 2c29 7b3f 27a3 6ebe 7e91 843e
00000390: fe07 ecbd 6a2e bebe 2641 ca3c 1f70 db3d
000003a0: 7217 3bbf cb7e e1be 9d39 983c 6f6d e8be
000003b0: 94e3 22bf e3ee cdbd aebe a93d bff6 9abe
000003c0: 712c 343f cfe3 1c3f f867 ec3e 1369 ee3e
000003d0: 0264 7d3e 3158 83be 79af 843f a3d5 623e
000003e0: b77c 4f3d 2648 023e 9bec 34bf 309b 1a3f
000003f0: bfdd 783e 4b71 853e b205 57bf f697 423d
0.47787875 0.5202402 -0.16032162 0.664939 0.4739251 -0.06770015 0.022412553 -0.4540533
0.018044302 -0.19636834 -0.5539712 0.80982196 0.13172905 -0.1416141 -0.70937634 -0.2578616
0.23953873 -0.40123832 -0.1632406 0.41710284 0.1795816 0.152169 -0.29687813 -1.0166829
-0.13504705 0.25508544 -0.015058303 -0.31575614 0.6207251 0.20456913 0.071646206 0.12080726
-0.14604619 0.64635044 -0.3806221 -0.07673704 0.42046058 -0.18454437 1.4470501 0.15759833
-0.2124515 0.23749302 -0.19258301 -0.44529286 -1.7997197 0.2706539 -0.2713124 0.32993758
-0.36433432 -0.8564598 -0.08516559 -0.040541146 0.27647543 0.6117145 -0.018786872 0.75503427
0.1520802 0.10128926 -0.58697766 0.9405261 0.900179 -0.28044057 0.11051433 -0.03594501
-0.03749522 0.61483973 0.267611 -0.20541953 0.20835148 -0.40089482 0.6362796 -0.37744093
-0.19238542 -0.0006922367 0.8258701 -0.01374953 0.31727475 0.43380144 0.10713444 0.17130993
-0.8099083 0.02796042 -0.14775276 0.44829917 0.7633559 0.01357301 -0.11883383 0.4970518
0.123700954 1.2235353 0.86721796 -0.114537634 -0.06483708 -0.21777552 0.20218883 -0.117446385
0.09722536 -0.79292804 -1.0564662 0.3133778 0.1684438 0.030193292 -0.77404094 -0.076436155
0.30746883 0.7504981 -0.026500061 0.1527624 -0.4742922 0.51377404 -0.39310172 0.838025
0.11318531 -0.5451217 0.48160183 0.0760615 0.52819127 -0.59790987 0.13803786 0.41842183
0.2048996 0.045243066 -0.22687218 -0.27398556 0.27190778 -0.7089756 0.49854982 -0.44740862
-0.10884233 -0.6107271 0.14479692 -0.11614896 -0.55876166 -0.057469938 0.75961095 -0.66583556
0.20488489 -0.46705103 1.0745867 -0.1616351 0.011133333 -0.8064237 -0.54857415 0.07977789
-0.30905178 -0.27559167 0.6934198 0.08869358 -0.51194596 -0.5656826 0.43932712 0.020253714
0.20573325 0.28099713 0.03662532 0.55835277 -0.13292603 0.31840187 0.020188618 0.015876746
0.48524478 0.088438936 -0.24966559 0.6661716 0.26372156 -0.31732577 -0.25103813 0.117728464
-0.13787718 0.024152242 -0.5800711 -0.34692195 0.09003688 0.3736043 -0.4627995 0.28695983
-0.46404368 0.30265692 0.13613129 -0.5544956 0.36663005 0.04051824 0.3822673 0.6955019
-0.17831971 -0.41797882 0.21691655 0.1409126 -0.18908323 0.36008358 0.3144134 0.41240555
0.7024744 0.057676528 0.68118054 0.21818256 0.5480158 -0.38126442 -0.40655708 -0.20194557
-0.24587253 0.4938304 -0.062033977 -0.21804193 -0.7131095 -0.073158644 0.42845204 -1.2933108
-0.838609 0.48879492 -0.095379114 0.34587127 0.19268015 -0.36592275 -0.291461 -0.14901005
0.28707093 -0.00055016956 0.579678 0.82002544 -0.5542713 -0.30896983 -0.46985716 -0.063250124
0.124275 0.981097 -0.23304425 0.25892252 -0.11524962 -0.37144786 0.024689268 0.10714745
-0.7308265 -0.44042048 0.01858216 -0.4539599 -0.63628507 -0.1005533 0.082883224 -0.30266377
0.7038031 0.6128511 0.46173072 0.4656454 0.24745181 -0.25653222 1.036605 0.22151808
0.050656047 0.12722835 -0.7067353 0.6039305 0.2430334 0.26062998 -0.83993065 0.047508202

weight_hh_l0 f4 [300, 100]
00000000: 8308 9c3e cad9 5e3e 3344 1e3f b045 74bf
00000010: e0ce 253e 89a8 8c3e 53b9 9cbe 7ec7 303f
00000020: c851 1b3e c6e3 893e 7a3c 163f d28c 7a3e
00000030: 059e ef3e 404a 033f 8364 513d d667 883e
00000040: b7d2 493e 07b9 bcbd 1cd0 ed3d ae02 27bf
00000050: 3aaf 4bbe f8a2 b03c e1a4 2e3e f6a0 e23e
00000060: 0549 6ebf 8988 843e 8472 a2be 16dd 493d
00000070: a06f 0e3e 4716 883e 3d00 3a3e 0e60 9e3e
00000080: 726e c43e 9a9b 5a3e 6e52 0b3e 6c1d 333f
00000090: 9d14 763f 24a4 a6be 1023 9b3e e9d7 c4bd
000000a0: bfbe 753c 976e db3e 55cc 173e ddc7 13be
000000b0: b4df 923d 0cb7 81be 46a2 f83d c702 a0be
000000c0: 868f 31be 7da1 613e 2083 1ebc ebc0 fa3d
000000d0: 1f98 fbbd dce5 b33d e3f8 9c3e eb9b 83be
000000e0: 5792 733e f037 f5be 0594 8bbe 132b 863c
000000f0: 7828 433f 6835 33bd b42e 613e 303b ccbe
00000100: a402 81bf 1a49 4c3e 4003 613e bb8a 90be
00000110: 71d0 d53e b64c 85be cb3c bd3e 00d6 a23e
00000120: 13f8 24be 5c37 a63e 9a88 14bf 6704 b83e
00000130: ca86 b5be 8d8f 79be 4d99 eb3e 29cd d4be
00000140: 2721 34be 41ae aebe 4d84 533e 1201 d4bd
00000150: 31f1 febe 7872 793e 2528 d6be d9a5 33be
00000160: 5733 b43e b709 ea3e fccc 143e 848c 203f
00000170: abf2 88be 2168 d03e 671c ea3e 9463 96bc
00000180: ebca 17bf b3e4 443d c2be d6bd 6d11 263e
00000190: 5a4c 85be fb13 19bf d927 fe3d 3ba9 a83d
000001a0: 0747 febe d0dd f4bc c98f 98be 6528 0c3b
000001b0: d1bd bd3d 9699 97bd 0679 743d 9b2c 203f
000001c0: 5734 40be ea83 94be e79e 0e3f 3ca7 44be
000001d0: 0bc0 693e 9a7f dd3e 4e07 cebe 724f 763e
000001e0: 958e ee3d 9a19 e9be 5258 913f 1a9e 223f
000001f0: a637 02bf 0945 193e d34b 033f 951b 483f
00000200: ab66 d3bd f08a 3dbf 0387 16bf ac8f 58be
00000210: 049f 6fbc 9cc6 26be 99d4 4c3e 8ed0 5dbd
00000220: 95eb 233f df75 143e 0628 e5be 24c7 293d
00000230: 7fdc 53bc 3e8f 5e3e c864 883f 2379 f5be
00000240: 3e17 00bf 5201 64be 854b dcbe 5bfc e6be
00000250: 5724 843e c31d 313e 3c22 75be c849 d6be
00000260: 37b9 d83d 2c83 fb3d bbbc 3ebe 0261 acbe
00000270: 7006 f7be eb33 8dbf fad9 09bf 57ea 50be
00000280: a39e a7bf accd b03d cf7e 313f 8e71 ea3e
00000290: 107a 8ebe 78a0 84be 6dc3 a63d 7b3f 163f
000002a0: 1f3f b5be 3b84 06be 19c0 f6bc 094c f0be
000002b0: 4ff9 02bf d2f4 163f 8fd8 5dbc a7db 82be
000002c0: 7be0 903d 8549 44bf 41c4 cf3e 5650 fdbd
000002d0: 4bbf a83e 95dd 483f 7e3a c23e 6964 b83d
000002e0: e43d 55be 1f70 ff3e 4ae7 f93e 01c5 823c
000002f0: 715c 313e c7c8 e2be 7fa7 4dbe 5f6d 1abe
00000300: f0d2 87bf 8fc0 6b3e a32f 113e edb7 16bf
00000310: d2f5 2b3e e670 9dbe 11ec 9f3f 777c 9f3e
00000320: c7f1 53be a2ef 663e 1dbb 32bf dbf4 333f
00000330: 21e2 fcbe e333 033e 1609 c33d f454 9d3f
00000340: cd6f 35bf fc17 61bb 09f9 633d e0c5 a03e
00000350: 6fc2 52bd 49b0 65bd 4434 2bbb 2be1 cebe
00000360: 6143 8a3d 6816 8ebe 25f2 a1be c706 823d
00000370: e6a0 af3e 0743 31be b0fd 753d 5eed 363d
00000380: 234d 9abe 4526 8e3e 3819 253f 6287 dc3e
00000390: 17b2 643f 956c c13e 392e 00be 5534 88bd
000003a0: 53ae f3bc a4cc 5ebf 8490 aabd 16a5 ecbd
000003b0: 5d8a 833f 204d 6fbf 12ac 183f b2e6 bd3e
000003c0: 4b54 5f3e 7988 9d3f ef52 663d 88ab b6be
000003d0: 4945 d4be 9e4b debd e887 a23e 5f91 44bf
000003e0: 1569 8f3e 28cc 05be 9b8a 92be 8471 903e
000003f0: ef88 ccbe 489c 893e eea4 fd3e d5e6 aa3c
0.30475244 0.21762767 0.61822814 -0.95418835 0.16192198 0.27472332 -0.3061014 0.690544
0.15167916 0.2693159 0.5868603 0.24467781 0.46800247 0.5128517 0.051121246 0.2664172
0.19709288 -0.09214979 0.11611959 -0.65238464 -0.19891062 0.021562085 0.17055084 0.44263428
-0.9308017 0.25885418 -0.31727993 0.04928311 0.13909769 0.26579496 0.18164153 0.3093266
0.38365513 0.2134842 0.13605663 0.6996677 0.96125203 -0.32547104 0.30300188 -0.09611494
0.014999091 0.4285781 0.1482404 -0.1443171 0.07171574 -0.25334966 0.12140326 -0.3125212
-0.17339906 0.22034259 -0.009674817 0.122438274 -0.12284874 0.087840766 0.30658635 -0.25704893
0.23786293 -0.4789424 -0.27261367 0.016377961 0.76233625 -0.043752104 0.21990472 -0.39888906
-1.0078931 0.19949761 0.21973896 -0.28230843 0.4176059 -0.26035088 0.36960444 0.31803894
-0.16110258 0.3246411 -0.5802094 0.3594086 -0.35454398 -0.24371167 0.46015397 -0.41562775
-0.17590772 -0.3411732 0.20655937 -0.10351767 -0.4979339 0.24360073 -0.41827503 -0.17543735
0.3519542 0.45710537 0.1453132 0.6271441 -0.2674764 0.40704444 0.45724794 -0.01835803
-0.59294003 0.048069667 -0.10485603 0.16217585 -0.26034814 -0.5979611 0.12409944 0.08235403
-0.49663565 -0.029890925 -0.297972 0.0021386382 0.0926472 -0.07402341 0.05968573 0.6256806
-0.18769966 -0.29006892 0.55711216 -0.1920442 0.22827165 0.43261415 -0.40239948 0.24053743
0.11648289 -0.45527345 1.1355078 0.63522494 -0.5086616 0.14967741 0.51287574 0.78167087
-0.10322317 -0.74040127 -0.5879976 -0.21148556 -0.014625315 -0.16286701 0.20002975 -0.05415397
0.64031345 0.14498089 -0.44757098 0.04144968 -0.012930988 0.2173433 1.0655756 -0.47943982
-0.50035465 -0.22266129 -0.43026367 -0.45114407 0.25808975 0.1729651 -0.2393884 -0.41853166
0.10582202 0.122808784 -0.18626682 -0.3366776 -0.482471 -1.1031469 -0.5384823 -0.20401894
-1.3095287 0.08632979 0.6933412 0.4578976 -0.278275 -0.25903678 0.08142743 0.58690614
-0.3539972 -0.1313638 -0.030120896 -0.4693301 -0.51161665 0.58967316 -0.013540401 -0.25558206
0.07074066 -0.7667468 0.40579417 -0.123688385 0.32958445 0.7846311 0.3793525 0.09003527
-0.2082439 0.4989023 0.48809272 0.01596308 0.1732042 -0.44293806 -0.20083426 -0.15080784
-1.0611248 0.23022674 0.14178328 -0.588744 0.16792992 -0.30750197 1.2493917 0.31149647
-0.206977 0.2255235 -0.6981676 0.70295495 -0.49391273 0.12812762 0.095232174 1.2291551
-0.7087372 -0.0034346571 0.05565742 0.31400967 -0.051454958 -0.05607632 -0.0026123682 -0.40406165
0.06751133 -0.2775147 -0.31630054 0.06348949 0.34302443 -0.17310725 0.06005639 0.044659965
-0.30136976 0.27763572 0.64491606 0.4307204 0.89334244 0.37778154 -0.12517633 -0.066506065
-0.02974621 -0.87031007 -0.083283454 -0.11554925 1.02766 -0.9347706 0.5963756 0.3709007
0.21809499 1.2307273 0.056231435 -0.35677743 -0.4145911 -0.108542666 0.31744313 -0.7678432
0.2800986 -0.1306616 -0.28621373 0.28211606 -0.39948222 0.26877046 0.49539894 0.020862022

bias_ih_l0 f4 [300]
00000000: 10c5 7e3c 0a76 76bd 9be1 51be dbf8 08be
00000010: ba47 35be 6f86 18bf b27e 09be e735 bbbd
00000020: 7c48 10bf ab48 97be b230 26be 50af e8be
00000030: 5663 5fbd c3b3 79be f4f3 ec3d b4db 02be
00000040: fe4a 9cbe 5d21 61be baca 3dbe 2020 6ebf
00000050: e7d5 86be 7171 1bbd 3a99 05bf cb99 b13d
00000060: 9c4f efbe 207a 60bd 0411 24bf 6718 ffbd
00000070: 1f1e 12bf 6158 1bbe 66a0 9bbe ccf5 a7be
00000080: a72e 9b3d 6775 1ebe 8c9c afbe 8e30 27bd
00000090: bd61 af3e 04d4 94be 496b afbe 5bc1 723e
000000a0: cf8f 06be 046d 8abe e8be 12be cf7e d2be
000000b0: 24b5 94be ebc5 81be 7e7b c73e 0816 22bf
000000c0: df7f fcbe 3142 7cbd 4a3b 21bf dee3 88be
000000d0: 2bd5 e8be 8cd7 143e 2d67 3cbf 89d7 a5be
000000e0: 0669 79bc 52c0 453d 4a15 2bbe 9e70 1dbf
000000f0: 1848 4abe 4930 9fbe 0772 a9be 480e 32bd
00000100: 0f80 473e 5158 d03b 3440 d8be 8b64 93be
00000110: 08a9 f73d 326c 0bbf 3485 56bd 83d6 6abe
00000120: c24a 92be 102f 92bd a2bf 2dbf 5c2e e53e
00000130: 0f35 dbbe 2c95 f8be 303f f0be d4e0 a13e
00000140: 6593 5fbe 3d62 4e3e 143c a0be 2c15 9dbe
00000150: 6853 83bc 6db6 b7be e319 c1be 8482 3abe
00000160: 1562 b6bd 4d49 cc3b c757 f2bc 05cb 6d3e
00000170: 60f2 38be 8d52 f6be a82b b6be 561e 82be
00000180: 8af8 59be 1386 a2bd 1d9c 88be eae4 c23d
00000190: 31a8 0dbf 18ce 24bf 6f9d ebbd 8bd2 25bf
000001a0: e2bf e2be 1109 49bf 52cd 3ebf 7d46 2cbd
000001b0: ea3d e8be 44e7 dbbe 7436 42bf 39b3 16bf
000001c0: d08d 0fbf 5cd2 72be b66c 7ebf 1dfc 14bf
000001d0: 23df b3be 70d9 0bbe 9ddd f1be 5ae6 e3be
000001e0: 72c2 f1be d3ba 0dbf c04e 80be 671d 1bbf
000001f0: e51b 463e 61f0 02bf 1905 7fbf 4855 c0be
00000200: ab6e 3bbf a92a 0abf 9e62 59be 2874 a8be
00000210: d9b8 b5be 7267 30bf b40f fabd 9667 29bf
00000220: 803b 48be c289 67bf 9db6 d3bc 488f 2dbd
00000230: ba4c 27bf 70ec 8cbf 072c 05be 726b 13be
00000240: da94 07bf 98b2 0ebf ab67 52bf aa0d f5be
00000250: c0cf 2dbf ca6a 1fbf 3d67 5cbe 13f8 c5be
00000260: 43ec f9be 6e52 cbbe 9b66 acbe 9c0f afbe
00000270: edd2 4cbf 6b10 cbbe 36a6 18bf f030 cebe
00000280: 5f2f 85be e079 9ebe 3264 9dbe 0229 49bf
00000290: d1e2 0bbf eb8e 83bf 960a 2fbf c9a2 31bf
000002a0: e590 57bf 4b6d d9be 13c2 f4be 131e f2be
000002b0: b728 c8be 1542 adbe 7fe9 10bf 855a 4cbe
000002c0: 682a 2fbf 251f 2fbf 1575 3dbf 29d2 13bf
000002d0: c3ad 5cbe 722a e1be afba 97be 47f0 c8be
000002e0: 3374 d8be f0c6 acbe 8e4b 21bf ec65 d9be
000002f0: 4636 bbbe aecd 92be bd58 333e c70f 9dbe
00000300: c36a 36bf 7dcb 413d d04e 07bf 312c 1cbf
00000310: cbe9 8dbf 28b6 17bf 7fcd 60be 5afa 71bf
00000320: c07b 853e 2328 963e fb2c 92bd 98ae e63c
00000330: ee61 a53e f633 92be ef05 593e 8489 86be
00000340: daa4 c7bd 9c57 5cbe b00a 8c3d f16e d6bd
00000350: 0022 c13d 8c11 9b3d 4520 8e3b 791e b13d
00000360: cfc3 56be 9cd3 3abd 6260 8a3e 8be6 7fbe
00000370: 335e 2f3e 632d 003f 5e42 49bd 62ae 58bd
00000380: aacf 34bd 4bd2 4cbe f12b 693d 84d5 d9be
00000390: 1439 c3be 2cb1 60be 9762 3f3e db1c 4cbe
000003a0: 85e9 59be 0852 e53d a768 86bd 54c8 f63c
000003b0: a150 00be 7fad 993e 71d5 b53e d4a7 113e
000003c0: 0af2 45be 678f e2be caa5 59bd 99d3 d43e
000003d0: 27e8 8d3e 273b 3b3e 3c7c af3e 1fa2 113e
000003e0: 9fc5 90bd b481 e8bd 8759 753e f981 bb3c
000003f0: 3c61 59be 4a84 acbe 421c 5ebe e6c3 983d
0.015549913 -0.060171165 -0.20496218 -0.13376181 -0.17703143 -0.5958013 -0.13427237 -0.091411404
-0.563606 -0.2954763 -0.16229513 -0.45446253 -0.054538094 -0.2438498 0.11569968 -0.12779123
-0.30525964 -0.21985383 -0.18534365 -0.9301777 -0.2633507 -0.037949983 -0.5218693 0.08671912
-0.46740425 -0.054803967 -0.64088464 -0.12455826 -0.5707721 -0.15170433 -0.30395812 -0.32804716
0.075772576 -0.15474473 -0.34299123 -0.04081779 0.34254256 -0.29068005 -0.3426154 0.23706572
-0.13140796 -0.27036297 -0.14330637 -0.41112372 -0.2904445 -0.25346312 0.38961405 -0.63314867
-0.49316308 -0.061586563 -0.6298109 -0.2673635 -0.45475134 0.1453535 -0.73594934 -0.32391003
-0.015222793 0.048279114 -0.1670734 -0.61499965 -0.19754064 -0.31091526 -0.33094808 -0.04347065
0.19482444 0.0063581844 -0.42236483 -0.28787646 0.12092787 -0.5446197 -0.052373126 -0.22933392
-0.2857266 -0.07137883 -0.67870533 0.44761932 -0.42813918 -0.4855131 -0.46923208 0.31616843
-0.2183357 0.20154662 -0.31295836 -0.30680215 -0.016030982 -0.35881367 -0.37715062 -0.1821385
-0.089054264 0.006234324 -0.029582871 0.23221977 -0.18061209 -0.48109856 -0.35580182 -0.2541377
-0.21286216 -0.07935729 -0.26681605 0.09516318 -0.55334765 -0.64376974 -0.115046374 -0.6477439
-0.4428702 -0.7852946 -0.74532044 -0.04205941 -0.45359737 -0.4294988 -0.7586434 -0.5886722
-0.56075764 -0.23713058 -0.9938463 -0.58197194 -0.35131177 -0.13657165 -0.4723939 -0.44511682
-0.47218663 -0.55363196 -0.2506008 -0.6059174 0.19346578 -0.5114804 -0.99617153 -0.37565064
-0.7321574 -0.53971344 -0.21229026 -0.3290112 -0.3549259 -0.68907845 -0.122100264 -0.66173685
-0.19553947 -0.90444577 -0.025843913 -0.04237297 -0.6535145 -1.1009655 -0.13005076 -0.14396456
-0.52961504 -0.5574126 -0.82189435 -0.47861987 -0.67895126 -0.6227232 -0.21523757 -0.38665828
-0.48813066 -0.39711326 -0.33672032 -0.34191597 -0.8000935 -0.39660963 -0.5962862 -0.4027171
-0.26012704 -0.30952358 -0.30740505 -0.785782 -0.5464297 -1.027799 -0.6837553 -0.69389015
-0.84205467 -0.42466196 -0.47804317 -0.4728857 -0.39093563 -0.3383948 -0.56606287 -0.19956405
-0.6842408 -0.684069 -0.7400678 -0.57742554 -0.2155066 -0.43977696 -0.29634616 -0.39245817
-0.42276153 -0.33745527 -0.6300591 -0.42460573 -0.36564845 -0.28672546 0.1751432 -0.306761
-0.71256655 0.047313202 -0.52854633 -0.6100493 -1.1086973 -0.59262323 -0.2195339 -0.9452263
0.26070976 0.29327497 -0.071374856 0.028159425 0.32301277 -0.28555268 0.2119367 -0.2627679
-0.0974824 -0.21517795 0.06837976 -0.10470379 0.09430313 0.07571706 0.004337343 0.0864839
-0.20973133 -0.045611963 0.2702666 -0.24990289 0.17125778 0.50069255 -0.04913556 -0.05290068
-0.044143356 -0.20002095 0.05692667 -0.42545712 -0.38129485 -0.21942586 0.18689953 -0.19932882
-0.21280487 0.11197287 -0.065629296 0.03012482 -0.12530757 0.3001518 0.35514405 0.14224178
-0.19330612 -0.44250032 -0.053136624 0.41567686 0.2771618 0.18284284 0.3427447 0.14222
-0.07068943 -0.11352864 0.23959933 0.022889124 -0.21228498 -0.3369468 -0.21690467 0.0745924

bias_hh_l0 f4 [300]
00000000: 217e 863d 9ea0 fabb 6f0a 1bbd ec43 9b3c
00000010: 96c8 7dbe b3d1 23bf 7967 14bb 0e07 5ebd
00000020: 5bd7 02bf acff 97be 47de 63be bc30 06bf
00000030: 65f0 42be 27aa bcbe 27fe e63d 552e 5fbd
00000040: 4061 85be c5ee 95be e5b9 8dbe f486 84bf
00000050: e022 cebe b1db 72bd 1322 0cbf 4655 eb3d
00000060: 2707 e6be 6f85 a5bd a889 3bbf db8e 81be
00000070: 4eec 1cbf 4592 2cbe 854e c9be a402 c5be
00000080: 4715 013e f5b0 86be d5b4 81be 6fed babc
00000090: ea2f c83e 1c0a 33be 2af2 ddbe 7545 223d
000000a0: e9b7 95be 3256 83be 2c9a 19be 10e2 c4be
000000b0: dacc 74be 8678 4abe eff6 0c3f 5822 0fbf
000000c0: 0bf4 0bbf a5f2 e53c 2760 34bf 487b 89be
000000d0: ec08 d1be 83b7 0e3e 6737 2ebf f46a 93be
000000e0: 9b3c 0fbc dc85 8e3d cbb0 12be eda6 fdbe
000000f0: 3d19 79be bb1d 9bbe feb6 66be 0264 e3bc
00000100: f161 e23d e697 123d a3a9 94be 7e8e c5be
00000110: 8ee8 2a3e b027 f6be 2b1d 9dbd af9e bebd
00000120: e899 66be c290 acbd 515e 36bf f394 d03e
00000130: 2fc0 f2be 137c d8be 781c e3be fe8a a13e
00000140: 3a91 7cbe 6c3f 013e 4029 54be 9c43 c5be
00000150: 11c3 13be 194f b7be 1588 a5be 4dc6 99be
00000160: 49ae 05be 78db babd bd37 613c 5600 7b3e
00000170: f612 1abe c856 debe a843 92be 868e 95be
00000180: 3b6f 07be 4ee5 44be 81e4 d4be 66e0 173a
00000190: 93ae 1ebf d7b2 3cbf 1170 d3bd 2e86 26bf
000001a0: 4442 ecbe ec56 5fbf 88be 4abf 1f88 33bd
000001b0: 145e 03bf 6756 01bf 986f 34bf a81a e4be
000001c0: ee52 10bf 0c4f 66be 16df 65bf 7f96 fabe
000001d0: 7ac3 d9be a8ed d1bd 3494 f9be 4f71 edbe
000001e0: cbf2 e9be 29a2 0dbf 1e56 0dbe 5ec8 1cbf
000001f0: 154a 213e b610 0abf 6c7e 8ebf 393f a9be
00000200: 1a97 48bf 9d7c 1ebf 45df 25be 9d08 e3be
00000210: a9ff b8be 0215 0cbf ba0a 27be a4fa 0bbf
00000220: b0f6 50be b1bc 5cbf ef3a 90bd e898 ad3d
00000230: cfd7 29bf ffd3 8bbf 0003 2abe 609f 59be
00000240: 68ee 06bf 84f8 f7be ff2b 3cbf b96b fcbe
00000250: 08eb 1cbf 3a71 15bf 7424 70be e5ae c2be
00000260: 3cc5 19bf 71a7 d6be 6a59 9bbe b7d2 b0be
00000270: f1a8 52bf a1a0 f8be 52fe e6be af6e 90be
00000280: c877 5dbe 3a98 c8be d7e3 babe 6be2 37bf
00000290: dc31 fbbe d807 7fbf bbec 13bf 1d36 2bbf
000002a0: 870c 3fbf 357b 93be 61fa 11bf 5a75 eabe
000002b0: 2a9c d9be 7861 d9be f9ce 1abf 1e6d 1fbe
000002c0: 87c9 23bf 0e6e 12bf c11d 2cbf a3d6 23bf
000002d0: ce6e a1be 8a37 d8be 61c6 86be d4f2 dfbe
000002e0: 2780 c6be 5f7f a2be 3db1 01bf d3ab d5be
000002f0: 7324 dfbe 98a8 a2be cf78 593e ebbc 48be
00000300: 1903 34bf ebd6 aa3d 0a5f cfbe aadf 3ebf
00000310: fac3 95bf 9cd9 16bf ab03 98be a235 7bbf
00000320: f2c8 ca3e d941 643e cf98 78bc 7054 0dbc
00000330: af28 563e 9ef7 1abe 2731 553d 5497 ebbe
00000340: 114f a5be d1f2 15be f2a0 353e 5810 4abe
00000350: 93ee 15bd c88d 48be 7394 91be 2cf2 4c3e
00000360: 05a4 ccbd 0ce4 99bd a134 f83e 0dc3 68bc
00000370: 9f7c 253c 564b 963d e6ae 60be 5f88 c7bd
00000380: 08d0 30bd 536e 1abe 64ed 18be ba24 c6be
00000390: 5483 9cbe 979b 913d de93 553e 0a33 5abe
000003a0: 191f 3cbe 6ea6 ba3e a436 6c3e 51f4 c63c
000003b0: 5d0f a1bd 2095 0bbe 116b 7a3e eec2 583e
000003c0: 6843 7f3d f7bd e8be 4d98 c4be 095a 143f
000003d0: a85f 67be 554f 47bc 1179 1c3e fad7 293e
000003e0: 3643 c3bd 3b4c a6be 4842 7d3d 0399 4a3e
000003f0: 3c5a d7bd 0cb1 1cbe cca9 88be 7bb8 91bd
0.06567026 -0.0076485416 -0.037851747 0.018953286 -0.24783549 -0.6399185 -0.0022644682 -0.054205947
-0.51109856 -0.2968725 -0.22252761 -0.5241811 -0.19037016 -0.36848566 0.112789445 -0.054487545
-0.26050758 -0.2928373 -0.2768089 -1.0353684 -0.40260983 -0.059291545 -0.54739493 0.11490874
-0.44927332 -0.08082091 -0.7325692 -0.25304303 -0.6129807 -0.16852672 -0.39317718 -0.38478577
0.12605773 -0.26306883 -0.25333276 -0.022818295 0.39099056 -0.17484325 -0.4334882 0.03961702
-0.29241875 -0.256517 -0.15000218 -0.38453722 -0.2390627 -0.19772539 0.5506429 -0.5591178
-0.54669255 0.028069803 -0.70459217 -0.2685187 -0.4082712 0.13937192 -0.6805329 -0.28792536
-0.008742477 0.069591254 -0.14325254 -0.49541417 -0.24326034 -0.3029612 -0.22530743 -0.027757648
0.11053837 0.035789393 -0.29035673 -0.38585275 0.16690275 -0.48077154 -0.07671579 -0.0930761
-0.22519648 -0.08426048 -0.71237665 0.4073864 -0.4741225 -0.4228216 -0.44357657 0.31551355
-0.24664775 0.1262185 -0.2071886 -0.38528144 -0.1442988 -0.35802534 -0.32330385 -0.30034104
-0.13054766 -0.091238916 0.013746199 0.24511847 -0.15046296 -0.43425584 -0.28567243 -0.292103
-0.13226025 -0.19228098 -0.41580585 0.0005793631 -0.6198513 -0.7371039 -0.10324109 -0.6504849
-0.46144307 -0.8724201 -0.7919698 -0.043830987 -0.51315427 -0.50522465 -0.7048278 -0.44551587
-0.5637654 -0.22491091 -0.8979353 -0.48942944 -0.4253195 -0.102504075 -0.48745883 -0.4637551
-0.4569305 -0.5532556 -0.13802382 -0.61243236 0.15750916 -0.5393175 -1.1132331 -0.33056048
-0.7835556 -0.61908895 -0.16198452 -0.4434251 -0.36132553 -0.54719555 -0.16312686 -0.5467932
-0.20406604 -0.8622542 -0.07042491 0.0847643 -0.6634492 -1.0924071 -0.16602707 -0.21252203
-0.5270753 -0.4843179 -0.7350463 -0.49300936 -0.6129613 -0.58375895 -0.23451406 -0.3802406
-0.6006658 -0.41924623 -0.30341655 -0.34535763 -0.82289034 -0.4856005 -0.45115906 -0.28209445
-0.21627724 -0.3917864 -0.36501953 -0.7182986 -0.49061477 -0.99621344 -0.577831 -0.66879445
-0.7462849 -0.28804937 -0.5702267 -0.45792657 -0.42501956 -0.42457175 -0.60472065 -0.15568969
-0.6397938 -0.5719918 -0.672329 -0.63999385 -0.3152985 -0.42229873 -0.26323226 -0.4373995
-0.38769647 -0.317378 -0.5066107 -0.41732654 -0.43582496 -0.31769252 0.21237491 -0.19603316
-0.70317227 0.083417736 -0.40502197 -0.74560034 -1.1700432 -0.58925796 -0.29690298 -0.9812871
0.39606434 0.22290744 -0.015173151 -0.0086260885 0.20913957 -0.15133521 0.05204883 -0.46013892
-0.32286885 -0.14643408 0.17737177 -0.19732797 -0.036604475 -0.19585335 -0.2843357 0.20014256
-0.09992222 -0.075141996 0.48477653 -0.01420666 0.010100513 0.07338588 -0.21941718 -0.097428076
-0.043167144 -0.15081148 -0.14934307 -0.38699895 -0.30568945 0.071097545 0.20857188 -0.21308532
-0.18371238 0.364551 0.23067719 0.024286421 -0.078642584 -0.13631105 0.24454905 0.2116811
0.062320143 -0.45457432 -0.38397446 0.5794988 -0.22595084 -0.01216491 0.15280558 0.16586295
-0.09534304 -0.32480034 0.06183079 0.19784932 -0.10515258 -0.15301913 -0.26692045 -0.07115265

weight_ih_l1 f4 [300, 100]
00000000: e7e6 cfbe b2bc c73e 98ca 36bf f0ba f6be
00000010: d738 b43e ab38 d33d c810 a2be 27f3 eebe
00000020: 6ada 443e 52d0 3a3e 04cf b2be 16bc 3fbe
00000030: c029 373e ebd1 c8be f142 ae3e 11e6 abbe
00000040: ce72 1abf 2382 b83e ccfb 68bf 3800 b7be
00000050: e633 e73e 51ff 35bf 63a4 ee3e dfc0 fd3e
00000060: 16ff 73bd 83ae 80bf f176 893d e23c dd3e
00000070: f081 ad3e 8d54 393d 75a1 843e d8b9 0dbf
00000080: ae15 5cbe 98aa bebe 1687 d13e 9f55 233f
00000090: 907a 68be b26d cdbd 69b2 353d 0bcb 65be
000000a0: 8c90 703d 41b5 f53e aa23 d3bc af85 7b3e
000000b0: f11e 59bf bef1 66bf 25d2 04be 0287 c93e
000000c0: d7d0 bcbe 9b39 84be 87f7 4b3e 0b41 803e
000000d0: ba8c 97be 472f 83be a886 05bf 5ae7 b6be
000000e0: c9be a4bb 9fcc 29bd aed0 953e 5793 b3be
000000f0: 803a 88be 286e e4bd 2598 d03e 0913 a53e
00000100: aa55 30bf 53c5 13bf 9c21 dabe 8da1 4f3d
00000110: abf7 a63e 7f6e 32bf ff49 6ebe e2f4 c73d
00000120: 33ff 29be e223 623f 61a1 cbbd 5be6 d9be
00000130: 8881 acbe ca49 33be 1d5a 79bd 8c0a ff3d
00000140: 2132 b2be 2854 a03e 3f23 c7be 27b0 80bf
00000150: e31a 293f c2b3 6f3e e4eb ec3d a1df 423f
00000160: 580c a13e 1ad8 2abe 612c 223f 6979 edbc
00000170: 4e2f 173f 1063 a43e 75f5 b6be 0110 4cbf
00000180: fcd9 e1be 4d46 ea3e 9141 dc3e 9be1 4fbd
00000190: 05ed 4cbf c5a4 a53e 2dd3 ae3e 0f2c a93e
000001a0: 35ba ea3e 33da 07bf f3ec 30be 5e70 293b
000001b0: 3b09 9fbe cb1a aebd 3fe5 ac3c 8025 b93e
000001c0: 0e88 60bf 186a 083f 588b 07bf 7800 57bf
000001d0: f54e f5be d147 33bd 178e b8be ef9b d03d
000001e0: 4313 a1be 7f55 00be 918f 66bd bc59 87be
000001f0: d742 a7be 2cca 1ebf 2b65 193e 59b3 a13d
00000200: 7bf8 933e 3010 2a3f 0468 51bf 3410 b1be
00000210: a395 023f 7561 cb3e 01b2 d53e 3d19 6fbe
00000220: 8cb2 89bc 2683 83be 5c7c be3e d38b 4bbe
00000230: 0a15 98be eada 213d 3162 85bd e532 353e
00000240: 7739 cb3e 1412 07bf cffc 86be ae81 7b3e
00000250: 9f34 abbd 8083 813e c094 b43f 0b02 153e
00000260: 15c8 363e e203 573e 5cd7 dd3e 91fc 963d
00000270: 0b0a 7f3e 647a 2abf 7e36 043e 4e27 35bf
00000280: 176d bfbe a88a 7b3e 6c93 f4bd 5329 adbd
00000290: 4397 86bf a8ab f8be 51d5 653f 901e 4abd
000002a0: 5cd9 f0be f2cc 03bf 04b8 d53e 0149 483e
000002b0: ecef 59bf 29bd 27bf ce9c 4b3f b84b be3e
000002c0: e5a3 dabe 2215 6e3e 0995 903e 1c3b 903e
000002d0: e0dc 333f b5e1 d8be 49a5 30bf d4c8 12be
000002e0: 364e 9ebe 40e8 673f 95e9 b3bd df91 663e
000002f0: a6e1 05be fb5b fb3e 2bb4 083f 0812 023f
00000300: e951 6cbf 1765 6dbf 43ee 39bf e353 0fbf
00000310: 448c f8be cb9c a73e 876b 6bbf c10b 183f
00000320: 9151 733f 8b3c a5be 8f78 a5be 20a8 39be
00000330: 4aeb 06bf 95cd 533f 2aad 95bc c01a 003e
00000340: 2d02 3bbe 8a9f 973e d9a1 90be 895f 0e3f
00000350: 85b7 353f 6642 8e3e 03e8 d2be 168f 64bc
00000360: cbee c63f cf63 783e 2a49 033f 0f32 41be
00000370: 1f49 f4be d935 79be 597c d73d 2764 023f
00000380: 4cbd 75be 6818 6e3e 0f35 fcbc 31dc 273e
00000390: 12d5 e93e 5550 2a3e fab5 81bb fd8e 153f
000003a0: 31a3 8d3d 2989 16bd a5b6 91be 0322 823e
000003b0: 1626 8d3e 65b1 8fbe 738d 4fbf 3a30 813e
000003c0: b7c8 0bbf f99e 573f 57c2 44bf 1645 3bbf
000003d0: 915e 523e 57fb 14bf 2908 183f b66a 09bf
000003e0: d40a 653f ed61 1e3f 0f3d 86be 48f4 f43e
000003f0: 21a8 debc 6784 bc3e 0668 943e 892a f8bd
-0.40605852 0.3901115 -0.71402884 -0.48189497 0.35199615 0.10313543 -0.31653428 -0.46669886
0.19223943 0.1824353 -0.34923565 -0.18724093 0.1788702 -0.39222655 0.34035447 -0.33573964
-0.6033143 0.36036786 -0.9100921 -0.35742354 0.45156783 -0.71092707 0.46609792 0.4956121
-0.05956944 -1.0053257 0.067121394 0.43210512 0.33888197 0.04524665 0.25904432 -0.553617
-0.21492645 -0.37239528 0.40923375 0.6380252 -0.22703004 -0.10030688 0.0443596 -0.22440736
0.0587316 0.47989848 -0.025773842 0.24562715 -0.8481284 -0.9021262 -0.12970789 0.39360815
-0.36878082 -0.258252 0.19918643 0.25049624 -0.29599553 -0.25622007 -0.52158594 -0.35723382
-0.005027626 -0.041454908 0.29260772 -0.3507335 -0.26607132 -0.11153823 0.40741077 0.32241085
-0.68880713 -0.5772297 -0.42603767 0.050691176 0.3261083 -0.69699854 -0.23270415 0.097635046
-0.16601257 0.88336 -0.0994289 -0.4255856 -0.33692575 -0.17508617 -0.060876954 0.124531835
-0.3480387 0.31314206 -0.38894078 -1.0053757 0.6605665 0.23408416 0.1156843 0.7612248
0.3145473 -0.16683999 0.63348967 -0.028988557 0.59056556 0.3210683 -0.35734144 -0.7971192
-0.4411162 0.4575676 0.43018773 -0.050752264 -0.80049163 0.32352272 0.3414549 0.33041427
0.4584519 -0.5306732 -0.17277889 0.002585433 -0.3106173 -0.08501204 0.021105407 0.36161423
-0.877076 0.53286886 -0.52946997 -0.8398509 -0.47911802 -0.04376966 -0.36045906 0.10185992
-0.31460008 -0.12532614 -0.05628926 -0.2643565 -0.32668182 -0.6202724 0.14979999 0.07895536
0.28900513 0.6643095 -0.8179934 -0.34582675 0.5100958 0.3972279 0.4173737 -0.23349471
-0.01680877 -0.25685996 0.37204254 -0.19877557 -0.29703552 0.039515413 -0.06512869 0.17695196
0.3969228 -0.5276196 -0.26364753 0.24561188 -0.08359646 0.2529564 1.4107895 0.1455156
0.17849763 0.20997575 0.4332837 0.07372392 0.24906175 -0.66593003 0.12911412 -0.707631
-0.37387916 0.24564612 -0.11942181 -0.084551476 -1.0514911 -0.48568463 0.8977862 -0.049345553
-0.47040832 -0.51484597 0.41741955 0.19559099 -0.85131717 -0.6552301 0.7953614 0.37167144
-0.42703167 0.23250249 0.28238705 0.28170097 0.70258904 -0.423597 -0.69002205 -0.14334422
-0.30919045 0.9058876 -0.087847866 0.22516583 -0.1307436 0.49093613 0.53399915 0.50808764
-0.92312485 -0.92732376 -0.72629184 -0.55987376 -0.48544514 0.3273681 -0.9196095 0.59392935
0.95046335 -0.32272753 -0.3231854 -0.18130541 -0.5270277 0.8273557 -0.018271048 0.12510204
-0.18262549 0.29613906 -0.2824848 0.55614525 0.70983154 0.27785033 -0.41192636 -0.01395013
1.5541624 0.24256824 0.51283514 -0.18866752 -0.47712037 -0.24336948 0.10521764 0.5093407
-0.23997992 0.23251498 -0.030787019 0.1639259 0.45670372 0.16632207 -0.003958461 0.5842131
0.06915892 -0.0367519 -0.2845966 0.25416574 0.2756812 -0.2806503 -0.8107521 0.25232106
-0.5460314 0.8422695 -0.7685904 -0.7315229 0.20543887 -0.58196014 0.5938745 -0.5367845
0.8946965 0.6186817 -0.2621846 0.47842622 -0.02717978 0.36819765 0.28985614 -0.12117488

weight_hh_l1 f4 [300, 100]
00000000: 4808 7d3e 1dd3 513e 8709 543e af78 06bf
00000010: 60d1 dbbe 9f58 8dbd a415 36bf 0507 79bf
00000020: 6b0c cabd 6e02 443f 8e87 e63e 0577 033f
00000030: c14b 9ebe a64a fcbd 6074 7dbe d9f4 813f
00000040: eea0 983c da7b 46bf f536 0f3f 4942 5abd
00000050: bcfd eebe 5c12 423e 0268 6dbe 5328 0a3f
00000060: a78d 953e 47c1 5d3d df44 8fbd 1113 243e
00000070: a5f1 6fbf 2e78 f8be aa3f e83e b482 d7be
00000080: 5204 9fbd d8dd 8c3d 4611 253e 80c4 c03d
00000090: 79ea f4be 0ea9 f63e cebf 14bf db4f 443e
000000a0: 5528 37bc b1ea 913e 3e13 b2bd 8c73 aa3d
000000b0: 8685 ea3d 9e6f a9bd d149 77be db04 c43e
000000c0: 5c1f 7bbe 51b0 ecbe 299e 2bbf eccb 9abd
000000d0: 9950 b2be b2b3 213e 4dfd 27bf 2a25 713f
000000e0: 8284 bebe 5cb6 ff3d ea32 67be b27b 073c
000000f0: 9c18 b13e 79a5 35bf 1f33 8dbe 05c6 9cbe
00000100: a698 08bf 0dc8 283f 561f e83e 3203 4f3e
00000110: c7c1 b63d a563 7abe eb88 fe3d 5ee9 313e
00000120: 5a2f 453f 7c57 e63e 987f 2a3f 91c3 c9bd
00000130: c665 d93e 202b 203f 6b18 6ebe cd52 063f
00000140: 6ebe 10bf 09b5 f53e 4a0b eabd 03d9 7d3e
00000150: d177 5dbd b931 ccbe 0c29 26bf 8d36 acbe
00000160: f8dd 3a3e c2ef 863e 4b0b 143e 3775 1a3e
00000170: 7764 ccbe dfcd e0bd 06ac a23e e636 76bc
00000180: 981f f9bd 74af a33e e16b 48be b389 e9be
00000190: 6e9f 96be 70f2 923e c03e f2bd b3b0 aabd
000001a0: 774f 913d 49d7 993e 6b44 25bf 4fa4 c93e
000001b0: 47cd 7c3e 57de 59be 3db1 cebe 3d9a 46bf
000001c0: 641c 813e e09d f3bc 2be1 eabe b618 7ebe
000001d0: 1b46 14be 34a0 5abc c7de 25bf a038 07bf
000001e0: 812d a83e f238 bebe 0016 a8be 70b6 c5bd
000001f0: 2e6e 55be f40e b8be 4c86 123e d9ab 913e
00000200: 6b7f 5b3e e94f 303f a3af f4bd 3eee 50bf
00000210: 0791 5f3e 4d63 8bbc 58a9 0d3f c422 a7bd
00000220: 4fe1 3e3d 383f 973d df4e 6dbc 1a44 d13e
00000230: 252d 553c fb8b 67be 8cdd 8a3e f7a5 dc3c
00000240: ba84 f33e d82a 16bc 9f64 bf3e 701b 49be
00000250: 3c57 37be ac9f a23c 53bf 32bd 9060 dbbe
00000260: 3873 75be 6b22 54be dd5a d23e 5528 1b3f
00000270: 56c6 ed3e 3f73 6bbe 6f83 03bf 4ab8 a23e
00000280: 315b 5c3f 2645 8dbe 17f7 c9be 3030 383e
00000290: 093c 27bd aca0 223f 8750 2e3f 608e afbc
000002a0: 48a7 27be 63a2 2f3f 41d8 de3e 7379 0bbe
000002b0: f7e5 0c3f 5926 79be 8782 673e 514f c23e
000002c0: 57ad 74bd 9c0f d13d 07cc dfbe 5504 23bd
000002d0: b39b 3ebb 8f78 f33e ed72 2ebc df31 57ba
000002e0: 4eb5 0bbe 1a46 56be f9c6 23bf 0ec7 b73e
000002f0: b985 883e 864b 3f3e 0b49 8b3e cdca 35bf
00000300: 5f3e b9bd 7389 2d3f 89c6 7e3e 1eaa 6cbf
00000310: 3cb4 573e 9352 afbe 7d21 3ebe 448a 04be
00000320: 60cf 263f b741 9cbe 1078 433f 2be9 abbd
00000330: c214 8a3e 8418 1b3f 48ae 543e 4212 e33b
00000340: 3fbc d33e 3ebd d83e e354 1fbe a2c6 4f3c
00000350: 940f 783d 690d 5e3f ffd5 90be 94f6 4ebf
00000360: 45da 7abe a13f ccbd 3463 143a 4eb7 c83d
00000370: 1d67 ecbe b3d9 783e eb71 3c3e 77e6 b83d
00000380: 046f 2abf d17a 28bf 1a8a 743e d527 b2bd
00000390: 2581 a13e 898e ca3e 6d90 56bd bf72 d7be
000003a0: c293 2e3d 9836 87bd 1df5 f0be 04d5 c9be
000003b0: 14cb ddbd 192e 9cbe f81a 64bd 2564 ef3d
000003c0: 6beb 00bf 69bb 8f3d 272b 0c3f dc4e 8dbe
000003d0: 252e 1cbf 5215 863e 5c7c b8be 53cf e6bd
000003e0: 1fa8 aabe fe24 7b3f 7251 84be a18c b73e
000003f0: 72db f2be 822c 463e 1db4 bcbe 4cb8 4c3e
0.2471019 0.2049069 0.2070676 -0.525279 -0.42933178 -0.06901669 -0.7112677 -0.97276336
-0.0986565 0.7656621 0.45025295 0.51353484 -0.3091717 -0.123189256 -0.24751425 1.0152847
0.018631425 -0.7753273 0.5594323 -0.05328587 -0.4667796 0.18952316 -0.23184207 0.5396778
0.29209635 0.0541394 -0.06995558 0.16022898 -0.93728095 -0.4852919 0.45361072 -0.42091906
-0.07764496 0.06878251 0.1611987 0.094124794 -0.47835138 0.48175853 -0.5810517 0.19171087
-0.0111790495 0.28499368 -0.086950764 0.0832282 0.11451249 -0.082732424 -0.24149252 0.38284954
-0.24523681 -0.4622827 -0.6703821 -0.07558426 -0.34827116 0.15791205 -0.6562088 0.9419733
-0.3721047 0.12485954 -0.22578016 0.008269237 0.34589088 -0.70955616 -0.27578065 -0.30619827
-0.53357923 0.65930253 0.45336407 0.20216063 0.08923679 -0.24452074 0.12428459 0.17374179
0.7702538 0.4498862 0.6660094 -0.098517545 0.4246046 0.62565804 -0.23251502 0.52470094
-0.5654057 0.4798968 -0.114279345 0.24789815 -0.054069344 -0.39881685 -0.6490638 -0.3363537
0.18248737 0.26354796 0.14457433 0.15083776 -0.399204 -0.10976767 0.31771868 -0.015027737
-0.12164229 0.31969798 -0.19572403 -0.4561287 -0.2941851 0.2870059 -0.11828375 -0.08334484
0.07095235 0.30047062 -0.6455752 0.3938317 0.24687682 -0.21276222 -0.40369597 -0.775791
0.25216973 -0.029738367 -0.45874915 -0.24814114 -0.14479868 -0.013343859 -0.64793056 -0.5282078
0.32847217 -0.3715282 -0.32829285 -0.09653938 -0.20842811 -0.35948908 0.14309043 0.28451422
0.21435325 0.68871933 -0.119475625 -0.8161353 0.21832667 -0.017015124 0.55336523 -0.08160928
0.04660159 0.07385105 -0.014484136 0.4087227 0.013011252 -0.22611992 0.27122152 0.026934607
0.475622 -0.009165488 0.37381455 -0.19639373 -0.17904371 0.019851528 -0.043639492 -0.4284711
-0.23969734 -0.20716254 0.41084948 0.60608417 0.4644038 -0.22993182 -0.51372427 0.31781226
0.8607665 -0.2759182 -0.39446327 0.17987132 -0.04082874 0.63526416 0.68091625 -0.021430194
-0.16372406 0.6860716 0.43524364 -0.13620548 0.550384 -0.24331035 0.22608386 0.3795114
-0.059735622 0.102080554 -0.43710348 -0.039799053 -0.0029084503 0.47552916 -0.010647518 -0.00082090305
-0.13643381 -0.20925179 -0.63975483 0.35894054 0.26664522 0.18681154 0.27204165 -0.71012574
-0.090450995 0.67787856 0.24880423 -0.9244708 0.21064848 -0.34242687 -0.18567462 -0.12943369
0.6516018 -0.30518886 0.76355076 -0.08394083 0.26968962 0.6058428 0.20769608 0.0069296667
0.41354558 0.4233188 -0.15559725 0.012681635 0.06056173 0.8673921 -0.28288266 -0.80845
-0.24497326 -0.09973074 0.00056605344 0.098005876 -0.4617242 0.24301796 0.18402831 0.09028333
-0.66575646 -0.658124 0.23880807 -0.086990036 0.31543842 0.3956187 -0.05238383 -0.42079732
0.04262138 -0.0660221 -0.47062007 -0.3942033 -0.1082975 -0.3050392 -0.055689782 0.11689023
-0.5035922 0.070181675 0.54753345 -0.27599227 -0.6100791 0.2618814 -0.3603238 -0.11270013
-0.3333139 0.9810332 -0.25843388 0.3584948 -0.47433048 0.19352916 -0.36856166 0.19992179

bias_ih_l1 f4 [300]
00000000: eca7 463e 3559 aebd 78e2 21be 50c5 c7bd
00000010: d251 03bf 5228 1bbe 70f4 97bc 4917 54be
00000020: c80a d8be 3d0f 0bbe a066 e0be 6de3 893d
00000030: f92a ecbd 12af b8be de96 7abe 499a 21be
00000040: f47b c83e c2ce 81bd 4231 15be 6ac8 5d3e
00000050: bac7 cfbc 6573 123e c09c 10be e5d4 5cbd
00000060: 5585 223e 1d3c 25be ff7e 393e f5bd 203e
00000070: 88a2 9fbe b1f1 00bf 996a d1be 9d05 b7be
00000080: f52a 673d 5a0b 7a3d 60be fcbd 714b 933e
00000090: 56f7 84be f47d 21be 5d04 dcbd 476c b43d
000000a0: 0142 323e 1a1f bebe 8a6d 6ebd a2c7 00be
000000b0: 2258 87be 3f3c 0abd e806 80bd a38a 89bd
000000c0: 47e9 57be dc4c 17be e7a9 06be 386e e23c
000000d0: b14a 47be 7aef 75bd 4b33 57be a367 35be
000000e0: 9d30 adbd 58f6 0cbe e123 5a3e 723c 37be
000000f0: 2dd1 4fbe aa99 30be 35f0 853c a8af 483d
00000100: f44a f4bd 5c44 a8be 3a88 6e3e 2b5f 043e
00000110: fd67 673e 95c9 06be cb2f 45bd 54d4 28be
00000120: 5a89 733d b0f5 11bc 3483 0dbf 536d 27be
00000130: 9c4c 48be ec9a 073e 123c 6abc 5295 70be
00000140: 527c 90bd 2f18 763d 779d fdbd 7469 d6be
00000150: acaa 69be 1b78 15be 5a45 83be fbfa c8be
00000160: 2b41 a8be 9df1 b8be a41a 21be 8005 ca3d
00000170: 7807 ad3d 5d6d 07bf e55c 72be 9854 d1bd
00000180: a663 863e 3014 17be c620 4a3e c0cf f9be
00000190: c921 7abe d15b bdbe 88b9 02bf 9632 47be
000001a0: 87e0 f4be 196e 65bf f723 33be c314 afbe
000001b0: 108a e6be c043 51bf 751a f6be 7745 74bf
000001c0: 25d0 fbbe 71be a5be d7f5 7abe cc3b 02bf
000001d0: b796 e33e 0ad9 85bf 176b 14bf 965f 9cbe
000001e0: 5650 55bf feaa a9be d48a 14bf 6e15 63bf
000001f0: 2ff8 bdbe 35d1 efbe edb1 8c3e c607 01bf
00000200: 9091 1fbf 56e8 dfbe 9d43 1fbf 99ad fcbe
00000210: ad8c 203f d4b8 04bf 8f91 24bf 3254 f6be
00000220: bb13 abbe 00c9 08bf 0ef0 04bf 40e7 09bf
00000230: c54d c63e 448b e1be 30e1 ccbe 660f aebe
00000240: 9110 57be 5993 89be 653a 2cbf 31f0 fbbe
00000250: 5d10 0fbf 5ec8 1abd 0b02 d8be ac36 57bf
00000260: e98d b3bd 2ded 4bbe 6247 5fbe be36 fabe
00000270: 3f12 34bf c16c 1cbf 693d bebe 6d18 0cbf
00000280: c20e 0bbf 117b 91be 0119 203f ce92 1cbf
00000290: 0138 97be d995 11be dd56 efbe 0fee 6c3e
000002a0: 69ff 973e 6553 84be a59b 28bf 48e5 e9bd
000002b0: 46ac 073f 6900 39bf 69e7 4dbe 085c 23bf
000002c0: e822 8abf 9483 c5be b7da e5bd 0736 c1be
000002d0: d564 d5be 200e 3bbf 6713 34bf f98f e2be
000002e0: 6a8e 02bf b6dd 1cbf cfea 20bf ad12 1abf
000002f0: 488f 00bf 0cb7 9bba a0d6 8ebf 5ce0 68bd
00000300: 9cfb b3be b5b7 e5bd 1c96 8abd 23ce f0be
00000310: 3ac3 143f 1562 8abe a665 bf3e 5842 cfbe
00000320: fa8c 96be 32de de3d b586 0f3e d352 b6be
00000330: 9d12 d83d 9fe0 553d 70eb 753e 38b8 fc3d
00000340: ccf7 df3d c051 43bd 3beb eebd 1eba 7ebe
00000350: 34c9 4c3e 1053 f8bd 7048 553e 1047 0fbe
00000360: f9bb 44be 6e3b 22be aecb 033d 730b 483e
00000370: 5fa2 c63d 878b 963e 5cb7 b0be 2de9 863c
00000380: 5fac 233c 5ce4 7d3e d0c2 bebe ce15 a8be
00000390: eae4 b23d 76b5 4a3e 67cf 9dba 0c56 8bbe
000003a0: dc25 84be 024d 893e 3724 06be 450f c63e
000003b0: dd88 b8bd ce4d 9abe 052d 613e 0814 ecbe
000003c0: 3abc d4bb e87d 86be f375 853e 2459 2dbe
000003d0: 8429 d3bc a681 c7bd c0c0 11be 9447 f3bd
000003e0: 7943 803e 0ab1 7fbe 3d39 24bd 8ebc 98be
000003f0: 7fc4 c6bd 9f32 a23c 9d03 b33d 771c d2bd
0.19399995 -0.08513109 -0.15809047 -0.09754431 -0.5129672 -0.151521 -0.018549174 -0.20712008
-0.42195725 -0.13580032 -0.43828297 0.06732831 -0.11531634 -0.36071068 -0.24471614 -0.15781511
0.3915707 -0.06338264 -0.14569572 0.21658483 -0.025363792 0.14301832 -0.14122295 -0.05391397
0.15871175 -0.16136213 0.18114851 0.15697463 -0.3117869 -0.5036879 -0.4090164 -0.3574647
0.05643745 0.061045982 -0.12340999 0.28768495 -0.25969952 -0.15770704 -0.1074302 0.08809715
0.17407991 -0.37133104 -0.058209933 -0.12576154 -0.26434427 -0.03374886 -0.06251317 -0.06715896
-0.21085082 -0.14775413 -0.1315075 0.027640447 -0.19462086 -0.060042836 -0.2101566 -0.17715316
-0.08456538 -0.13765848 0.21302749 -0.17894152 -0.20294638 -0.17246118 0.016349891 0.048995644
-0.11928359 -0.32864654 0.23294154 0.12926929 0.22598262 -0.13162835 -0.048141282 -0.16487247
0.05945716 -0.008908674 -0.55278325 -0.16350298 -0.19560474 0.13242692 -0.014296548 -0.23494461
-0.07054962 0.060081657 -0.1238355 -0.4187733 -0.22819012 -0.14596598 -0.2563885 -0.39253983
-0.3286222 -0.36121836 -0.15732819 0.0986433 0.0844869 -0.5290125 -0.23668249 -0.10221213
0.262479 -0.14753795 0.19739065 -0.48791313 -0.2442695 -0.36984113 -0.5106435 -0.19452891
-0.4782755 -0.8962112 -0.17494188 -0.34195527 -0.45027208 -0.81744003 -0.4806706 -0.95418495
-0.4918224 -0.32371858 -0.24507843 -0.5087249 0.44450924 -1.045686 -0.57975906 -0.30541676
-0.8332571 -0.3313827 -0.58024335 -0.88704574 -0.37103412 -0.468393 0.27479497 -0.50402486
-0.62331486 -0.43731946 -0.62212545 -0.49351195 0.62714654 -0.51844525 -0.64284605 -0.4811111
-0.3341349 -0.534317 -0.51928794 -0.53868484 0.38731208 -0.44051564 -0.40015554 -0.33996123
-0.21002413 -0.2687023 -0.67276603 -0.4920669 -0.55884343 -0.03778874 -0.4218906 -0.840678
-0.087673016 -0.19914694 -0.21804574 -0.4886989 -0.7034034 -0.61103445 -0.37156227 -0.5472477
-0.54319394 -0.28414205 0.6253815 -0.61161506 -0.29534915 -0.14217319 -0.4674596 0.23137687
0.2968705 -0.25844875 -0.65862495 -0.11420685 0.52997243 -0.7226625 -0.20107807 -0.63812304
-1.0791903 -0.3857695 -0.11223357 -0.37736532 -0.4167849 -0.7306843 -0.70342106 -0.44250467
-0.50998557 -0.61275804 -0.6285829 -0.60184747 -0.5021863 -0.0011880114 -1.1159248 -0.05685459
-0.351529 -0.1121668 -0.06766912 -0.4703227 0.5811039 -0.27027956 0.3738224 -0.40480304
-0.29404432 0.10882224 0.1401623 -0.35610065 0.10550425 0.05221617 0.24015594 0.123398244
0.109359354 -0.047685385 -0.116659604 -0.24875686 0.19998628 -0.12125218 0.20828414 -0.13991952
-0.19212331 -0.15842983 0.032176666 0.19535618 0.096989386 0.29403326 -0.34514892 0.016468609
0.009989827 0.24794143 -0.37258005 -0.32829136 0.08735068 0.19795784 -0.001203996 -0.27214086
-0.25810134 0.26816565 -0.13099752 0.38683525 -0.090104796 -0.30137485 0.2198983 -0.46109033
-0.006492165 -0.26267934 0.2606655 -0.16928536 -0.025776632 -0.09741525 -0.14233685 -0.11878887
0.25051478 -0.24969879 -0.04009365 -0.29831356 -0.097054474 0.019799529 0.087409236 -0.102593355
