Models/LaTeX_RNN.pt (torch_old, 326431 bytes, 15 tensors)

weight f4 [100, 100]
000000 ad 4e eb bf 72 f7 56 be 9b 1c 71 bd af fd 72 bf
       -1.8383385 -0.2099283 -0.05886517 -0.9491834
000010 aa ad f6 3e 5e 06 f7 be 50 63 b2 bf 1c 1f 4c bf
       0.4817937 -0.48247045 -1.3936558 -0.7973497
000020 bf fe 9d bf a8 c0 87 be e5 5f 0e c0 81 1b 04 3e
       -1.2343367 -0.26514173 -2.224603 0.12901117
000030 17 fa 18 bf 4d 53 14 40 16 8e f8 3f f6 a8 8c bf
       -0.59756607 2.3175843 1.9418361 -1.0989063
000040 61 18 a3 3e 62 ed 57 bf 75 00 51 3f 9b 33 19 c0
       0.31854537 -0.8434659 0.8164132 -2.3937747
000050 e8 f7 04 be cd fd d8 be b2 d0 3e 3f a6 a5 17 3f
       -0.12985194 -0.42381135 0.74537194 0.59237134
000060 eb ea 68 3e 27 51 d0 be 01 56 f7 bd 35 90 1c c0
       0.22745864 -0.40686914 -0.12076951 -2.4463017
000070 0a da 8e bf 03 3d 5a bf cd c6 4e 3f 6e a9 fd 3d
       -1.116029 -0.85249346 0.80772096 0.12385832
000080 bb e3 12 3e 05 f2 20 3e 4b f9 08 bf b2 57 94 bf
       0.14344685 0.15717323 -0.5350539 -1.1589262
000090 b2 57 bf 3f 61 ff 15 3f 00 59 ff bd d9 b5 02 be
       1.4948637 0.585928 -0.12468147 -0.12764682
0000a0 5c a1 29 bf f6 78 03 3d 1a 29 5a 3e 3d b4 54 be
       -0.6626184 0.03209778 0.21304742 -0.2077188
0000b0 f6 59 44 3f f4 82 b0 3f 00 d8 81 3f 0c 7e b7 bf
       0.7669977 1.3789964 1.0144043 -1.4335341
0000c0 86 a6 07 bf ca de 6f bf c9 f9 8a 3f 23 6f 7d 3f
       -0.5298847 -0.93699324 1.0857478 0.98997706
0000d0 d7 a1 92 3e 20 8f 41 3f c7 97 f9 3f d8 e7 fa 3e
       0.286391 0.75609016 1.9499444 0.49005008
0000e0 d1 9b 8b bf f3 7f aa bf a0 90 90 3e b4 e0 3f 3f
       -1.0906926 -1.3320297 0.2823534 0.74952245
0000f0 7f 4b 21 40 67 3b 81 bf bf 07 80 bd b5 dd e3 bf
       2.520233 -1.0096253 -0.062514775 -1.7802035
000100 d3 ad a9 bf 96 37 94 bf 74 f9 83 40 fb fe 6e 3f
       -1.3256172 -1.1579463 4.124201 0.9335782
000110 c1 d1 98 bf 46 44 21 bf 76 ad 99 bf 40 38 d2 bf
       -1.1939012 -0.629948 -1.2006061 -1.6423416
000120 42 c8 05 be 87 0e 3b 3f d1 ee 65 bf 4e 87 d9 be
       -0.13064674 0.7306904 -0.8981753 -0.42486042
000130 d5 82 5c be f8 3a c1 bf c8 52 28 3f 70 9c ac bf
       -0.21534283 -1.5096121 0.65751314 -1.3485241
000140 d0 db 5d bf 61 0a b7 3e 6a bc 64 3f 5b ee 84 3e
       -0.8666353 0.35750106 0.8935 0.259631
000150 b9 1f ae bf 34 32 cb bf 92 91 29 bf 87 71 aa bd
       -1.3603431 -1.5874696 -0.6623775 -0.08322435
000160 26 ee 8f 3d 75 49 34 be d8 a1 96 bf b3 88 1d 3e
       0.07027845 -0.17606147 -1.1768141 0.15384178
000170 6f a9 99 bf 6a 31 71 3f aa 5d bf 3f 06 08 5e 3f
       -1.2004832 0.94216025 1.4950459 0.8673099
000180 df 5c 72 3e 36 dc a8 3f 0d 75 28 bf f3 48 d8 be
       0.2366824 1.3192203 -0.65803605 -0.42243156
000190 48 0b 6e 3f 6d 3c d8 bf 45 79 ff be ae de ae 3f
       0.92985964 -1.689344 -0.4989721 1.3661706
0001a0 25 01 43 3f 17 ab 8d bf 0d ef 86 bf c8 ec 8c bd
       0.7617362 -1.1067837 -1.0541703 -0.068811
0001b0 a5 ff 5c bf 3b 6c 84 3f 68 05 30 bf 1c 02 8f bf
       -0.8632758 1.0345529 -0.6875825 -1.1172519
0001c0 5b 55 4d bf 26 17 48 3d d9 80 45 3e de 78 37 3f
       -0.8020837 0.0488502 0.19287433 0.71668804
0001d0 36 00 84 3f f1 8c 47 bf bb c9 d6 bd f8 44 2a bf
       1.0312564 -0.77949435 -0.10487696 -0.6651149
0001e0 49 11 aa bf 15 8e cf 3f d0 01 44 c0 5d 3d bf 3f
       -1.3286525 1.6215235 -3.0626106 1.4940602
0001f0 f1 41 00 3f e1 2f 1a 3f fc 5c c4 be 9c 1f 63 3e
       0.5010062 0.6022931 -0.3835219 0.22180027
000200 39 62 7b 3f fb 9d 04 c0 cb 8a e3 3d ca 49 10 3f
       0.9819675 -2.0721424 0.11110457 0.56362593
000210 dd 23 1d bf a3 0f b8 3f 62 9c 13 3f b8 1a 08 3f
       -0.6138285 1.4379772 0.57660496 0.5316577
000220 fc ac bb bf 23 cc da bf ee e2 f4 bb fa 3a 95 be
       -1.4662166 -1.7093548 -0.007473341 -0.29146558
000230 68 00 77 3e 19 58 a4 3e e8 93 21 c0 07 61 83 bc
       0.24121249 0.32098463 -2.5246525 -0.016037477
000240 f6 95 cd 3f b3 c2 e7 3e 7e f3 1b 3f 2f 3c 40 3d
       1.606139 0.4526573 0.60918415 0.046932396
000250 16 45 90 3f 3b db 22 3f 3b 39 d7 bd 69 fb 56 3f
       1.1271083 0.6361577 -0.10508963 0.8397737
000260 34 f1 c7 3e 2e e2 8a 3f c5 c4 a1 3f 98 40 ab 3f
       0.3905121 1.0850275 1.2638174 1.3379087
000270 a8 42 a3 bf 3c d0 b9 3f 0e 23 06 c0 b2 91 39 40
       -1.2754717 1.4516673 -2.0958896 2.8995175
000280 67 b4 b2 3f 03 02 4a 3e 92 95 01 c0 a3 4a 8a bf
       1.3961304 0.1972733 -2.024754 -1.0804027
000290 f6 fd 38 be 5c e3 85 3f 57 c0 b9 3f cf ea 06 3e
       -0.18065628 1.046001 1.4511822 0.1317551
0002a0 f9 6d bb 3f 98 61 f0 bc f5 51 2c 3e c5 06 12 c0
       1.4642936 -0.029343411 0.16828139 -2.2816632
0002b0 a4 3e 7c bd 29 55 93 3c 5d 08 c1 3a 7a 1c e0 3f
       -0.061583176 0.017984943 0.0014727224 1.750869
0002c0 8e af 14 bf fb 36 bd bf db 39 ce bf af a8 5c bf
       -0.58080375 -1.4782404 -1.6111406 -0.8619489
0002d0 b7 f7 2f 3f ab 6b 10 c0 86 7e 08 3f 61 ed 8c 3f
       0.6873736 -2.2565715 0.5331806 1.1009942
0002e0 e8 a3 90 3f a5 64 0c 3e a3 9b cc 3e 70 ea d8 3f
       1.130002 0.13710268 0.3996249 1.6946545
0002f0 1a 1d ed bf 3a 53 7a 3e dd 1f 2a 3f b3 f3 e1 3e
       -1.8524506 0.24445811 0.6645487 0.4413124
000300 63 c3 33 3e 76 a4 be 3e f1 5a 63 bf 2c 5c 94 3f
       0.17555003 0.3723485 -0.8881064 1.1590629
000310 9d cc 3e 3d d1 b5 97 3d 86 5b 0a bf 84 d3 fa 3f
       0.046581853 0.074077256 -0.54045904 1.95958
000320 f7 83 dd be 59 5a 67 bf 01 db a9 3d 65 42 fc be
       -0.43264744 -0.90372235 0.08293725 -0.49269405
000330 d7 fd b6 bf 79 10 63 bf 2f 63 a3 bf 4f 66 6b 3f
       -1.4296216 -0.8869701 -1.2764643 0.91952986
000340 70 04 fa bf b5 d4 76 be fe d5 77 bf 4f 7a 7f bf
       -1.9532604 -0.24104579 -0.968109 -0.99796003
000350 b9 52 33 3f 27 1b a4 bd 2d fd 15 3f 81 d2 ae 3f
       0.700481 -0.080129914 0.5858944 1.3657991
000360 a0 3c b2 bf bf 52 c5 be 29 73 0e bf 69 5a 92 bf
       -1.3924751 -0.38539693 -0.5564447 -1.1433841
000370 97 c6 ea bf 12 a5 cd bd 45 fd 06 be 0d 60 51 3f
       -1.8341855 -0.1004125 -0.13182552 0.81787187
000380 55 0e fe 3e 0c 46 20 bf f9 42 48 c0 61 17 ac bf
       0.4962031 -0.62606883 -3.1290877 -1.3444635
000390 b5 31 8e 3f ef 65 be 3e a6 b9 7d 3f d0 a2 47 3f
       1.1108919 0.37187144 0.991114 0.7798281
0003a0 fa 46 0e c0 0a 38 b1 be bc 4e 09 bf 2d 76 55 3f
       -2.223082 -0.34613067 -0.53635764 0.83383447
0003b0 f4 f5 e0 bf b8 d4 81 bf 54 7d 3b 40 49 4f bc 3f
       -1.7575059 -1.0143042 2.9295244 1.4711696
0003c0 3f d6 9f 3f 14 c0 78 3d de 1a b8 bf 04 df ab 3f
       1.2487258 0.060730055 -1.4383199 1.3427434
0003d0 81 51 05 be 8b 03 f9 be e7 aa 8e 3f 57 09 0d 40
       -0.13019373 -0.48635516 1.1145905 2.203695
0003e0 17 15 af bf 7f 28 cd 3e bb 08 c1 3e e1 8c ce bf
       -1.3678311 0.4006996 0.37701973 -1.6136743
0003f0 d4 6a bf 3f 5b f5 28 be ca 19 9f bc 45 3e 92 bf
       1.4954476 -0.16499846 -0.019421477 -1.1425253

weight_ih_l0 f4 [100, 100]
000000 83 c7 70 be 50 00 ea 3c ae 49 ef be 90 ab be 3d
       -0.23513608 0.028564602 -0.467359 0.09310067
000010 dc 6d 01 3e d6 50 24 3e 7a 51 58 3e 85 fc c1 3e
       0.12639564 0.16046461 0.21124831 0.3788797
000020 f5 0a eb bc 8a b1 a8 3e e6 4d 26 bf 04 d4 9a 3e
       -0.028691748 0.32947952 -0.64962614 0.3023988
000030 d9 90 e7 be 87 84 91 be c5 0a da 3e f8 1b 23 3f
       -0.45227697 -0.28421423 0.42586342 0.6371455
000040 77 e3 9b bd af 6a 90 bd 7a 05 06 bf 6a 45 33 be
       -0.07611745 -0.07051598 -0.52352107 -0.17506948
000050 d1 54 44 3e 5b f2 d1 be 27 42 81 bf 92 ed 1a bc
       0.1917298 -0.41005215 -1.0098313 -0.009456055
000060 7a cf e1 bc 11 1f dd bc 45 f7 54 3e e2 ee 44 be
       -0.027564753 -0.026992353 0.20797451 -0.19231752
000070 68 79 34 3e 57 c0 cf 3d e8 7a 0c 3e 6f f8 56 3d
       0.17624438 0.10144108 0.1371876 0.05248302
000080 08 ec 79 bd 95 6f 4c be f1 f1 f1 3d 1a 63 cd 3e
       -0.061016113 -0.1996444 0.11813725 0.4011467
000090 b9 f1 77 3e 0b 56 2d 3d 81 64 c7 be e7 b5 d6 be
       0.24213304 0.042318385 -0.38943866 -0.41935655
0000a0 7a 0b 00 3e ef 1b 8e 3d 8d 3e f3 be fc 52 c0 be
       0.12504378 0.06938922 -0.4750866 -0.37563312
0000b0 ed 5f e2 3e c6 bb 20 bd be 4e 75 bd f8 6c 7f be
       0.4421381 -0.039241575 -0.059889548 -0.24943912
0000c0 60 2f cd be 00 76 05 be 4d d6 5c be 74 aa b3 3e
       -0.40075207 -0.13033295 -0.21566124 0.35090983
0000d0 29 ff 06 3e 9e 6b e9 be cc 3d a6 3e c8 15 aa 3e
       0.13183273 -0.45589918 0.32469022 0.33219743
0000e0 59 eb b7 be 83 f2 6f bd 85 19 5c 3e 05 19 28 3f
       -0.35921744 -0.058580887 0.2149411 0.65663177
0000f0 e2 0c 9d bd 1b 62 c1 be 5e 52 b4 3e dd 4a 07 bf
       -0.07668473 -0.3777016 0.3521909 -0.5284861
000100 4c 2e 84 bd 91 71 07 be c5 ab 0f 3f 8b db ff be
       -0.06454143 -0.13226916 0.56121475 -0.49972185
000110 0a 95 52 be 21 a6 bf 3e 74 8e 02 be f8 80 8b be
       -0.20564666 0.37431434 -0.12749654 -0.27246833
000120 8e 31 c6 be 75 b0 7a be 7a c3 36 3c ca 6c 0f 3e
       -0.38709682 -0.24481376 0.011155004 0.14006343
000130 cc 0c 8c bd 60 c8 e0 3d ce ee 33 be f6 cf d9 bd
       -0.06838378 0.109757185 -0.17571566 -0.106353685
000140 ba 7a 82 3d 75 3f 88 3d a6 b9 ce bc c2 a1 ab bd
       0.063710645 0.066527285 -0.025235008 -0.08380462
000150 93 32 59 bb 42 2f 00 3e 82 2b 93 be 98 44 a2 bd
       -0.0033141717 0.12518027 -0.2874413 -0.079232395
000160 8a 5c b3 be 03 d7 fd 3d 7d 93 a8 bd 4f 35 b6 3e
       -0.3503154 0.12394526 -0.08231256 0.35587546
000170 fb 6f 9b be 44 24 07 be ca e2 67 bc 01 83 9a 3e
       -0.30358872 -0.13197428 -0.014153192 0.30178073
000180 3a ee 15 3e 9a 97 b5 3e b0 70 57 be 79 56 0f be
       0.14641657 0.35467225 -0.2103908 -0.1399783
000190 64 2e fb be 60 14 a1 3c a5 23 aa be 25 67 0c be
       -0.4905883 0.019663036 -0.3323032 -0.13711222
0001a0 c6 99 aa be d2 d3 97 bd b0 2a 19 3d 8e ae 25 3d
       -0.33320445 -0.074134484 0.037394226 0.04044967
0001b0 82 ff 81 3e 5d f8 8c 3e dd f9 fc bd fe f1 2a be
       0.2539025 0.27533236 -0.12352345 -0.16693875
0001c0 48 8d f4 3d 3a 51 2c 3f 5a 49 80 3e cd f5 d8 be
       0.1194101 0.6731144 0.25055963 -0.4237503
0001d0 ca 63 65 be a8 42 14 bf 35 4a 3e bf bf 3a 6d be
       -0.22401348 -0.5791421 -0.7433198 -0.23166941
0001e0 7f 2e 8a 3a 01 ea 0d bf 22 cd 72 be 92 6f 2c bf
       0.0010542421 -0.55435187 -0.23711064 -0.6735774
0001f0 b1 dd 92 be 77 d8 7f 3e be d2 bd 3e 43 6b 42 be
       -0.28684762 0.24984919 0.37074846 -0.1898623
000200 57 25 ca be f4 3c c8 be f3 c3 86 3e 11 11 84 3e
       -0.39481613 -0.39109004 0.26321372 0.2579427
000210 7c 67 80 be 18 ac c2 3d f3 86 8d 3e 9b 67 bf be
       -0.25078952 0.095054805 0.2764202 -0.37383732
000220 a2 d4 2d 3e 1c 3d 34 3d 17 da 0d 3e f8 89 3c be
       0.16975644 0.04400359 0.13852726 -0.18412006
000230 ef 28 87 bd 33 20 f6 be 5c bb cd bd 88 83 18 be
       -0.06599604 -0.4807144 -0.100455016 -0.14893925
000240 34 a5 64 3e 00 fc cd be 67 14 4c 3e c9 33 67 bc
       0.22328645 -0.40231323 0.19929658 -0.014111468
000250 19 85 73 3e 60 e9 a2 3d d0 28 17 be 7c 52 5f 3e
       0.23781241 0.07954669 -0.14761662 0.21808809
000260 23 a8 11 3d 02 30 eb be f0 0c 86 be 58 ed 2f bf
       0.03556074 -0.45935065 -0.26181746 -0.6872153
000270 25 7b 21 be 3b 68 84 3d 1d 1b 35 be d5 4b a5 3d
       -0.15769632 0.06465193 -0.17686124 0.080711044
000280 96 fd 18 3e 76 23 64 bd 13 0e 43 be cc 91 88 3e
       0.14940485 -0.05569788 -0.19048338 0.26673734
000290 1c 2b 8a 3e 3f 2b a4 be 6f 0c 84 3e e9 37 d5 bc
       0.26986015 -0.32064244 0.25790736 -0.026027637
0002a0 71 0d 40 be ab bb bf 3e 0b 48 f8 be 75 0e df 3d
       -0.18755127 0.37447867 -0.48492464 0.10891429
0002b0 85 66 e1 be 4e 73 0c bf 83 0d 9e be 29 7d 5c 3f
       -0.4402353 -0.5486344 -0.30869684 0.8612848
0002c0 2a 4b b8 bd 62 01 b7 be 07 ce 0d 3e aa 46 40 be
       -0.089987114 -0.35743243 0.13848124 -0.18776956
0002d0 9c bb 93 be 6d 5f 6d 3d 08 c4 08 bf 2f d1 88 3e
       -0.28854072 0.057952333 -0.5342412 0.26722094
0002e0 12 9d 8a 3d 16 f9 b9 3d ef 3d 4d be d9 6b ad 3d
       0.0676824 0.090807125 -0.20043157 0.08467836
0002f0 fc 5b 08 bd 36 c2 72 be 69 e8 0b be 12 81 2e 3c
       -0.033290848 -0.23706898 -0.13662876 0.01065089
000300 e3 91 ed be 8e 1a 8d 3e f8 3a 9d be a4 05 c5 3e
       -0.46400365 0.27559322 -0.30709052 0.38480866
000310 54 3f 68 be 74 e3 6b 3d 05 87 88 be 92 c4 11 3d
       -0.22680408 0.057589963 -0.26665512 0.035587855
000320 9f 3a ee bd 6f be f2 be 13 eb 97 bb 6b 0c 2a be
       -0.11632275 -0.47410914 -0.0046361773 -0.166063
000330 72 f4 df 3e 86 7a 92 3d 1f 8e a7 be 4d f9 63 3b
       0.43741184 0.07152276 -0.32725617 0.0034786046
000340 47 14 f6 be 24 0c b8 3d 52 89 aa be d0 12 0c be
       -0.48062345 0.08986691 -0.33307892 -0.13679051
000350 f3 e6 da bd f6 05 a6 3d a0 8c aa be bd 85 a9 bd
       -0.10688581 0.08106606 -0.33310413 -0.08277462
000360 3b 6c 6e 3e 76 54 1e 3d b0 18 a5 be ec 57 5a be
       0.23283474 0.038654767 -0.32245398 -0.21322602
000370 bf f0 e5 bd b3 47 b4 be e8 ec ff be f5 35 15 3e
       -0.11227559 -0.35210952 -0.49985433 0.14571364
000380 7d 00 4c 3e 9c 10 d4 3e 54 c4 39 be 3a c3 8d 3e
       0.19922061 0.41418922 -0.181413 0.2768801
000390 59 f0 09 be ce a7 40 bd e7 6c 80 3e a2 31 ac bd
       -0.13470592 -0.04703503 0.25083086 -0.08407904
0003a0 14 f3 f1 3e a1 8f b9 3a b1 40 e9 3e 0f 2f 87 be
       0.47255766 0.0014157185 0.45557168 -0.2640309
0003b0 2b f0 27 3e 86 0f 96 3e 7a d5 b4 be 39 73 ee 3e
       0.1640021 0.29308718 -0.3531912 0.46572283
0003c0 05 5e 38 3e 6c 43 dd 3d 89 0d af be c0 e4 c2 bd
       0.18004616 0.10803875 -0.34190014 -0.09516287
0003d0 64 78 7a 3e 3e fd 90 3d a5 35 80 3f e1 c6 50 be
       0.24459988 0.07079552 1.0016371 -0.20388366
0003e0 8b 26 83 3e 86 08 b8 be 67 c7 1b 3f cb 8b 52 bd
       0.25615343 -0.35944003 0.6085114 -0.05140285
0003f0 30 f2 6f 3d 4c 02 31 3e e9 9c f8 3e 10 c5 f7 3d
       0.058580577 0.17286032 0.48557213 0.120981336

weight_hh_l0 f4 [100, 100]
000000 e8 19 02 bf 9a 72 07 bf 8a c8 de 3d 94 84 af be
       -0.5082078 -0.52909243 0.108780935 -0.34280837
000010 6f c6 ff be 41 c0 d3 3e f9 e3 18 be 1b c7 fc be
       -0.4995608 0.41357616 -0.14930715 -0.49370655
000020 71 00 2c be 7b 31 e6 bd 85 cf 5f 3e a0 d7 cf 3d
       -0.16797043 -0.112399064 0.21856506 0.10148549
000030 b0 92 27 bd 6e 9f 00 3f 51 85 f5 be 58 2f 66 3d
       -0.040911376 0.5024327 -0.47953275 0.056197494
000040 93 00 a7 3e 0e 27 ce be dd b6 b7 3e 88 93 a1 be
       0.32617626 -0.4026417 0.358817 -0.3155787
000050 7a 1d 7a be 42 ca 0d 3e fe d7 7a be e0 35 9d be
       -0.24425307 0.13846686 -0.24496457 -0.30705166
000060 fa e3 e6 3d 0f 81 ec bd e7 3b dd bc 51 bd 18 3d
       0.11273952 -0.115480535 -0.027006103 0.03728992
000070 5f c2 c1 be 81 81 14 3e a7 4f a5 3d 1d 68 a2 be
       -0.37843606 0.14502527 0.08071833 -0.31720057
000080 68 c4 d7 bd 1b 2a bf be 46 ac c5 3e 30 1e 18 bf
       -0.105355084 -0.3733681 0.38607997 -0.5942106
000090 b3 ce d2 bd ce c9 78 3e 45 3e c9 3d 04 2d 5c 3e
       -0.10293331 0.24295732 0.0982633 0.21501547
0000a0 90 27 38 3e 45 c8 ff be 60 2b 58 3c 40 29 4b be
       0.17983842 -0.4995748 0.013193935 -0.19839954
0000b0 73 eb 26 be d6 e3 56 be 06 46 15 3c 71 a4 01 3f
       -0.16300754 -0.2098535 0.009110933 0.5064154
0000c0 75 5b 10 be 04 f8 87 bd 8c dd 6e 3e 6e f8 8e bd
       -0.14097388 -0.06639102 0.23326701 -0.06980978
0000d0 e7 c2 b3 3e 28 29 ae 3d e8 80 e2 3e ad 54 ea be
       0.35109636 0.08503944 0.44238973 -0.45767727
0000e0 8f 09 be 3e 89 fe 9f 3d 9d 1c 38 3e 8e ce b8 3e
       0.37116668 0.078122206 0.17979665 0.3609509
0000f0 bf 2f 5e 3d 28 8f 10 be 70 90 b6 be 44 2b 49 3e
       0.054244753 -0.1411711 -0.35657072 0.19645411
000100 25 24 a1 be 2d a2 02 be 7b cc ed 3e a7 8f 9d 3d
       -0.3147289 -0.12757178 0.4644507 0.07693415
000110 f6 30 10 3e 68 7a 02 bf ea 65 a5 be c2 22 89 be
       0.14081177 -0.5096803 -0.32304317 -0.2678433
000120 d8 42 e8 bd 6b 82 7b be f7 91 b9 3d 41 67 90 3e
       -0.113408744 -0.2456147 0.09061044 0.28203776
000130 17 8c 9e 3c 2c 39 bc be 90 b7 86 3d c6 89 15 3e
       0.01935391 -0.3676237 0.065779805 0.14603338
000140 c2 db 40 be d4 31 bb be 8c 21 65 3d be c4 c4 be
       -0.18833831 -0.36561453 0.055940196 -0.38431352
000150 f7 40 b3 be ca db e6 3c 16 e3 ff be 5c 2c ca be
       -0.35010502 0.028180975 -0.4997794 -0.3948697
000160 d2 c6 35 be 2d 91 09 be c6 63 06 be 88 2e aa bd
       -0.17751625 -0.13434286 -0.13123998 -0.083096564
000170 ba bb 87 3e 3a 3d c7 3e 4d d9 e5 3e b8 33 9e 3e
       0.26510412 0.389139 0.4489235 0.30898833
000180 8b a3 09 bf ac e2 f0 be 0e 16 04 3e d5 f2 05 3f
       -0.5376517 -0.47047937 0.12899038 0.5232366
000190 fe 90 4c bd 15 03 02 be 4d d0 b8 be b9 93 a8 3c
       -0.049942963 -0.12696488 -0.3609642 0.020578252
0001a0 0f c7 ca 3e b4 89 3b 3e 67 05 9f be 0d 63 70 3d
       0.39604995 0.18314248 -0.3105881 0.058688212
0001b0 f1 4c a9 bc f0 22 ad 3d 1e 8c 4e 3e 3f 5b 39 3e
       -0.020666571 0.084539294 0.20170638 0.18101214
0001c0 19 d3 e2 3d 0a 77 1b 3e 1f 02 fa be ff 89 1e 3f
       0.1107542 0.15182129 -0.48829743 0.61929315
0001d0 4b 57 f2 3e 57 48 9a 3e 1d a9 27 bc 92 43 b0 3e
       0.47332224 0.30133316 -0.010233191 0.34426552
0001e0 a3 48 5c 3e 1b 90 40 bd 6c 74 02 be 52 0e 80 bb
       0.21512084 -0.04701243 -0.12739724 -0.003907957
0001f0 07 0c 9d be dc 77 92 3d 2c 99 35 3f 0f 62 cf bd
       -0.3067324 0.071517676 0.70936847 -0.10126125
000200 8f 50 e8 be 1e 60 20 bd c9 1e 9c 3c 97 28 13 3d
       -0.4537396 -0.039154164 0.019057648 0.03592738
000210 5b 37 6b 3e ba 38 e3 3e f8 d4 2f 3e 45 33 2b bf
       0.22970335 0.44379216 0.17171085 -0.66875106
000220 3f 4b d6 3d d0 4d 44 3e b7 21 34 be 57 36 1f 3e
       0.10463571 0.19170308 -0.17590986 0.15548073
000230 36 d3 30 bd 48 8f 99 3d 08 2b 8f bd 81 dc f1 be
       -0.043170176 0.07498032 -0.069906294 -0.47238544
000240 ed db 3a bf f8 7a 93 3e 8c ee 5d bd 89 69 7a be
       -0.7299183 0.28804755 -0.054182574 -0.24454321
000250 c8 ee de 3e 3c 8c 04 3e 9b 34 29 bd d5 90 03 3e
       0.4354155 0.1294412 -0.041309934 0.12848218
000260 ce 2d 3a bf b6 42 c1 bd 87 91 7d be 88 ed 23 bf
       -0.7272614 -0.09436552 -0.24762546 -0.6403432
000270 ca fb 42 bf 61 78 df 3d b0 87 c6 3e 20 d7 a8 be
       -0.7616545 0.10911632 0.38775396 -0.32976627
000280 90 86 89 3e ab 1b b6 3e dd 49 8c be 34 4f 1e 3f
       0.26860476 0.35567984 -0.27400103 0.61839604
000290 49 99 7e 3e a2 83 60 be 7c 8c 1e 3e 77 07 77 3d
       0.24863161 -0.21925214 0.15483278 0.060309853
0002a0 7b 08 cb bd c6 71 f2 bd 40 76 18 be f1 2f 71 be
       -0.09913727 -0.11838107 -0.14888859 -0.23553444
0002b0 82 7e 2f bd 94 9e d3 3e d1 07 1b be e0 69 1f 3e
       -0.042845257 0.41331923 -0.151397 0.15567732
0002c0 f6 be 0f 3e ab e5 bf 3e b4 30 b7 bd a6 69 fe 3e
       0.1403769 0.3747991 -0.08944836 0.49689978
0002d0 e8 cf 0c bd ab 84 c5 be 3a 29 86 3e a5 e0 40 be
       -0.034377962 -0.3857778 0.26203328 -0.18835695
0002e0 0d 4e 3c 3d d9 54 b4 3b 8d 01 4a bd b4 b0 40 3c
       0.045972873 0.0055032787 -0.049317885 0.011760879
0002f0 44 f5 01 3e d4 a7 cb bd 53 af e9 3c 70 6c 91 bd
       0.12691218 -0.0994412 0.028525984 -0.07100761
000300 57 29 c3 bd ec 48 2a be 90 9a 17 3c 94 cf 05 3f
       -0.09529369 -0.1662938 0.009253159 0.52269864
000310 d4 da 0b be 91 fa 28 3f e9 2e 99 be 2b ad cb 3c
       -0.13657695 0.66007334 -0.29918602 0.024862846
000320 ca 1f 96 3d a9 49 b8 be c0 8d 80 3d e9 c3 7f 3d
       0.07330282 -0.35993698 0.06277037 0.062442694
000330 32 48 e0 be 7e 66 27 bd 8d b5 bd be 8d 9a 95 3e
       -0.4380508 -0.04086923 -0.37052575 0.29219475
000340 11 3e 88 be 9e e3 ae bd 24 f3 6f be bb fb 38 3e
       -0.26609853 -0.08539508 -0.23432595 0.18064778
000350 51 6b f1 bd cf 8b ca be d1 7c 23 3d 8a ed 85 bd
       -0.11788047 -0.3955979 0.039913956 -0.065394476
000360 cd dd 92 3e dc db 6a be 83 b3 34 bd 3a bd 9b be
       0.28684846 -0.22935432 -0.04411651 -0.30417806
000370 09 e2 46 3e 3d 3f c0 bc 01 e1 90 be 99 3b 00 3e
       0.19422163 -0.023467654 -0.28296664 0.12522735
000380 c4 2a 61 3d c3 6f 64 3e 70 7a 0f 3e ec 3a 5e 3e
       0.054972425 0.22308259 0.1401155 0.21702164
000390 91 32 88 be 2e 93 89 bd 1b ac 00 be 90 af db bd
       -0.2660108 -0.067175254 -0.12565653 -0.10726845
0003a0 01 7b fd 3e 27 18 67 be e6 e7 34 be f6 37 e6 3d
       0.49507907 -0.22567807 -0.17666587 0.112411425
0003b0 46 31 72 be 5b 7b e4 bd a4 f4 0e be 48 f1 bd be
       -0.23651609 -0.11156341 -0.1396051 -0.37098145
0003c0 13 32 87 be e0 f3 a6 3e 7c da 65 be 07 05 79 be
       -0.2640539 0.32607937 -0.22446626 -0.24318324
0003d0 e7 26 32 3d 77 80 7e be 43 07 fa 3d a1 19 a2 bd
       0.04349413 -0.24853693 0.12208416 -0.079150446
0003e0 d0 c9 dd be 4f 64 98 be 7b 6e ac be 77 0c 1c 3e
       -0.43318033 -0.2976403 -0.3367804 0.1523913
0003f0 33 f7 a5 bc 53 f8 13 be 28 f5 5d 3e 42 1c f8 bd
       -0.020259475 -0.14450197 0.21675551 -0.12114765

bias_ih_l0 f4 [100]
000000 ac c7 86 be 83 47 59 bd 04 a6 90 be c1 cb 11 be
       -0.26324213 -0.053046715 -0.2825166 -0.14237882
000010 38 dc 20 be 3d 19 39 bb fa bb 85 3d c5 ab a5 3e
       -0.15709007 -0.0028243803 0.06529994 0.32357612
000020 e3 31 11 3e 0b 97 8d be 28 35 f0 bc b1 e4 80 3b
       0.14179187 -0.276543 -0.029322222 0.003933512
000030 cb 1e 8a bd 47 57 ce bd d7 54 01 3e a5 51 71 3e
       -0.067441545 -0.100752406 0.1263002 0.23566301
000040 12 08 0c be c1 57 ff bd f1 c3 78 be de 44 46 be
       -0.13674954 -0.124679096 -0.24293496 -0.19362208
000050 e1 d6 8a bc e1 b6 bf 3d a3 ca 74 3d 24 de d8 3c
       -0.016948165 0.09361053 0.059763562 0.026473112
000060 e1 49 61 be 32 b3 21 3e 82 d7 80 be 90 2b 09 3e
       -0.22000839 0.15791014 -0.2516442 0.13395524
000070 a2 b5 31 3e cf 4b 7d bd 54 ca a4 bc 6e b3 72 bd
       0.17354444 -0.061839875 -0.020116009 -0.05925315
000080 8d 71 a1 3d 15 95 47 3d 25 4f 9e b8 fc 63 4f be
       0.07882986 0.04872616 -7.548769e-05 -0.20252985
000090 b6 6c 26 be 4f f7 29 bd 79 37 4d be 12 bb 8c be
       -0.16252407 -0.041495617 -0.20040692 -0.27486473
0000a0 76 4b 9c bb d7 ed a2 bc 39 67 03 be 8a 2e a7 3d
       -0.004769738 -0.019888802 -0.12832345 0.081631735
0000b0 81 d0 5d bd 0d 9a 4e bd 8f 9f de bd b2 6e e9 3d
       -0.054153923 -0.050439883 -0.10870277 0.113980666
0000c0 bc d6 b7 3d 2a 01 04 be 03 14 ab be 47 c5 3c 3d
       0.08976504 -0.12891069 -0.33413705 0.046086576
0000d0 a1 65 b5 bc a2 f4 94 3e 23 2f bd 3d 8f 1c ce bd
       -0.022143187 0.2909289 0.09237506 -0.10064041
0000e0 5d e5 09 3e 60 0d 8d 3d 29 0e 21 3e f1 0a d8 3c
       0.13466401 0.06887317 0.15728058 0.026372405
0000f0 ca 11 d0 3e 0f ee b2 be 95 d9 1b bd 04 a6 bc bd
       0.40638572 -0.3494725 -0.0380493 -0.092113525
000100 2d 0c e6 3d 39 54 1e 3e 3d ee a3 bd e6 15 a0 3e
       0.11232791 0.15461816 -0.08004425 0.31266707
000110 1c 6f 89 be 81 ad 35 be 40 71 b5 3e d4 d4 86 3d
       -0.26842582 -0.17741968 0.35437965 0.065835625
000120 f8 f1 80 3e e8 c1 14 be fe 59 89 be 01 6d 86 be
       0.25184608 -0.14527094 -0.2682647 -0.26255038
000130 8b f4 25 3d 6a 42 60 3d 92 76 16 3d e9 18 82 bd
       0.040516417 0.054750837 0.03673417 -0.063524075
000140 13 d7 08 3e 59 de 74 3e 60 47 51 be 72 8d 06 bf
       0.13363294 0.23912944 -0.20437384 -0.5255958
000150 97 09 36 3c 06 a1 07 3e c8 76 17 3e c3 18 84 3c
       0.011110685 0.1324502 0.14791405 0.016125089
000160 9c c4 ae 3d 80 18 d4 3d 07 be b9 bd 09 3d 5c be
       0.08533594 0.103562355 -0.09069448 -0.21507658
000170 0f b2 79 be be 45 ce 3d 53 8c 6f 3e cd 5b 6a be
       -0.2438433 0.10071896 0.23393373 -0.22886582
000180 0e 2e f1 bd a6 dd de bc 75 d4 19 be 88 fc e6 3d
       -0.11776362 -0.0272053 -0.15022452 0.11278635

bias_hh_l0 f4 [100]
000000 ac 2b 87 be be 3c 40 be c3 7a 56 be cc 78 3e be
       -0.26400506 -0.18773171 -0.20945267 -0.18600768
000010 a1 0f fb bd 7d 97 21 bd c0 f0 cb ba 9b 5d cc 3e
       -0.1225884 -0.03945111 -0.001555942 0.39915165
000020 cf 50 19 3e 22 04 88 be 02 91 53 bc 91 db f9 3c
       0.14972232 -0.26565653 -0.0129129905 0.030500205
000030 a9 6a 85 bd 50 92 04 3d bc 38 d6 3d e1 0f 0f 3e
       -0.065144844 0.032366097 0.1046004 0.13970901
000040 87 e1 89 be ef 65 63 be 91 56 26 be 0b 96 bd bd
       -0.26929876 -0.22206853 -0.1624396 -0.09257134
000050 5a 7d da 3d a9 fd 89 3d 9c e7 b4 3d 51 d0 e8 bd
       0.1066844 0.06737835 0.088332385 -0.11367858
000060 1c 76 69 be 12 1f 4c 3d 22 a4 87 be 33 29 10 3e
       -0.22798961 0.04983432 -0.2649241 0.14078216
000070 b5 f1 2d 3e 0a 47 4d be e1 7e cd bd 07 c2 30 be
       0.16986735 -0.2004663 -0.10033966 -0.17261516
000080 ad d0 e3 3d ee 24 b0 bc 37 d7 c4 bd 18 16 ca bd
       0.11123786 -0.021501984 -0.096113615 -0.09867495
000090 0c 79 52 bd b6 76 90 bc 68 9f 45 be 5c 3d bd be
       -0.05138497 -0.01763473 -0.1929909 -0.36960876
0000a0 2c 3e 80 bd 44 c2 55 be 6e 30 3d be f0 a9 e7 3c
       -0.06261858 -0.20874888 -0.18475506 0.028279275
0000b0 30 cf 6c be 84 74 f4 bd fd f4 71 be a7 80 92 3e
       -0.23125911 -0.11936286 -0.23628612 0.2861378
0000c0 e1 a2 1f bd fd f3 9f bc 14 25 7d be a0 0d ea bc
       -0.038973693 -0.019525522 -0.24721175 -0.02857095
0000d0 e1 be 64 bd 02 e1 63 3e d0 b9 73 bc c2 c3 14 3d
       -0.0558461 0.22253802 -0.014875844 0.0363195
0000e0 bf a8 36 3e 5a 97 43 3e aa 79 0e 3e 49 95 39 3c
       0.17837809 0.19100705 0.13913599 0.011327096
0000f0 28 e0 17 3f f0 38 c8 be 70 69 c9 3c c8 ef 65 be
       0.5932641 -0.3910594 0.02458641 -0.2245475
000100 ad 8e 3f 3d d9 ad 99 3e 4e 6f 0c 3c d6 c8 7e 3e
       0.046766926 0.30015448 0.008571459 0.248813
000110 c5 a3 52 be 8e 87 85 be c4 99 a6 3e 82 ee 50 3c
       -0.20570286 -0.26079983 0.3253919 0.012752177
000120 63 d2 60 3e 9f be 0b be 7d cd 21 be 25 8f 2d be
       0.21955256 -0.13646935 -0.15801044 -0.16949137
000130 7b 2d 1a bd 83 fa 1d bc ea c4 44 3e e9 12 9d bd
       -0.03764103 -0.009642246 0.19215742 -0.076696225
000140 d6 82 12 3e f9 9c 12 3e 3a 90 b2 bd 66 22 f7 be
       0.14307722 0.14317693 -0.08718915 -0.4826843
000150 96 fb 0f 3e e6 b2 09 3e 8c fb c3 3d b5 9e 31 3e
       0.14060816 0.1344715 0.09569463 0.17345698
000160 7a a8 d1 3d 04 83 5d 3e 1f 38 6c 3d 2f c6 87 be
       0.102372125 0.2163201 0.05767071 -0.2651839
000170 ce 02 41 be e1 cb e2 3d 12 aa 90 3e 8e 7b 99 be
       -0.18848726 0.11074043 0.28254753 -0.29977077
000180 b4 0c 4f be 62 97 fa bd 5c d5 cc bd 03 95 4c 3e
       -0.2021969 -0.12235905 -0.100016326 0.19978718

weight_ih_l1 f4 [100, 100]
000000 d2 1e 21 bd 51 ff d2 bb da f1 0d 3f f8 05 0a be
       -0.039336033 -0.0064391275 0.5544716 -0.1347884
000010 4d d6 89 3e 24 de 48 3e 02 5c 17 3d 1e 62 3d bc
       0.2692131 0.1961599 0.03695298 -0.0115590375
000020 de 2e 50 be 1c ae 46 3e 5e 93 a9 3e c1 aa 88 be
       -0.20330378 0.19402355 0.33120245 -0.26692775
000030 f1 04 0e be ee e7 5b 3e 7f 6e 08 3e 84 d3 64 bd
       -0.13869072 0.21475193 0.13323401 -0.05586578
000040 58 ec 88 3d 1d d9 18 be 75 1c d0 3c 70 53 4a 3d
       0.06685704 -0.14926572 0.025404194 0.04939598
000050 b1 93 45 3d 2c 53 1f 3d e5 89 28 be b2 0f df be
       0.048236553 0.03889768 -0.16458853 -0.43566662
000060 13 aa 0a bd 43 ec 93 3e a8 74 ae be 59 e3 8e bd
       -0.0338536 0.2889119 -0.34073377 -0.06976957
000070 4d da 93 3e 7c ca 7c 3e 42 85 1f 3e bb ae c4 be
       0.28877488 0.24686617 0.15578178 -0.3841456
000080 c0 44 6d be 3e 1d 94 be 9a 12 9d be 7b f7 ee 3b
       -0.23170757 -0.2892856 -0.30678254 0.0072926856
000090 83 74 de be 13 13 25 bf f3 b2 86 3d 8e a8 ac be
       -0.43448266 -0.6448223 0.065771006 -0.33722347
0000a0 93 6d f0 3d 2a f6 7f 3d 11 a6 70 be 1c 42 a1 bc
       0.117396496 0.06249062 -0.2350085 -0.019684844
0000b0 e1 52 20 3f a8 8c 97 3e 56 da 04 3d 07 9f 81 3c
       0.62626463 0.295995 0.032434784 0.0158229
0000c0 45 94 2b 3f 9b 61 10 bc 94 b4 60 be 57 6a d4 3e
       0.67023116 -0.008812333 -0.21943885 0.4148738
0000d0 c9 e5 e6 bb 03 35 6a be 3f e0 a2 3e 09 f1 5e bc
       -0.0070464355 -0.22871785 0.3181171 -0.013607272
0000e0 32 c0 be bd 52 a5 78 be c0 ec bb 3d b8 12 c2 be
       -0.09314002 -0.24281815 0.09176016 -0.37904906
0000f0 de b2 f9 3e f5 85 00 3e 6d 8c bc 3e 38 26 86 bd
       0.48769277 0.125511 0.36825886 -0.065502584
000100 a0 23 83 be 7e a4 f3 bc 89 45 ed 3e ed 20 0f be
       -0.25613117 -0.029741522 0.46342114 -0.13977404
000110 b8 c8 b5 3e b2 a4 65 be a8 ea 95 bd 67 93 ce bd
       0.355047 -0.22426108 -0.07320148 -0.100867085
000120 0b bf 12 be 00 b6 28 3e c4 7b b5 3e 62 83 65 bc
       -0.1433069 0.16475677 0.35445988 -0.014008375
000130 6c 5f e4 bd 2a 97 c7 be 56 dd 30 3e 74 8b b6 bd
       -0.11151013 -0.38982517 0.17271933 -0.08913317
000140 cc 9d 08 3c bf 27 3c 3e e5 95 05 3f 75 fa 7e 3e
       0.008338403 0.18374537 0.52181846 0.2490023
000150 92 8c 91 3d a1 3d 0f be b9 62 78 3e fa 85 b5 3e
       0.0710689 -0.13988353 0.2425641 0.35453779
000160 49 fb 18 3e ac 36 de be 99 4f 05 3f 23 3d a8 3e
       0.14939608 -0.43401086 0.5207458 0.32859144
000170 05 36 bb bc d5 7c e1 bd c6 7b 72 be 6c 14 4a 3e
       -0.022852907 -0.11010138 -0.23680028 0.19734353
000180 3a 4f 9d 3d 38 c3 8a 3e 11 fe df 3d 57 06 a2 be
       0.07681127 0.27102065 0.10937131 -0.31645462
000190 97 5c 1a 3e 02 27 0a 3e ce 03 b6 3e 79 a9 4c 3e
       0.15074383 0.13491443 0.35549778 0.19986524
0001a0 5c d4 5f be 0f a0 9b be e0 71 ec 3d f2 65 74 3e
       -0.21858352 -0.30395553 0.115451574 0.23867014
0001b0 9c f3 66 3e 6a 95 89 bd 39 fa 92 be 9e a3 8a 3e
       0.22553867 -0.067179516 -0.2870653 0.27077955
0001c0 58 f4 15 3f f5 3d 3b bf 91 6e 90 be d2 c0 fc be
       0.58575964 -0.73141414 -0.28209355 -0.4936586
0001d0 c2 64 00 3f ed 81 a5 be c9 c8 45 be e9 15 66 3d
       0.50153744 -0.32325688 -0.19314875 0.05617324
0001e0 88 ec 16 be 75 d9 43 3e d4 9f 33 3f d6 56 86 3e
       -0.14738667 0.19125922 0.70165753 0.26238126
0001f0 a9 f0 23 3e 31 e3 d1 3e 81 c3 aa 3e 46 51 bd be
       0.16009773 0.40993646 0.33352283 -0.3697607
000200 10 ea a0 be 4f 15 dc bd 97 9d ba be 50 75 1b 3f
       -0.31428576 -0.10746252 -0.36448357 0.6072588
000210 b0 cd 28 3e eb ba b4 be 69 26 0c 3f 36 0c da 3e
       0.16484714 -0.35298857 0.5474611 0.4258744
000220 d8 5d 03 3f af 69 e6 3e e0 d7 e0 3d ca 0c b9 3e
       0.5131507 0.45002505 0.10978675 0.3614257
000230 e5 fe 92 be 1c ab 2a be d2 25 23 be 3b cf c5 be
       -0.28710094 -0.16666836 -0.15932396 -0.38634667
000240 c3 61 32 bf ec 9c b6 be f8 94 c5 3e 32 2d 05 bc
       -0.6968042 -0.35666597 0.38590217 -0.008128451
000250 cd ee 37 3c 90 9e 98 bc 9a 43 52 3e 00 dc d9 3e
       0.011226368 -0.018630296 0.205336 0.4255066
000260 e9 2d 84 3e 55 b4 cb be 43 e0 2e bc 9e bc d4 be
       0.25816277 -0.3978602 -0.010673585 -0.41550153
000270 7f 79 b7 bd 24 86 9a 3e c1 b0 e3 be 80 47 dd 3d
       -0.089587204 0.30180466 -0.4447079 0.10804653
000280 bd 23 41 3e a7 7a 9e be e4 b1 b0 3e 4b 26 8f 3e
       0.1886129 -0.3095295 0.3451072 0.27958903
000290 55 af ff bd ee e2 ee 3e aa 9e 11 be e1 aa 07 3f
       -0.12484614 0.4665751 -0.14220682 0.52995116
0002a0 f1 05 f9 bd 42 59 82 3e 8a 56 71 be d5 55 08 3e
       -0.12159336 0.25458723 -0.23568168 0.13313992
0002b0 eb c8 74 be f4 d9 f4 3e ea 80 81 3e e3 5c 0f bf
       -0.23904769 0.47822535 0.25293666 -0.5600111
0002c0 a1 2d d6 be 16 bb f7 3d 4a 5a 6a bd ca cc 80 be
       -0.41831687 0.12096231 -0.057215013 -0.25156242
0002d0 70 4a 19 3f f1 23 52 3e 47 1c aa 3e 2f 59 90 3d
       0.5987921 0.20521523 0.332247 0.070482604
0002e0 12 a7 26 3e 61 f3 a8 be 51 63 d1 3d d9 10 87 3e
       0.1627467 -0.32998183 0.10224021 0.2638004
0002f0 fb a6 97 bc 2c 40 da 3c 5b a1 78 be 0b bb 43 bd
       -0.01851224 0.026641928 -0.24280302 -0.0477858
000300 cf 51 0a 3d e0 05 91 3d 1f 14 62 3e a6 bd e7 3d
       0.033769425 0.07081199 0.22077988 0.113154694
000310 e2 c8 f4 be 2f 35 83 bd 03 85 5a bb fa 8a c0 be
       -0.4780951 -0.06406628 -0.0033343441 -0.3760603
000320 86 dd d0 3e 39 4b 19 bd dc 90 14 3e f7 68 06 3e
       0.4079401 -0.037425254 0.14508384 0.13125978
000330 58 01 9c bc 4d fe 8a 3e 07 64 19 3d 1f f3 0d bf
       -0.01904361 0.2714714 0.03744891 -0.554491
000340 b9 e8 0c bf 26 1b b2 be 3c 4b 1b 3f a7 60 7a be
       -0.55042607 -0.34786338 0.60661674 -0.24450932
000350 3d d6 23 bf 67 84 24 bd 21 61 97 be 18 b7 bd be
       -0.63998777 -0.04016533 -0.2956629 -0.37053752
000360 52 6c 35 3f 0d d5 93 3e a9 ef 37 3e b6 f8 22 be
       0.7086841 0.28873482 0.17962517 -0.15915188
000370 4b a0 34 3e ec 4f ae be 5e b8 23 bd ea 29 f1 3e
       0.17639272 -0.3404535 -0.039970748 0.4710229
000380 60 c1 22 3f 49 84 7e 3d 80 97 c6 3d 8f c2 88 3b
       0.63576317 0.062137876 0.09696865 0.004173584
000390 0e e4 56 be 54 dd 9c 3e 63 e6 ba 3e 4c a8 61 bd
       -0.20985433 0.3063761 0.36503896 -0.05509214
0003a0 cf 9c 67 bd d9 dc d1 3e 23 39 41 3e d0 a4 1b 3e
       -0.05654603 0.40988806 0.18869452 0.1519959
0003b0 b1 51 d3 3e 7b c1 52 bd 92 ab a9 3e fd 3f 3f 3e
       0.41273263 -0.05145405 0.3313871 0.18676753
0003c0 f2 88 48 3e 62 6b 2a be 42 59 05 3f 25 f8 e5 3b
       0.1958349 -0.16642526 0.5208932 0.0070181065
0003d0 dd 2d 1f be 1d bb dd 3d 3b 06 24 3f 10 cc 95 bc
       -0.15544839 0.10826705 0.64072007 -0.018285781
0003e0 52 43 41 bf c9 30 48 bd fe fb 0f bf 38 ee ab bc
       -0.7549335 -0.04887465 -0.56243885 -0.020987615
0003f0 19 88 8e be d1 09 8e 3e 8c c1 e5 3e db 06 30 3b
       -0.2783821 0.27741864 0.44874227 0.0026859555

weight_hh_l1 f4 [100, 100]
000000 9c 4e 3c 3e 7b 70 29 3e c1 ec 4c 3d d3 13 4b be
       0.18389362 0.16546814 0.050030474 -0.19831781
000010 8d e6 c4 bd bf 37 1a be 80 de 2d be b3 5f d4 3d
       -0.096142866 -0.15060328 -0.16979408 0.10369816
000020 cc 85 9c 3d 26 4b e3 3d ca e2 4b be 5b 32 cb 3c
       0.07642707 0.11098318 -0.19910732 0.024804285
000030 21 c2 1a be dc f3 ff bc e5 ad b3 be 42 f5 9c be
       -0.15113117 -0.03124421 -0.35093608 -0.30655867
000040 3e 6c 6c be b8 13 02 3e 05 cc 73 3b 55 aa b0 bc
       -0.23088166 0.12702835 0.0037200463 -0.021565596
000050 ab 51 19 3d 07 06 ed 3d e7 cd 4e bd a7 81 11 be
       0.0374314 0.11573415 -0.050489333 -0.14209615
000060 3e a7 1d 3e 5f 8f 97 be 70 0e ca be a2 8a ea 3d
       0.15395829 -0.2960157 -0.3946414 0.11452223
000070 9f 71 35 be 26 6c ae 3e ed 59 b6 3d 65 0b bd 3d
       -0.17719124 0.34066886 0.08903871 0.09230689
000080 c5 09 ef 3d 1b 51 40 3e f8 80 86 be 6b b2 3f bc
       0.11671785 0.1878094 -0.2627027 -0.011700253
000090 c1 71 21 3e dd fa f1 3c 02 6f c9 bd da c1 f9 3c
       0.1576605 0.029538566 -0.09835626 0.030487943
0000a0 30 4c bb 3d 5d 93 5a 3e d0 1e cf 3d a8 bb 9d be
       0.09145391 0.21345277 0.10113299 -0.30807233
0000b0 da cc 88 3d c2 dd a9 3e b9 a6 ac 3e fc d0 69 3d
       0.06679697 0.33177 0.3372095 0.05708407
0000c0 72 4e 64 3e 33 e0 43 be ea c3 ba 3e ea d8 e6 3d
       0.2229555 -0.19128494 0.36477596 0.11271842
0000d0 78 1d 86 3d 63 e2 90 be 07 26 53 3e a6 4f a2 3e
       0.065485895 -0.2829772 0.20619975 0.31701392
0000e0 ba 3d ff bd 4e 94 1d 3d 67 aa 1b be 68 cc 70 be
       -0.12462945 0.038471512 -0.15201722 -0.23515475
0000f0 6b 1b dd 3d 09 35 bb 3e 8b b5 10 3e 4d b1 0c be
       0.10796245 0.365639 0.14131753 -0.1373951
000100 16 b4 9f 3e 10 19 73 bd a4 96 5a bd 53 03 4e 3e
       0.31192082 -0.059350073 -0.05336632 0.20118456
000110 db 01 11 bf 8b 28 93 bd ae 69 78 3e 60 f2 6d bc
       -0.56643456 -0.07185467 0.24259064 -0.014523119
000120 3f 9f 5b be cd 43 39 3d 34 22 13 bd 11 6d d8 3d
       -0.21447466 0.045230675 -0.03592129 0.10567678
000130 7b e0 06 3e e5 76 63 be 48 2d 88 3e 7e e8 7f 3e
       0.1317157 -0.22213323 0.26597047 0.24991032
000140 d9 dc 39 bd c5 da 04 3e 1e 87 f8 bd 9b b0 77 bd
       -0.045376632 0.12974079 -0.121351466 -0.06047116
000150 9c 70 ef bc 9f 1d ef 3d b0 de 93 be 3f a4 60 be
       -0.029228501 0.11675572 -0.28880835 -0.21937655
000160 62 54 ab 3e 02 35 2f 3e 6e 2e 9c be 21 6d 4c 3e
       0.33462816 0.17110065 -0.30504173 0.19963504
000170 e0 4e 7b 3e 49 e8 b6 bd 2a e0 be 3e ec c4 5c 3c
       0.24541807 -0.08931024 0.372804 0.013474684
000180 19 e8 9b 3d 71 38 2d be 8f 66 4b 3d 35 57 55 3e
       0.076126285 -0.16916062 0.049658354 0.20834048
000190 60 b2 23 be 6d d2 11 bf 74 5f df 3e 11 3e 18 be
       -0.15986013 -0.5696171 0.43627512 -0.14867426
0001a0 fb ea 83 3d eb 1e 76 3d fc 59 49 be 89 c2 41 3d
       0.06441303 0.06008808 -0.19663233 0.047304664
0001b0 40 5e 9a 3e 8d 2d 8f 3e e5 3f 20 3d 73 a7 33 3e
       0.30150032 0.2796444 0.039123435 0.17544346
0001c0 51 cd 4b be 3d 2d 91 be 4e ec 6b be be 29 99 39
       -0.1990254 -0.28354827 -0.23039362 0.00029213534
0001d0 2d dc f8 3d 41 1f 31 3e c6 3a bf bd 61 99 d8 bd
       0.1215137 0.17297079 -0.09337382 -0.1057613
0001e0 03 b2 13 3d f7 08 71 3e 50 a8 97 3d e7 b8 4f be
       0.036058437 0.23538576 0.0740515 -0.20285378
0001f0 3e 95 52 3a e4 01 27 3e 80 fc fc 3d a5 28 b5 3d
       0.0008033103 0.16309315 0.12352848 0.08845643
000200 07 ea a7 3b 06 93 16 be e7 12 27 3e 6f 71 36 be
       0.005124334 -0.14704522 0.16315804 -0.17816709
000210 63 8f b3 bd 0a 9f a6 be ef a4 b6 be a2 c0 b0 3e
       -0.08767583 -0.32543212 -0.3567271 0.34521967
000220 5f b3 a2 bd 9c 3f 3d be 9f 3d 46 3e cb 14 40 3e
       -0.079443686 -0.18481296 0.19359444 0.18757932
000230 c6 d9 65 bd b3 91 38 be 3f b1 de be b0 03 ed be
       -0.056115888 -0.1802433 -0.43494603 -0.46291876
000240 0d 60 54 3e cd 6c 57 be 2e 41 a3 3e 6e f1 c9 3d
       0.20739765 -0.21037598 0.31885666 0.09860502
000250 42 2f 10 3e e0 90 82 3e ab 3b d4 3d 3f 16 30 bd
       0.14080527 0.25501156 0.10362943 -0.042989966
000260 77 1e bc 3e 7b 60 d7 be 38 03 45 3e 50 de 8a be
       0.36741993 -0.42065796 0.19239509 -0.27122736
000270 6f 7c d1 be 89 1e 06 3e dc c1 10 bf e6 8e ea bd
       -0.40915248 0.13097586 -0.56545806 -0.11453037
000280 b3 ca 20 be bb 76 5a bd fe 27 43 be 75 45 55 3d
       -0.15702324 -0.053335886 -0.19058225 0.052068193
000290 ce 53 9b bc 7b 66 37 be b3 7a 8e 3e af e8 ef 3d
       -0.01896086 -0.17910187 0.27827987 0.11714303
0002a0 f1 90 91 bd c5 30 90 bd b2 ce bf bd 11 a2 8e 3d
       -0.071077235 -0.07040552 -0.09365596 0.069645055
0002b0 6e c4 83 be 28 09 20 be b6 43 85 3e 9d e1 61 be
       -0.257358 -0.15628493 0.26028222 -0.22058721
0002c0 17 e3 bc 3e 4d 0e a0 3e 9b aa 43 3d c6 ae 12 bf
       0.36892006 0.3126091 0.047770124 -0.57297933
0002d0 32 31 66 3d 80 a6 86 3c 43 d4 0b 3e 26 3a 8e bd
       0.05619926 0.016436815 0.1365519 -0.06944685
0002e0 25 f0 56 3e b4 f0 88 3e 1c 9f e1 bd c1 50 62 bd
       0.20990045 0.26746142 -0.11016676 -0.055252794
0002f0 2e 3d 62 3e f7 98 00 3e b3 ab 90 3b 59 16 89 be
       0.2209365 0.12558351 0.0044149994 -0.26774862
000300 36 8c 7a 3e 5f c0 e2 3c 68 9f dc 3d f4 7a e5 b8
       0.24467549 0.02767962 0.10772592 -0.00010942473
000310 2c 2b 93 3c a1 c4 fa be 0c 7a 34 3e 7c f6 87 3e
       0.017964922 -0.4897814 0.17624682 0.2655524
000320 19 8b 38 3e 34 54 ba 3e 2d d3 b4 be b8 93 82 be
       0.18021812 0.36392367 -0.35317364 -0.25503325
000330 6c f2 05 bf 01 dc 00 3d 61 f1 de bd 64 33 c5 3d
       -0.5232303 0.031459812 -0.10885883 0.096289426
000340 54 a8 17 3e 12 49 1a bc 12 5c 0f bc e7 82 4b be
       0.14810306 -0.009416835 -0.008749979 -0.19874154
000350 f6 fa 70 3d 17 d4 0c be 69 cd 9f 3e 68 10 8f 3e
       0.058833085 -0.13752781 0.31211403 0.27942204
000360 80 12 ec bd b6 ee c3 3e b4 02 60 be 4d cb da bd
       -0.11526966 0.3826806 -0.21876031 -0.10683308
000370 7b 7c 83 3e a0 bc 60 3c 4a 40 a2 3d 9f 40 30 be
       0.2568091 0.013716847 0.079224184 -0.17212151
000380 be 00 ef 3e ab 07 bc 3d 54 e8 05 3c 9a b4 57 be
       0.46680254 0.0918115 0.008173067 -0.21064988
000390 ea 71 08 3c af a8 f2 3d f0 91 98 bc 88 30 60 bb
       0.0083279405 0.1184858 -0.018624276 -0.0034208614
0003a0 a8 28 e5 be 60 74 c5 be b8 08 a0 3d 6b b1 0f 3e
       -0.4475758 -0.3856535 0.07814163 0.14032523
0003b0 45 e3 52 be 47 1b 9c be c4 53 9e bd c6 85 95 3e
       -0.20594509 -0.3048956 -0.07730821 0.29203624
0003c0 9f 20 fb bd 47 72 10 3d 0f af d6 3e 0c 79 0d 3e
       -0.12262081 0.035265233 0.41930434 0.13815707
0003d0 cf d6 bf bc 7a 05 95 be f6 79 ce 3e 54 dd 17 3d
       -0.023417858 -0.2910574 0.40327424 0.03707631
0003e0 90 e6 26 3e 18 dd ab be 36 9b a3 be 03 ec 2a 3c
       0.1629889 -0.3356712 -0.31954354 0.010432246
0003f0 13 e8 bf be 45 d0 8d be 83 c3 83 be d0 5d 9a 3e
       -0.37481746 -0.2769796 -0.257351 0.30149698

bias_ih_l1 f4 [100]
000000 86 99 0c 3d be 2c 8a 3d d3 55 bf be 25 41 25 3e
       0.0343261 0.06746815 -0.37370166 0.16138132
000010 3a 57 a4 3e 32 7a a8 3e b9 c1 b1 3c 9c c3 11 3d
       0.320978 0.32905728 0.02169882 0.03558694
000020 22 e1 2f 3e 9b 56 9a bd 2c 42 a3 3e 9a a0 12 be
       0.17175725 -0.0753605 0.31886423 -0.14319077
000030 f3 e8 e2 3c d2 a2 40 be 14 68 4c 3d d5 6f 85 3e
       0.02769897 -0.18812111 0.049903944 0.26061884
000040 88 d7 82 bd 08 da 03 3e a8 f7 48 3e 98 2c a8 be
       -0.063887656 0.12876141 0.19625723 -0.32846522
000050 c6 d4 85 be 0d 42 8a 3d c2 8e f8 bd 97 be 94 bd
       -0.26138896 0.067508794 -0.12136604 -0.07262915
000060 e1 f3 5b be 82 e8 1d be bf 1f f1 be b3 ac b4 3e
       -0.21479751 -0.15420726 -0.47094533 0.3528801
000070 9e 48 40 3d eb 11 16 3e 0a 5a 53 3e 34 82 09 be
       0.046944253 0.14655273 0.20639816 -0.13428575
000080 06 70 3d 3d 67 5c bf 3e 9c 5e a6 be 00 57 c0 3e
       0.046249412 0.37375185 -0.32494056 0.37566376
000090 10 af 1a be 34 ab a2 3e d6 b9 41 bd b1 18 b2 3e
       -0.15105844 0.31771243 -0.047296368 0.34784463
0000a0 13 41 8c bd b0 c2 b7 be ae a4 af be 54 b3 f0 bc
       -0.068483494 -0.35890722 -0.34305328 -0.029382385
0000b0 ba 96 0d be 8f 71 9b be eb 83 04 3e 5d e5 ba bd
       -0.13827029 -0.30360076 0.12940948 -0.09125779
0000c0 e3 6e 44 3d 4b df 81 3e ef 1e 66 3d 0b b9 b7 3e
       0.047957312 0.25365672 0.056181844 0.35883364
0000d0 10 95 4a 3e 27 47 48 3e 8d 38 04 be 83 97 92 be
       0.19783425 0.19558392 -0.12912197 -0.2863122
0000e0 f9 81 0e be 49 4a 9c bc 18 e0 42 3e ff 2e 7a 3d
       -0.13916768 -0.01907839 0.19030797 0.061079975
0000f0 9c c8 58 be 54 a3 42 be 09 6d a4 be 2c fb 97 bb
       -0.21170276 -0.19007617 -0.32114437 -0.0046380963
000100 d5 c1 e1 3d 96 3c ae 3e ce a3 f4 bc 67 bf 0e 3e
       0.11023299 0.34030598 -0.029863264 0.13940202
000110 7c 94 6a be 18 b6 dc bd 35 9f 26 3e 1d 7a 00 bc
       -0.22908205 -0.10776919 0.1627167 -0.007841614
000120 1c 07 83 3e 05 cb 52 3e 0c 76 45 bd de 7a 2a bd
       0.25591362 0.20585258 -0.04820828 -0.04162108
000130 bb d4 30 be 97 9f 2f 3e 79 03 1c bc e6 ec 86 3e
       -0.1726865 0.17150722 -0.009522312 0.26352614
000140 bf 5b a5 bd ce 14 36 bd 9f b8 8e be 3c 22 6c 3e
       -0.0807414 -0.044453435 -0.2787523 0.23059934
000150 45 28 2b 3c af f9 d0 3d c6 86 04 be f3 6a 4f 3e
       0.010446613 0.10203873 -0.12942037 0.20255642
000160 a9 4e 88 3d 96 56 76 3e f5 06 6f 3e 4d e3 32 3d
       0.06655628 0.24056467 0.23342498 0.043673802
000170 aa 40 81 bd 32 9f 9d 3e cf 7e 0e be a5 29 53 be
       -0.06311162 0.3078552 -0.13915561 -0.20621355
000180 70 a9 b5 3e 73 8b cb 3e 3c 9c df bd 6f 26 0f 3e
       0.35480833 0.3975483 -0.10918471 0.13979505

bias_hh_l1 f4 [100]
000000 56 24 21 3d 13 33 d0 3c 5b 29 b4 be 39 5c 9e 3e
       0.039341293 0.02541498 -0.35187802 0.30929735
000010 63 cf 93 3e 9a 5b 82 3e 22 e3 81 3d 43 f3 38 3c
       0.2886916 0.2546051 0.0634215 0.011288467
000020 b4 b9 31 3e 73 f8 23 3d 43 b7 ca 3e c6 65 b8 bd
       0.17355996 0.04003186 0.39592943 -0.09003787
000030 2f f5 56 3d a8 6e 47 be c5 8b 95 3d 78 6e 18 3e
       0.05247992 -0.19475806 0.073020495 0.1488589
000040 3f 08 1e be fc 4e 8e 3d f7 48 64 3e 22 a5 9b be
       -0.15432833 0.06948659 0.22293459 -0.30399424
000050 f3 66 87 be a6 7a 22 3d f3 37 07 be 31 ce 1d 3c
       -0.26445732 0.039667748 -0.13204937 0.009631679
000060 9a 86 cd bd 48 71 8c be 19 ea d2 be 9a 78 9d 3e
       -0.10035439 -0.27430177 -0.41194227 0.30756074
000070 5a 76 1a 3d 93 24 78 3e 2a 4a 67 3e 47 77 65 bd
       0.037710525 0.24232702 0.22586885 -0.056021955
000080 16 ff 40 3d b6 94 cb 3e cb ea be be ed 13 7c 3e
       0.04711827 0.39761895 -0.37288508 0.24616976
000090 03 26 9d bd 8b b3 13 3e 46 67 c1 3b 32 03 66 3e
       -0.07673266 0.14423959 0.0059022037 0.22462156
0000a0 04 88 d3 bd 87 71 ad be c0 5f ea be c0 db 2b bd
       -0.10328677 -0.33875677 -0.45776176 -0.041957617
0000b0 bc 50 4c be 69 cd a4 be 40 1e 36 3e de 25 72 bd
       -0.19952673 -0.32187966 0.17784977 -0.059118144
0000c0 ec 45 79 bd 8c 07 88 3e 46 5c 39 3d 2e b2 e0 3e
       -0.0608577 0.26568258 0.045254014 0.4388594
0000d0 fa 6e 04 3d 16 71 8d 3e f2 63 c1 bd 5f 25 96 be
       0.032332398 0.2762534 -0.09442891 -0.29325387
0000e0 c9 55 22 3b ae cf ea bc 47 43 26 3e 8b 41 0e 3e
       0.002477037 -0.028663483 0.16236602 0.1389219
0000f0 be e8 60 be 62 98 34 bd 85 33 a0 be f4 08 59 3d
       -0.21963784 -0.044090636 -0.31289306 0.052987054
000100 b4 a0 47 3e c2 70 d9 3e bc 5f c5 bd 3a 0d 00 3e
       0.19494897 0.4246884 -0.096374005 0.12505046
000110 00 fe fd bd c4 fc 0d be 5e 5e 19 3e 18 32 3b bd
       -0.12401962 -0.13865954 0.14977404 -0.04570207
000120 81 96 7b 3e d6 cd 1d 3e 9a 7b 2d 3d aa 6d 0f be
       0.24569131 0.15410551 0.042354204 -0.14006677
000130 13 b2 12 bd d7 16 4c 3e f3 92 8d 3a 72 a8 9c 3e
       -0.035814356 0.19930588 0.001080124 0.30597264
000140 80 28 fb bd 02 fe 50 be 6e 4d 8e be c1 23 38 3e
       -0.12263584 -0.20409396 -0.2779345 0.17982389
000150 1d 6b ae bc 3d 1f ea 3d 55 95 37 be d1 3c 82 3e
       -0.02129131 0.114317395 -0.1792806 0.25437024
000160 6b 52 74 3d f5 4a 61 3e 68 f4 33 3e 43 94 72 3b
       0.059648912 0.2200125 0.17573702 0.003701464
000170 db 50 38 be 6f 6f 62 3e 44 04 57 be a1 02 bb be
       -0.17999594 0.22112821 -0.20997721 -0.36525443
000180 d6 94 b4 3e 2c 88 b0 3e 6f 18 f3 bc d7 0e cf 3c
       0.35269803 0.3447889 -0.029674737 0.02527563
