Models/Shakespeare_GRU.pt (torch_old, 811432 bytes, 15 tensors)

weight f4 [100, 100]
00000000: 46a7 e8bf 689a 403f b5e5 07bf f1d4 dcbe
00000010: a733 a8bf 33f4 4e3f 5fb4 91bf 601f e93e
00000020: 7ced 62bf c73e 7cbf c7e7 61bf 111c bd3e
00000030: fe6f 23c0 61f0 b9bf d972 8a3f 3b0f ecbe
00000040: 1b35 c7be d38d bebe 9212 cf3e 7cc5 21bd
00000050: 20e4 adbf 8cf2 423f c33a 2b3f 1a02 fc3e
00000060: 0ab5 523f 7194 a83f fe41 163f 031a 8d3d
00000070: 279a 5c3f e3f8 463d 61fa 6fbf 87fd bb3e
00000080: 2019 45bc 9105 9b3e 6806 6cbf a4ad cabd
00000090: 4480 a3bf cb82 9cbe 46b8 603f b027 693e
000000a0: 6f03 47bd d356 e8bf e22c f63e 139c e13f
000000b0: db52 343f 1d64 163e c831 b9bf 2c22 0cbf
000000c0: 6b51 363f 6e33 223f f41d 11c0 1b44 cb3e
000000d0: 585a bfbf 0583 c8be 886b e03e 8a4d 9fbf
000000e0: fe59 533f 25ee 7cbf 7ab9 b03f 3c12 233f
000000f0: c5eb f1be 994d f0be c2a0 e93e 33d0 29be
00000100: 1a39 803f b98b 683f 913a 243f 2bf0 bcbf
00000110: 84ce a63f a91b 0b3f c513 2ebf 3fac 46bf
00000120: ee63 153f 6319 77bd be9a 5b3e f749 87bf
00000130: 6b0a cabd 3a11 88bf 5164 2e3f bbac 00be
00000140: 16d2 bbbf aa34 22bf 6765 433e 863b 1fbe
00000150: 75bc 83be b311 00c0 faf4 68be f347 43bf
00000160: 9341 9f3f bb99 873e 3139 4dbe 081c be3f
00000170: e984 03bf 7f7b 56bf 13c0 613f d5a6 443f
00000180: 8fe4 a0be 91d5 a83e 813b 99bf e05b db3f
00000190: 491e 0240 3cf6 afbf 3503 1e3f 2191 88bf
000001a0: 74a8 013e 819f 0c3e 3102 103f 3ff7 493e
000001b0: edf0 27bf 1084 843e f10b 703e 8d93 003f
000001c0: 7f08 583f bf73 1c3f 1cf4 82bf a1e8 0b3e
000001d0: 1c7e b8bf 3ce6 573f 9ce9 333e 1b09 ae3f
000001e0: 1209 983f 4e87 0bbe f210 6cbf c250 53bf
000001f0: 0892 8d3f a1c7 953d 2a37 cebf 44ab c9bf
00000200: 9956 ccbd e4a6 d53e 5050 d2bf 2027 383f
00000210: 6b16 1c3f 94f0 943f b41a 01be 7c4b 043e
00000220: cc28 3dbf fcdb 163e e979 63bf b247 ed3f
00000230: 2759 97be 526b 7dbf ede7 8cbf 5779 813d
00000240: a9ce c83f 8cca c83e b47c 99bf f4d2 793f
00000250: 6a8c c83e 67b3 ab3e 96ec c83f 9a35 05c0
00000260: 3d28 42bf 5ad6 e43f baba b23f 9bfe bdbc
00000270: fd76 c2bf 3943 333f 196a 103f 7c3d fa3f
00000280: 08b9 0abf 6cf9 96bf 3dcd 25bf 2394 2e3f
00000290: da91 3d3f 8523 183f bf6e f13f 52fe 52bf
000002a0: dab0 aabf 0dd2 3cbf 0f42 95bf 42d3 46bf
000002b0: 17a8 ed3e e3b9 5dbe 7374 b63e e975 cfbe
000002c0: 4799 1abf 74a8 a93e 02fa 833f 3398 df3e
000002d0: ee02 f23f feaa aebf e4bc b0bf 9ef0 a23f
000002e0: 2a0f f0bf 5a78 cf3e e0ed 5ebe bf28 abbe
000002f0: 759b 03bf b0ab adbe 72ea 513f f2ab 583e
00000300: 139e 59bf d090 023f ce47 8abf 80c1 f73c
00000310: 6691 a43e 9635 1b3f 7c13 3a3f 77c1 26bf
00000320: 4e1c c73f d793 4ebf d847 423e 44f4 0b3f
00000330: 5637 07bf a568 873f 0cb1 96bf 1987 eabf
00000340: 4d50 16bf 86d7 babe 3e5c 2040 a319 9ebf
00000350: b442 453f 7831 b7bf a2ae 13be ec27 61be
00000360: 19b5 cd3e a688 c2be 4ee2 1440 1b14 c2bf
00000370: 8cf7 963f e74e 2e3f fd85 c4bf b27e 34bf
00000380: 88bc 8a3f 847b 01c0 dcad d4be fbce 9fbe
00000390: 64f1 2a3f c752 77bf 7b79 513e b6b0 60bf
000003a0: 82f9 da3e a38b 5e3d 8f6c e8be 28ca 7c3e
000003b0: 5bf9 c73f aad5 fabf 223b c43f ad63 b93f
000003c0: bede e73c c732 d6be 7926 403e 3019 4bbf
000003d0: 6a8c 03c0 3763 9cbf 4fce 9d3f d70a 97bd
000003e0: 1c33 833f a558 6d3c 3e97 e4bf e847 04c0
000003f0: e0c5 43be 43f9 de3f ea8c 48be 67de ae3e
-1.8176048 0.75235605 -0.5308488 -0.4313121 -1.3140763 0.8084137 -1.138317 0.4553175
-0.8864362 -0.9853329 -0.8824429 0.36935475 -2.5537105 -1.4526483 1.0816299 -0.4610537
-0.38907704 -0.37217578 0.40443856 -0.039494976 -1.3585243 0.7615135 0.6688654 0.49220353
0.82307494 1.3170301 0.58694446 0.06889727 0.8617272 0.0485772 -0.9374142 0.36716864
-0.012029916 0.30277684 -0.92197275 -0.098964006 -1.2773519 -0.30568537 0.8778118 0.22769046
-0.04858726 -1.8151497 0.48081118 1.7625755 0.7043893 0.14686628 -1.4468317 -0.5473964
0.71217984 0.63359725 -2.2674532 0.39700398 -1.4949446 -0.3916246 0.4383204 -1.2445538
0.8255919 -0.9880088 1.3806603 0.636997 -0.4725019 -0.46934202 0.4563046 -0.16583328
1.0017426 0.908382 0.64151865 -1.4760793 1.3031774 0.5433908 -0.67998916 -0.77606577
0.58355606 -0.060326945 0.21445748 -1.0569447 -0.09865268 -1.0630257 0.6812182 -0.12565891
-1.4673488 -0.6336161 0.1908165 -0.1555005 -0.2572972 -2.0010803 -0.22749701 -0.7628166
1.2441887 0.26484475 -0.20041348 1.4852304 -0.5137468 -0.8378219 0.88183707 0.76817065
-0.31424376 0.32975438 -1.1971284 1.7137413 2.0330985 -1.374702 0.61723644 -1.066929
0.12661916 0.13732721 0.56253344 0.19723223 -0.65602 0.25882006 0.23442055 0.50225145
0.84387964 0.61114115 -1.0230746 0.1366296 -1.4413486 0.84335685 0.17569584 1.3596529
1.1877768 -0.13625833 -0.92213356 -0.825451 1.106019 0.07313467 -1.6110585 -1.5755391
-0.09977455 0.4172889 -1.643076 0.719347 0.6097171 1.1635919 -0.12607843 0.1291942
-0.73890376 0.14732355 -0.88857895 1.8537505 -0.29560205 -0.9899188 -1.1008278 0.06321972
1.5688068 0.3921703 -1.1991181 0.97587514 0.39169627 0.3353531 1.56972 -2.0813966
-0.7584265 1.7877915 1.3963234 -0.023192694 -1.5192562 0.7002445 0.5641189 1.9550014
-0.54188585 -1.1794868 -0.64766294 0.6819479 0.74050677 0.594292 1.8861922 -0.8241931
-1.3335221 -0.7375801 -1.1660784 -0.77666104 0.46417305 -0.21652941 0.3563572 -0.40519646
-0.6039013 0.33136332 1.0310671 0.43670806 1.8907144 -1.3645933 -1.3807645 1.272968
-1.8754628 0.40521508 -0.2177043 -0.33429524 -0.51409084 -0.3392005 0.8199836 0.21159342
-0.8500683 0.51002216 -1.0803163 0.030243635 0.3214218 0.6062864 0.7268598 -0.65138954
1.5555513 -0.80694336 0.18972719 0.54669595 -0.5281881 1.057881 -1.177278 -1.8322479
-0.5871628 -0.36492556 2.50563 -1.2351574 0.77054906 -1.4311972 -0.14422086 -0.21987885
0.4017723 -0.3799488 2.3263125 -1.5162386 1.1794295 0.68089145 -1.535339 -0.7050582
1.0838785 -2.0231638 -0.41538894 -0.312126 0.6677458 -0.96610683 0.20456497 -0.8776964
0.42768484 0.054332387 -0.45395324 0.24686491 1.5622972 -1.9596455 1.5330546 1.4483544
0.028304454 -0.41835615 0.18764676 -0.7933531 -2.0554452 -1.2217778 1.2328585 -0.073751144
1.0249972 0.014486467 -1.7858655 -2.0668888 -0.19118452 1.7419819 -0.19585004 0.34154055

weight_ih_l0 f4 [300, 100]
00000000: 741e 263d f981 08bf 7e34 953c aded 2c3e
00000010: b61c c33d ddd0 a43d 3206 503e 0402 3e3f
00000020: c1b1 72be a896 fe3e 14b2 fd3d 101b 1e3d
00000030: edcb 23be ffae 2cbd 9257 d0bd 9ce4 00bf
00000040: 6b90 ff3e fee0 8e3b d78c 473e 3132 41bf
00000050: 6461 3f3c df5f ef3b f442 c63e cc87 1fbe
00000060: f109 a63e 8be3 43bf af88 0a3f fb9e 91bd
00000070: c88b ecbe 3b45 a63e 80a9 af3d ea45 163f
00000080: 03f6 243f 17ce 043e 444f 4d3b ed3d eabd
00000090: ebc9 a6be 2de9 923e 6a88 693d 42f2 ecbe
000000a0: 999d 4a3d 9554 303f d43d 023d 1f54 be3e
000000b0: f976 7e3e ed52 0bbe 6b93 82be 0326 d4be
000000c0: ddde 5dbe 192a 45bd 2d07 453f aa73 b6bd
000000d0: 7ba2 90be 520a b33d 047c 7b3e bd14 ccbd
000000e0: 34cd f4be f88f 0a3b fe9d 373f 2115 7cbd
000000f0: 839b cabe e7e1 f73e 8a67 8d3e f7d3 69be
00000100: d213 283e 7b5c a7be 2ee6 583e 1703 4fbe
00000110: c89a 4d3e a472 87be 353a 0cbd 7b3f 093f
00000120: 878a 963c 3053 df3e c4bc 95bf 101e 183f
00000130: 5c5e e8be 9e13 cf3e be80 b03e 6393 9abe
00000140: 82b5 6c3d 7e66 89be e628 443e 0f58 b3be
00000150: bca3 00bf 9fbd de3e ff5c cfbe 092e e23e
00000160: 7f63 f73e ffaa 473f f6c7 41be db75 b0be
00000170: 0f1a 443e 91cd 36be 9655 003f db5b e5be
00000180: 44da 343f d87c d03e a3f1 15be 4139 07bf
00000190: 89df 9e3d b154 cdbe 0dbf 493f 0044 913f
000001a0: 5c99 d5be 95f7 473f 0e45 3c3d cd3d 173f
000001b0: ac1a 93bd 57e6 10bf fb9b afbd c577 203e
000001c0: a773 313f 8292 d13e 95ca 2f3d 9efd 01bd
000001d0: f5dd 16bf 24fe 48be 52da fe3e 751a 1abf
000001e0: 4672 e6be d832 d1bd 1c0e cd3d 8473 083f
000001f0: 8d53 ae3e 006e 803f d67c 73be d334 473e
00000200: 959b 12bf afc3 7cbb 1958 363f 9fe6 1b3f
00000210: 2c5d 103f 2c42 04be ef2f fdbe f941 a9be
00000220: 9551 6abe b648 163f 1f4f 1a3e b2ec 3cbf
00000230: 7c8c 1cbd 2fc6 62be 36d3 a53e b919 503e
00000240: d68f 223e ea3e 23bf 58db 92be 8b3c 98be
00000250: 1e41 023e bddf ca3d bda0 97be 303d 36bf
00000260: 4c87 4e3e 7afa 0abe 60e7 ad3e d0c3 bebe
00000270: fcd9 ad3c bb65 f33e a934 883e c22d bfbc
00000280: eb5b 0dbf 09bd 54bc 323e 0cbf 1e70 a13e
00000290: 4138 0d3c b76c 1abd 54a5 06bf 4840 f63d
000002a0: 82fe 513f 1d70 2ebe 8ab5 13bf 9d48 22bf
000002b0: f0a3 19bf d291 e03e 435e da3c 792c 063f
000002c0: 7ee6 b2bf dc95 28bd fbbb eb3e 2512 a9bd
000002d0: fdd5 093d a53a 033f e087 883f 04aa c63e
000002e0: 3c68 99bd 89ab 96be 6a7e 08bf 1f32 bf3e
000002f0: 1ade cabe 88f3 493f 11c7 283d ae9e edbb
00000300: 77a1 b4be 92b3 03be e54f b33e 19f9 62bf
00000310: 8df3 8dbd 5e5e 1a3f af19 f73e 10f0 abbe
00000320: ae8a dcbe 6ca3 87bf 3491 36be 3508 45bf
00000330: 526f 4c3f a1f5 7dbe bbb1 5dbe 18d6 edbe
00000340: 0cff d2be 6bba 10bb bb02 eebe 1212 e63e
00000350: fca5 cd3e fc49 1fbf 7d78 723e 7611 fc3e
00000360: 838a 483e b23a b4bd 23af b4bf cdbe a1bf
00000370: de2a 8dbe a65c 933d 948c 45bf 008c 57bc
00000380: 6788 55bf 4d52 13bf 43e7 ba3e 6b9b fa3e
00000390: d477 d43e 3100 5abe f328 c63e 2f54 083c
000003a0: 156a f53e 573e 393f 717a 1e3f c6b5 f83d
000003b0: 124c 343e 9927 5c3f 8fd7 5bbe a07d 333f
000003c0: ea94 e63c 20ce e43d 1cc2 79bf f707 ac3d
000003d0: ea34 c4be e7aa 203f 1ad0 753e 999d ea3e
000003e0: ff47 1b3e 236d 623d f9bf 2e3e 45ff f1bc
000003f0: 8949 97bf 71aa b23f ac2d 3bbd 3d0a 0b3e
0.040556386 -0.5332332 0.018213507 0.16887541 0.095269606 0.0804765 0.20314863 0.74221826
-0.2370062 0.49724317 0.12387481 0.038600028 -0.1599576 -0.042159077 -0.10172953 -0.5034883
0.4991487 0.0043603173 0.1948732 -0.7546721 0.011680935 0.00730513 0.38722956 -0.15579146
0.3242946 -0.7651908 0.5411481 -0.07110401 -0.46200395 0.32474694 0.085772514 0.5870043
0.64437884 0.12969242 0.0031327764 -0.11437593 -0.32575926 0.28693524 0.05701486 -0.46278578
0.049466703 0.6887906 0.031797245 0.37173554 0.24850072 -0.13605852 -0.25503096 -0.4143525
-0.21667047 -0.04813585 0.76964074 -0.0890878 -0.28248963 0.08742203 0.24559027 -0.09964893
-0.47812808 0.002114294 0.7172545 -0.061543588 -0.3957177 0.48414537 0.27618057 -0.22834764
0.16413811 -0.32687744 0.21181557 -0.20216022 0.20078576 -0.2645465 -0.034235198 0.5361249
0.018376602 0.43618155 -1.1698232 0.5942087 -0.4538449 0.40444654 0.34473222 -0.30190572
0.057790287 -0.26836008 0.19156227 -0.3502812 -0.5024984 0.43504044 -0.40500638 0.44175747
0.48318097 0.77995294 -0.18923935 -0.34464917 0.19150566 -0.17851855 0.50130594 -0.44796643
0.70645547 0.40720248 -0.14642958 -0.5282174 0.0775748 -0.40103677 0.78807145 1.1348877
-0.41718566 0.78112155 0.045964293 0.59078676 -0.07182822 -0.5660147 -0.08574673 0.15670688
0.69317096 0.4093209 0.042917807 -0.03173601 -0.5893243 -0.19628197 0.4977594 -0.6019662
-0.4500906 -0.10214776 0.10012457 0.5330126 0.3404812 1.0033569 -0.2377809 0.19453745
-0.5726865 -0.0038568785 0.71228176 0.60898775 0.5639217 -0.12915868 -0.49450633 -0.33058146
-0.22882684 0.587047 0.15069245 -0.7379867 -0.038219914 -0.22145914 0.32387704 0.20322312
0.15875182 -0.63767874 -0.2868297 -0.2973369 0.12720153 0.09905956 -0.2961482 -0.71187115
0.20168799 -0.13572112 0.33965588 -0.37258768 0.021222107 0.47538552 0.26602677 -0.023337249
-0.5521838 -0.012984523 -0.547824 0.3153085 0.008619369 -0.037701335 -0.5259602 0.120239794
0.82028973 -0.17034955 -0.5769888 -0.6339205 -0.60015774 0.43861252 0.026656276 0.5241161
-1.3976591 -0.041158542 0.46041855 -0.08255414 0.03365134 0.5126136 1.0666466 0.38801587
-0.07490584 -0.29427746 -0.5331789 0.37342927 -0.39622575 0.78887224 0.04120547 -0.007251582
-0.35279438 -0.1286147 0.35021892 -0.8866134 -0.06931219 0.6030024 0.48261783 -0.3358159
-0.43074554 -1.0596747 -0.17828828 -0.7696565 0.7985736 -0.24800731 -0.2164983 -0.46452403
-0.4121021 -0.002208377 -0.46486458 0.44935662 0.401657 -0.62222266 0.23678775 0.49232072
0.19584088 -0.08800258 -1.4115947 -1.2636353 -0.27571768 0.07195406 -0.7716763 -0.013155937
-0.8341126 -0.57547456 0.36504564 0.489467 0.41497672 -0.21289136 0.38703117 0.008320852
0.47932497 0.7236075 0.6190558 0.121440455 0.17607144 0.8599792 -0.21468948 0.70113564
0.02814718 0.11172128 -0.9756181 0.08399957 -0.3832162 0.62760776 0.24005166 0.45823362
0.15164183 0.055279862 0.1706542 -0.029540667 -1.1819316 1.3958265 -0.045697853 0.13578124

weight_hh_l0 f4 [300, 100]
00000000: 54e9 33bd de34 f63d 718f c1be 9f71 8c3e
00000010: a100 27be 87d3 7f3e d29a 233f 2aee 41bf
00000020: bd70 ac3e a5c9 9bbd 73d7 0fbf 265d 20be
00000030: 90d1 e1bc b138 63bc 3925 043f 6a37 77be
00000040: 0bf6 bfbd 008f 463e 2942 99be e6d6 8bbd
00000050: e57e 8abe e80e b6be 1c96 0abf 73cf a33d
00000060: 8baf bcbe a49b a33b 67f8 f6be 958d 8dbe
00000070: 7d50 6a3e afc3 d3bd 5f6f 83bd 6e5d f03d
00000080: fa50 8bbe b615 09bf 3e08 553e 32f7 fbbe
00000090: 0734 d0bc 1015 933e 0d69 293e d49e 0dbf
000000a0: 4ee9 a2be 6e01 bdbe ac3a b23e 5106 fcbd
000000b0: b029 0d3d 98fc 81bf 22fb d7bd 25f9 b0be
000000c0: 7b5d 9abd 1fb7 9fbf 33fc 3c3f 1164 843d
000000d0: 2f73 3cbf b2ea 6fbe 26a9 4cbe 0aae 10be
000000e0: 2609 a53e f115 30bf 32c0 9ebe c9ac 18bf
000000f0: 32e3 813e c8b4 5f3e 058e 21be c42d b2be
00000100: 3479 22be cf29 203e a19d 2bbe ec77 713e
00000110: b1bf 65be 0fbc 8abe d5c2 bfbe 1300 cd3e
00000120: d9c3 513f bb17 cbbe bd86 8f3e 87b8 ea3c
00000130: f189 adbe 4cd9 a33e 824e e93e e262 863f
00000140: 09c1 cb3e 8bf6 4fbf 02a8 843b 06ed 4fbe
00000150: 7530 4abd 50a9 6abd 9999 3bbf 5665 3abe
00000160: cb96 00bf 6ac3 8a3e 3c84 dc3e 9869 55bd
00000170: 2594 8ebe a37a 02bf 7071 37be 631e 29be
00000180: 5283 823e ccf6 e4be 1f95 56bf aca0 a1be
00000190: 252e 013d e678 68be 6336 0ebe be9c b6be
000001a0: 37ac 493d 0042 b1be 6305 843e e3bc 223e
000001b0: ea86 873e a042 aabe 0cc7 4cbe ba25 48bf
000001c0: e499 d53e e02b 583e f89f ca3e 2329 a8be
000001d0: 1b9b 283e 549e 2d3f 0401 4cbf d7bf 58bf
000001e0: fc76 0fbf d2fd 76be e2d3 13be e8c4 923e
000001f0: 0b9d 66bf 495f 2f3f 894f 193f f048 e73e
00000200: 27e0 3fbf d5e8 ff3e 7caa 893e dc2c 81be
00000210: 8619 21bf 1e65 1e3e 3ad9 9cbe 329c 2b3e
00000220: 7157 913e b828 54be 1aba 4cbe 4216 aa3d
00000230: 824e 40bd b729 7f3d b14a 713e 0b76 66be
00000240: bb7e 2b3d 175b 2abe 2437 1ebf 5650 8abe
00000250: 377b 30bf ebba 283f 79c5 84be f367 393e
00000260: 002f 833e 777d 5b3c a8ee 7e3e 7d8e 35bd
00000270: 4d15 253f 5033 cc3e 079b fc3e ef4b b1bd
00000280: a514 843d dcc1 53bf fb85 293e 3bc1 1fbf
00000290: 630a 163d 18a8 30be 29a0 213f 4265 de3c
000002a0: 7c3a 50be 0f03 60bf 3ced 44bf 09c9 993e
000002b0: cdf3 f13e 5635 1a3d 2cfc 5c3f 7428 e3be
000002c0: fe1f 8d3e 1e6a 70be 0b89 5c3d b6b9 0dbf
000002d0: 9d65 0cbe 64b5 033d 57b9 66bd 80ce 583e
000002e0: dcc6 a03d 92aa 72bc 51d5 aa3e 8bfe 5b3e
000002f0: 3be7 6dbd e352 d13e 4198 dfbd e85b 09be
00000300: 8aba 443f d965 9d3c 7c02 53be 9569 ba3e
00000310: dcb5 143f 61ee 58bf 46ac 38bf 6a36 5ebd
00000320: 94f1 d23e dab2 a73d 25cd 1c3f 4e6d 2dbf
00000330: 0690 0cbf d2d6 993d 2f35 95be 1bf3 963e
00000340: 8ba6 903e 73ee 1fbf 219d 153f b07f d0be
00000350: 55fa ebbe bb7c 9abe 26e5 183e 6ccb a4be
00000360: c8b7 3d3d e202 a0bf 255f 313d 23d8 073f
00000370: af57 74be 80ee 88be c511 33be 64ce 26bf
00000380: 405d 3dbf fd68 87bd c2c5 94bf 3be1 16bd
00000390: 330a 74bf 1c03 81be 4106 bcbf 140c eebc
000003a0: b9db 7dbe 8391 263f c52e de3e e606 46be
000003b0: 89aa 103e ae6f 55bf 0b23 e33e cafc 673d
000003c0: 186b 443e 99a5 28bd b14d 79bd 2850 4d3e
000003d0: afc2 ba3c c7e2 21be bb53 e33e eefe f03e
000003e0: e603 65be 408a b0be 7be5 6c3d 3265 dc3e
000003f0: 87d8 ce3e cbcc 58bf c61b 17bf 775f 4abe
-0.04392369 0.12021802 -0.3780475 0.27430436 -0.16308834 0.24983035 0.6390811 -0.75754035
0.33679762 -0.0760682 -0.56188124 -0.15660533 -0.027565747 -0.013868497 0.516193 -0.24142233
-0.09373101 0.19390488 -0.2993329 -0.06828098 -0.27049938 -0.35558248 -0.541353 0.07998552
-0.3685268 0.004992919 -0.4823639 -0.2764708 0.22882266 -0.10340058 -0.06417727 0.1173657
-0.27210218 -0.53548753 0.20803925 -0.49212033 -0.025415434 0.28727007 0.1654398 -0.5532048
-0.31818622 -0.36915153 0.34810388 -0.12305892 0.034463584 -1.015521 -0.10545947 -0.34565082
-0.07537361 -1.2477759 0.73822325 0.06464399 -0.73613256 -0.23429373 -0.199864 -0.1412889
0.32233542 -0.6878348 -0.31006008 -0.5963865 0.2536865 0.21846306 -0.15776832 -0.3480054
-0.15866548 0.15640949 -0.1675935 0.23580903 -0.22436406 -0.27096602 -0.37453333 0.4003912
0.81939465 -0.39666542 0.28032485 0.028652443 -0.33894303 0.32001722 0.4556771 1.0498927
0.39795712 -0.8123557 0.0040483484 -0.20305261 -0.04936262 -0.057290375 -0.73281246 -0.18202719
-0.5023009 0.27102214 0.43069637 -0.052102655 -0.278474 -0.5096838 -0.17914367 -0.16515498
0.25490814 -0.4471954 -0.8382129 -0.31567895 0.031538147 -0.22702369 -0.13887934 -0.3566646
0.049236502 -0.34620667 0.2578536 0.15892367 0.2647012 -0.33253956 -0.19997805 -0.78182566
0.41718972 0.21110487 0.3957517 -0.32843885 0.16465418 0.67819715 -0.7968905 -0.84667724
-0.5604093 -0.24120262 -0.14436296 0.28665853 -0.9008338 0.6850477 0.59886986 0.45172834
-0.74951404 0.49982324 0.26887882 -0.25229537 -0.6292957 0.1546826 -0.3063448 0.16758803
0.28387025 -0.20718658 -0.19992867 0.083050266 -0.04694987 0.06229564 0.23563649 -0.22505967
0.041868906 -0.1663631 -0.6180289 -0.27014416 -0.6893801 0.65910214 -0.2593191 0.1810606
0.25621796 0.013396612 0.24895728 -0.04432534 0.6448563 0.39882898 0.49337026 -0.08657061
0.0644925 -0.8271768 0.16555016 -0.6240422 0.036631 -0.17251623 0.6313501 0.027147893
-0.2033481 -0.8750467 -0.7692449 0.3003619 0.47256318 0.03764852 0.86322284 -0.443668
0.2756347 -0.2347798 0.05384163 -0.553615 -0.13710637 0.03215541 -0.056329098 0.21172523
0.078504294 -0.014811175 0.33365873 0.21483819 -0.058081847 0.4088355 -0.10917712 -0.13413966
0.76847136 0.019213604 -0.20606416 0.36408678 0.58089995 -0.8473874 -0.7213787 -0.054251112
0.41199934 0.0818841 0.61250526 -0.6774491 -0.5490726 0.07511677 -0.29142138 0.2948235
0.28252062 -0.6247322 0.58442885 -0.40722418 -0.46089426 -0.30173287 0.14931163 -0.3218645
0.046317846 -1.250088 0.043303628 0.53064173 -0.23861574 -0.2674446 -0.17487247 -0.6515868
-0.73970413 -0.06611822 -1.1622851 -0.03683589 -0.9532806 -0.25197685 -1.4689409 -0.029058494
-0.24790849 0.65065783 0.43395057 -0.19338569 0.14127554 -0.83373535 0.44362673 0.056637563
0.19181478 -0.04117355 -0.060865108 0.20050108 0.02279791 -0.15809165 0.4439982 0.47069496
-0.22364768 -0.34480476 0.057836037 0.43045956 0.40399572 -0.8468749 -0.59026754 -0.1976298

bias_ih_l0 f4 [300]
00000000: 1f73 4fbe ade5 c6be 27a3 70bd 3016 ee3d
00000010: f084 a8be 237d 143e 2021 a7be aea6 d9be
00000020: 15f1 e53d 8f31 2dbe f3b7 0fbe d6f2 243e
00000030: 847b 743d 2592 9e3d 0b97 e5be 22b7 9abd
00000040: 6eb6 8abe 7b87 bcbe ca57 28be 39cd 57bd
00000050: 2f26 6cbf b1b3 2cbe 3efc 473c 7d44 a7be
00000060: ea55 a43c ad75 263c 2a8b afbe 2c83 00bf
00000070: 8359 eabe e1b3 8e3e c9a8 0cbf 4796 553d
00000080: 2db2 043e 835a b4be 79a1 823e 2304 dfbe
00000090: 910d 0cbe 0266 7dbe 8ffb bdbd 21d8 dabe
000000a0: e20f 0fbf 03de 3abf b48c 82bd 93b1 1dbe
000000b0: 6168 d9be 4702 09be d959 cc3d cd87 6fbe
000000c0: 6396 b43d 1aa8 8cbe aaba a4be 7eff c9be
000000d0: 0459 febc 745b cdbe 01ae 9fbe 7994 9dbe
000000e0: 45f5 19bf fb8a 41bf 30d2 fdbd 3e74 8c3d
000000f0: a267 09bf 537b 17be 9fb6 8ebe 0e81 14be
00000100: 814d 3abe 2230 a2bd a9f6 7abc 545e c2be
00000110: 122c 53bd 9ad9 fdbd 63b5 9ebe b919 a5bd
00000120: 2ff8 60be cf0f 1bbe f150 0dbf bb23 43be
00000130: fd24 46be daab b7be daeb b3be 2556 18bf
00000140: c5ca d7be fa7d af3d 77c6 f9bd 40dd 82bd
00000150: 5e51 6cbe d834 97bd 3aea d9be 5072 3ebe
00000160: 7211 45be b7d2 dcbe b936 e7be 590a 37bd
00000170: d260 0ebe e84b c4be f989 5abe aaf7 49bf
00000180: fb07 1fbf 48d5 1bbe dc7e 79be fc67 d1bd
00000190: 9e04 58bd dee6 36bf 772f 4bbe 5d8b 3abf
000001a0: 6a07 cfbd fd68 f8be e39f 34bf 1adb e9be
000001b0: d294 0cbe cb1a 5bbe 4800 4dbe c868 9bbe
000001c0: 70cc e9bd 4028 1abf 62c2 01be 7ff5 e4be
000001d0: 29ab 32bf 3a23 a3be 7362 49bf 3c90 2cbe
000001e0: a871 80be 1ea7 3cbe 8ad8 0fbf ad50 7fbe
000001f0: fb18 8cbe 7d63 6dbf d8a3 9cbe b33a 04bf
00000200: 4b5e 09bf 8673 2fbf f1e6 26bf 38f3 1ebf
00000210: 9c89 e2bd 8d58 843d 5f49 04bf 9aa3 7abf
00000220: 5be4 2abe d7c6 61bf ee00 a9be bd1c e5bd
00000230: ad38 67be 2790 23bf f81f 8fbe 6365 0abe
00000240: 6322 a1bb 01b6 64be e055 00bf a0be d9be
00000250: 656e 08bf f9d9 a3be 2976 b5be 8b2b 1ebf
00000260: c507 04bf 152a 4abf 393e fabe ffff 26bf
00000270: e7db 02bf 95e4 14be ae43 dabe 0bd7 20be
00000280: 4a9b 8bbe d3bf 083d b9f4 29bf 6e28 c8bd
00000290: 0234 38be e6e0 81be cdcf 09bf 27b2 b9be
000002a0: f5bc 00bf c5e6 62be ec53 6bbe 41c5 5bbe
000002b0: b297 a3be d12c b7bd 9778 4cbf b6b7 17be
000002c0: f1ba 1cbf de91 90be df26 e5be b088 f6be
000002d0: 7675 69be 0241 43bf 331c a9be a432 16be
000002e0: c73a dfbe 5761 a4be f370 0e3d ffd3 ecbd
000002f0: df24 3bbf b2f7 f6be e31c 0fbf 3c19 4cbf
00000300: d42c 8ebf 1d94 b2be e256 14bf 4864 3abf
00000310: 44bf 8abf 8a24 3dbe e7f3 3abf 792f 5ebe
00000320: 45c8 9fbd fb8f 4ebd 6548 bc3e 7fd9 923e
00000330: a2e6 813e 73ae 93be 463c b3bc 7103 6dbd
00000340: b52d 96bd 1f16 803e 0cf3 d9bd 16dc 993e
00000350: 493c dbbe e663 21be fa06 9ebe 20a9 463e
00000360: 2631 47be 6318 b6be 46b7 013e 6611 063f
00000370: 6589 063e af01 043c 442d 1b3d 9c91 cf3e
00000380: d922 573e d2c3 80bd 1428 483e 22dd efbc
00000390: 8c74 843e 4fde 37be 39f4 233e 7916 a5bd
000003a0: 5350 883e 4a7e b03e 7e8d 19bd 24c4 8dbe
000003b0: ccac 7f3b aa48 593e 398f 35be 8667 863c
000003c0: 2437 3d3e bef5 a73b 9386 32be 9ea7 d0be
000003d0: bc6a 11be 830b a6bd 8b86 3ebe 217b 8fbe
000003e0: f58b 9e3e 92a9 9abe 66c7 1fbe 6d51 94be
000003f0: 4681 8fbe 7af4 393e a1d8 c53d 218e 4ebe
-0.20258759 -0.38847104 -0.058749344 0.11625326 -0.32913923 0.14500861 -0.3264246 -0.4250998
0.112276234 -0.16913436 -0.14035015 0.1610826 0.059688106 0.077427186 -0.448418 -0.07554461
-0.27092308 -0.36822113 -0.16439739 -0.05268595 -0.92245764 -0.16865422 0.012206135 -0.3266944
0.020060498 0.010159892 -0.3428586 -0.5020015 -0.45771417 0.27871612 -0.54945046 0.05214527
0.12958594 -0.35225305 0.2551382 -0.43557844 -0.1367705 -0.24745944 -0.092764966 -0.42743018
-0.5588361 -0.72995013 -0.06374493 -0.1539977 -0.42462447 -0.13379775 0.099780746 -0.23391648
0.088177465 -0.27472 -0.32173663 -0.39452738 -0.031048305 -0.40108836 -0.31187442 -0.30777338
-0.60139877 -0.7560269 -0.12393606 0.06858109 -0.53673756 -0.14793138 -0.27873704 -0.14502355
-0.18193628 -0.07919337 -0.015317597 -0.37962592 -0.0515557 -0.1239502 -0.30997762 -0.08061547
-0.21969675 -0.15142749 -0.5520163 -0.19056599 -0.19350047 -0.358733 -0.35140878 -0.59506446
-0.42146888 0.0856895 -0.12196057 -0.06389856 -0.23077914 -0.07383126 -0.42561513 -0.18598294
-0.19244936 -0.43129513 -0.45158938 -0.044687603 -0.13904122 -0.38339162 -0.21341695 -0.7889353
-0.6212155 -0.15218079 -0.243648 -0.102249116 -0.05273878 -0.71446025 -0.19842325 -0.728689
-0.10108836 -0.485176 -0.7055647 -0.45674974 -0.13728645 -0.2139694 -0.20019639 -0.3035338
-0.114159465 -0.60217667 -0.12671807 -0.4471855 -0.6979242 -0.31862813 -0.78665847 -0.16851896
-0.25086713 -0.18423125 -0.5618979 -0.24933119 -0.2736281 -0.9272993 -0.30593753 -0.5165207
-0.53659505 -0.6853565 -0.6519614 -0.6208987 -0.11061403 0.06462202 -0.51674455 -0.97905886
-0.16688673 -0.8819403 -0.33008522 -0.11187122 -0.22580214 -0.63891834 -0.27954078 -0.13515238
-0.0049174293 -0.22335054 -0.50131035 -0.42528248 -0.5329345 -0.32002237 -0.35441712 -0.6178519
-0.51574355 -0.7897046 -0.48875597 -0.6523437 -0.51116794 -0.14540322 -0.4262976 -0.15707032
-0.27266914 0.033386063 -0.6638904 -0.09773336 -0.1798859 -0.25366896 -0.53832704 -0.36268732
-0.50288326 -0.22158344 -0.22981232 -0.21461965 -0.31951672 -0.08944095 -0.79871505 -0.14816174
-0.6122275 -0.28236288 -0.4475622 -0.4815116 -0.22798714 -0.7627107 -0.33029327 -0.14667755
-0.4359953 -0.32105514 0.034775686 -0.115638725 -0.73103136 -0.48235852 -0.5590345 -0.79726005
-1.110743 -0.34878626 -0.5794507 -0.7280927 -1.083962 -0.1847097 -0.73028415 -0.21697797
-0.0780187 -0.05043028 0.36773983 0.2868156 0.2537127 -0.28844032 -0.021879327 -0.05786461
-0.07332937 0.25016877 -0.10642061 0.30050725 -0.4281943 -0.15760764 -0.30864698 0.19400454
-0.19452342 -0.3556548 0.1266757 0.523703 0.1313835 0.008057042 0.037884966 0.4054078
0.21009387 -0.0628735 0.19546539 -0.029280249 0.25870168 -0.17955898 0.16011132 -0.08060927
0.26623783 0.3447135 -0.037488453 -0.27688706 0.0039012907 0.21219125 -0.17730416 0.016406786
0.18478066 0.0051257303 -0.17434148 -0.40752882 -0.14200872 -0.081076644 -0.18606012 -0.28023627
0.30966154 -0.30207497 -0.15603408 -0.28968373 -0.28028315 0.18159667 0.09660459 -0.20171405

bias_hh_l0 f4 [300]
00000000: 5e5b 5fbe cceb e4be 31d5 34be dd0e 5e3e
00000010: c51e adbe 9f00 833e 1640 e5be a7a3 b3be
00000020: 1e55 633e 234a 46be f237 3ebd 8877 e73d
00000030: 5e0b c8bd 916b b8bc 6f76 c0be c7a6 ad3c
00000040: 5e40 8bbe 9b01 b1be 0377 90be fb6c a1bd
00000050: 1daf 86bf 4270 c7bd 48ad af3c 6fb4 debe
00000060: a762 23bb e572 ed3d 9810 8dbe 4377 fcbe
00000070: 5d8a f6be 9a93 a53e cf47 fabe 2a9a 633d
00000080: f56a 203e 272c a2be 2ac2 7e3e 97b7 10bf
00000090: be73 4abe dd99 91be 46df 94bd 97b1 93be
000000a0: abe9 0bbf f136 0bbf 3c6c 8ebd b26b d5bc
000000b0: 64d8 94be 4270 54be 9d8e d63d 00b4 56be
000000c0: d573 95bd 9421 92be ee42 d2be 9cfa b8be
000000d0: 8a7c 3abd 8398 cdbe 0d18 94be 936c f4be
000000e0: 40be fcbe 36c9 44bf a217 6dbd 5f5e ba3d
000000f0: 550d efbe 82d5 51be 4eaf 95be d7ee 3d3c
00000100: b79a 31be a36c aa3c d6d4 d6bd 954b 70be
00000110: 7bb2 133c c634 15be 565a 77be 791a 8abd
00000120: b5ec 99be 7944 2ebe 8a36 e8be 5c4c 52be
00000130: 4e61 3abe bbf6 d9be c199 cbbe 70db f7be
00000140: c6ce edbe 2e84 4a3e dd81 ccbd 64b0 d7bc
00000150: f9dc 32be 9d8e b33c 1fab febe 483e 92be
00000160: 0928 2bbe b35c d7be e4db babe 3ec4 e5bd
00000170: 445a 67be 4db7 c8be 2a2d 6ebd 4087 26bf
00000180: fb92 08bf dca4 75bd 2684 52be 8204 26be
00000190: 73d1 11be 7766 3fbf 7092 55be 8a02 12bf
000001a0: 87ff 53bd 92f2 0fbf 7664 14bf adf7 f5be
000001b0: 0eda 013d 6be6 22be 64ea 92be 5727 94be
000001c0: d517 88bd 423a 18bf 45f0 84bd cc1b e2be
000001d0: 6af0 31bf 0d7b edbe ee7c 43bf f334 43be
000001e0: 3e7d 25be 8698 16be 5291 11bf a564 10be
000001f0: acca e8be f969 4bbf 08bd 9dbe 2096 0cbf
00000200: f346 07bf 814a 36bf a3d0 2abf f451 f3be
00000210: e8e2 51be 063b 7cbd 6e7c 17bf 56a5 75bf
00000220: 68a5 7cbe 6aea 63bf ccdb cabe 01b4 943c
00000230: 5911 b7bd c270 46bf a0e9 82be 2e14 b6bd
00000240: 92e6 5cbc e4f0 e2bd d2d8 01bf 1ecc ebbe
00000250: 7d52 b3be 76e7 afbe d0cb 95be 550b 1abf
00000260: 5be6 0fbf ca9f 46bf 1a3e eabe 1e7e 46bf
00000270: 669f 1abf 71b4 7ebe 30d0 c7be d64a 37be
00000280: 641b a3be b340 6d3c 9a54 35bf b627 ecbd
00000290: e543 2fbe 1335 9bbe d239 e6be 9b35 b4be
000002a0: c9c5 0cbf edc5 48be 918e d2bd ade8 d4bd
000002b0: 56b1 34be 42f7 c5bd 10e6 43bf 0c7a 5ebe
000002c0: 743a 12bf b8c0 a8be 8c5e bcbe ceb5 fabe
000002d0: 4768 0abe c9b3 31bf bd67 debe 3f94 2fbe
000002e0: 265e eebe d44d 81be cdfa bfbd 9c66 86bd
000002f0: 6343 20bf f8ec febe fdb6 06bf b199 32bf
00000300: 6362 8cbf b95f d9be c136 02bf e569 34bf
00000310: adca 89bf a01a 61be 065c 43bf d700 8ebe
00000320: 0d1e 813e 5aee 69bc f565 5d3e af7e a1bb
00000330: b7a5 a43d db2a 46be 4ad3 99be 3673 0dbc
00000340: 1b1f 273e ba06 dd3e 939c bf3e 59d1 7b3e
00000350: 91bf a4be 411f 3abe 3286 d43c 54d2 903d
00000360: 748d 6bbe 0110 dabd 515b a8be c12e ca3e
00000370: f4d6 d1bc 1e84 7ebd a67a 123c 82c8 743e
00000380: 7b41 083f 471f c0be e677 973e 1659 f73e
00000390: 259a 43bc 8f3e f6bd 151e a43e adec 8a3e
000003a0: 713e a93e 62c0 d63e 7bbe 00bf a57f 36bd
000003b0: c287 23be 03c6 633d d967 09be 4ce0 f8be
000003c0: ccc5 35be de53 d33e 77c2 d4bd ae6a e0be
000003d0: 9b3b db3d 387c 0e3e 733b e0bd b7fc 80bc
000003e0: d990 ea3c 664d aebe 676d 2b3d 4b2c 8dbe
000003f0: 9bd0 2cbe afbe 0b3e 08ef 97bc 59fa 83bc
-0.21812198 -0.4471115 -0.17659451 0.21685357 -0.33812538 0.2558641 -0.44775456 -0.35085794
0.22200438 -0.19364218 -0.046440072 0.11302096 -0.09767793 -0.02251223 -0.37590358 0.02119769
-0.27197546 -0.34571537 -0.282158 -0.078821145 -1.052219 -0.09738208 0.021444932 -0.43497035
-0.0024930628 0.1159418 -0.27551723 -0.4930974 -0.48152438 0.32339174 -0.4888291 0.055566944
0.15665801 -0.3167431 0.24878755 -0.56530136 -0.19770715 -0.284377 -0.072691485 -0.28846428
-0.54653424 -0.5438071 -0.06954238 -0.02605233 -0.29071343 -0.20745948 0.1047642 -0.20967102
-0.07297484 -0.28541243 -0.41066688 -0.361287 -0.045528926 -0.4015542 -0.289246 -0.47739086
-0.493639 -0.76869524 -0.057883866 0.09100031 -0.4668986 -0.20491603 -0.2923531 0.011592588
-0.17344175 0.020803755 -0.10489814 -0.23466332 0.009014721 -0.14570913 -0.24155554 -0.067433305
-0.30063406 -0.17018308 -0.4535411 -0.20536941 -0.18201181 -0.42571053 -0.39765742 -0.48409605
-0.46446818 0.19776985 -0.09985707 -0.026329227 -0.17467107 0.02191859 -0.4973993 -0.28563142
-0.16714491 -0.4206291 -0.36495888 -0.11219071 -0.22593027 -0.39202347 -0.05814854 -0.65050125
-0.53349274 -0.059971675 -0.20558223 -0.16212657 -0.14240055 -0.74765724 -0.20856643 -0.57035124
-0.05175736 -0.5622951 -0.5796579 -0.48040524 0.031702094 -0.1590821 -0.2869445 -0.28936264
-0.066451706 -0.59463894 -0.0649114 -0.44161832 -0.6950747 -0.46382943 -0.763625 -0.19063167
-0.16161057 -0.1470662 -0.56862366 -0.14100893 -0.45467126 -0.79458576 -0.30808282 -0.5491657
-0.52842635 -0.71207434 -0.66724604 -0.47523463 -0.20496714 -0.061579727 -0.5917424 -0.9595541
-0.24672472 -0.8902956 -0.39620817 0.018152239 -0.08938856 -0.77515805 -0.25568867 -0.08890568
-0.013482707 -0.110811025 -0.50721467 -0.46054167 -0.3502387 -0.34356278 -0.2925706 -0.6017354
-0.5621087 -0.7758757 -0.45750505 -0.7753619 -0.6039947 -0.2487352 -0.39026022 -0.17899641
-0.31856835 0.0144807575 -0.70832217 -0.11531012 -0.17115743 -0.3031393 -0.44965988 -0.35197148
-0.54989296 -0.19606753 -0.10281099 -0.10395942 -0.17645773 -0.09666301 -0.7652292 -0.21726245
-0.5712044 -0.32959533 -0.36790884 -0.4896683 -0.13516341 -0.69414955 -0.4343852 -0.17146395
-0.46556205 -0.2525469 -0.09374008 -0.0656254 -0.62602824 -0.49790168 -0.5262297 -0.69765764
-1.0967525 -0.42455843 -0.508648 -0.7047408 -1.0764977 -0.21982813 -0.7631229 -0.27735016
0.2521824 -0.014278019 0.21620925 -0.004928432 0.0803942 -0.19352286 -0.30044013 -0.008633425
0.1632046 0.43169194 0.37424144 0.24591579 -0.32177404 -0.18175985 0.025942896 0.07071367
-0.23003179 -0.10647584 -0.3288217 0.39488795 -0.025615193 -0.062137716 0.0089403745 0.23904613
0.53224915 -0.37523863 0.29583663 0.48310155 -0.011938606 -0.12023651 0.320542 0.27133694
0.33055452 0.4194365 -0.5029065 -0.044555325 -0.15969756 0.05560876 -0.13418521 -0.48608625
-0.17751235 0.41274923 -0.10388654 -0.4383139 0.10704728 0.13914573 -0.10948839 -0.015745504
0.028633522 -0.34043425 0.04185238 -0.27572855 -0.16876452 0.13646959 -0.018546596 -0.016110586

weight_ih_l1 f4 [300, 100]
00000000: f716 f63d f53d 22bd b292 843e a965 853e
00000010: a161 d23e 886c 0dbe 2a40 e33f 9de8 ef3e
00000020: 549c 753c 02de 04be 1628 e33e 1924 f53e
00000030: 4cb4 183f 1407 b2be f8cd ce3e facf a1be
00000040: a068 7dbd d742 103e ae6f a23d 62ad a6be
00000050: 7748 ca3d 413a 7e3f 0549 223f 857d 8c3e
00000060: 9968 eabe 77e7 2ebf f421 0fbe cb4c 23bf
00000070: 8644 443c 6ba6 1e3e e8e5 0dbf 64da b6be
00000080: 391a 16bf 3d7f 74be d5d6 f4be d5d6 4d3d
00000090: 51c8 c2be 8ce4 e4be aeb0 0b3e cc9e fa3e
000000a0: 5a3a a2be e3e1 8a3e 522a db3d 6b8f d9ba
000000b0: 1927 fc3d 1972 143e 7a23 f4be d5d8 1dbe
000000c0: d752 3cbd 0715 cbbd 25f0 a3be 4c3d 783f
000000d0: 257b c13d d7de 693d 657e dd3d 12cb cb3e
000000e0: c210 553e 740a 223b 5219 f93e 71cc 2dbe
000000f0: 0e35 06bf 6a17 0abe 7bb6 05bf e08f b2be
00000100: 6192 01bf 06e2 363f f286 7dbe 9113 c9be
00000110: 9421 b13e 7189 22bf ba0e 2f3f ec6f 05be
00000120: 2fea e4be 85c7 883e b42d d73c eec9 b33e
00000130: b878 8fbe 12c0 acbe 64e1 653c d28f 553f
00000140: 3863 11bf fe6b 123f 5710 ba3e 1dad f6bd
00000150: 71bc bbbe b6f1 fb3d 1a53 34bb f21b dbbe
00000160: 75ef 143d ac1f 493d 3c4f 0c3f 2b05 c63c
00000170: 3395 4f3f 6a0c 40bf c717 9f3e 8d2d f23e
00000180: 9c00 8dbc be67 a53e 0e8d bd3e 3f4e 4c3f
00000190: ae6c e53d 3a44 b6be 1549 b43c 2045 a93f
000001a0: 1c42 003f 2b06 a3bc ec29 1cbe 6e1b 9dbd
000001b0: 5d15 d13e de84 adbe f8f8 c6be 632d 323f
000001c0: 9293 383e e3ab a23e 9616 463e b59a 10be
000001d0: 424f a53e 9735 78be 5c3d c2bc 0823 d6bd
000001e0: 0641 1fbf f062 193f c833 9fbe ad8b 2abf
000001f0: 7dea f93e bb4c cfbc e64b 033f 2c55 943e
00000200: 7d5f 92be 9e6b 093f 27a0 223e 7675 0abe
00000210: d958 b4be d2d6 ffbe c1ef 053e 598d c93d
00000220: bef9 fc3c e910 633e c565 c3bd c4d5 503e
00000230: 1bf7 123f 0787 a3bb fff7 49be 2f2a 183f
00000240: 9da0 1e3f 8afb 5b3e 1a28 4b3f 62fb 1a3f
00000250: 2a74 8abd 4953 1d3f 13d3 663e bcb9 44bf
00000260: 88e0 de3e 81f9 c4be d23b 1b3f 8097 a2be
00000270: 8ca2 b4be e4d6 053f a502 56bc 2fa2 79bd
00000280: 7c85 97bd 1c93 4a3d a511 3e3c 74be 953e
00000290: be72 64be 3ed7 d7bd 4cdc 0c3f c5d1 a0be
000002a0: 8052 3b3f f96f 683e e699 1cbf 1e84 863f
000002b0: eef4 d4be 66d3 7bbe d93b debe 3fa8 94be
000002c0: a42b 13be 2d2c 14bf f7f2 e33e eced f73e
000002d0: fb79 1dbe 039c 03be e2cc 06bc 6514 5cbe
000002e0: fad7 ac3d 2332 803e ef4b f7be 8441 083d
000002f0: a3ae 2a3e 397d 023f 6f9d 8ebc 4227 c1be
00000300: 6a14 7a3e 696f 1c3e 5781 a0be 2c7f a83d
00000310: 8f7c 963e 08b4 313e 2471 23be 1e51 eebd
00000320: bd5a 73bd 86ce 0bbe 96af 33be 8570 ed3e
00000330: 22e3 a03e 6c81 b83e 9a8c 633e 8cad ae3e
00000340: f7a0 a5be a603 c33d 5848 2d3f e625 c9be
00000350: 911a 7e3e 0243 8f3e b5ba a23e 7fe3 aebc
00000360: 3194 253f 6115 913e f9df 10bf de1f 143f
00000370: 5cf2 4d3f bcc5 abbe 5e4b a4bf fd64 d93d
00000380: ab88 21bf 9137 b23e ea44 51be 3f5c 9bbd
00000390: 9161 0a3f 31ca ac3e afec 013f 5a33 ba3d
000003a0: d370 4f3e f6cc 2bbf 4592 603f 09cc 95bd
000003b0: 64ab 6c3f 8fb4 98bf 632d b23e cc80 ab3e
000003c0: fca8 c63e d09b 443f 4e2c 433e 700e fc3e
000003d0: 5503 84bd 06a0 71bf 5982 fb3e b98e 72be
000003e0: 50f5 293f edba 0d3c c826 a73e b6b9 9ebe
000003f0: 0090 e53e 6516 c03e af8c 2e3e 9b09 1c3f
0.12016099 -0.039609868 0.2589317 0.26054123 0.4109011 -0.13810933 1.7753956 0.46857157
0.014990885 -0.12975314 0.4436652 0.47879103 0.5965011 -0.34771025 0.40391517 -0.31603986
-0.061867356 0.14087997 0.079314575 -0.32554156 0.09877103 0.9930764 0.6339267 0.27439514
-0.45782927 -0.6832194 -0.13977796 -0.6378905 0.011979228 0.15493171 -0.55428934 -0.35713494
-0.5863376 -0.23876663 -0.47820154 0.050253708 -0.38043454 -0.44705617 0.13641617 0.48949277
-0.31685144 0.27125463 0.10701431 -0.0016598528 0.12312145 0.1449665 -0.47683316 -0.15414746
-0.04597744 -0.0991612 -0.32019153 0.9696853 0.09447316 0.057097282 0.108151235 0.39803368
0.20807174 0.0024725469 0.4865213 -0.1697252 -0.52424705 -0.13485494 -0.5223157 -0.34875393
-0.5061398 0.71438634 -0.24758509 -0.3927274 0.3459593 -0.6349097 0.68381846 -0.13030976
-0.44709918 0.2671472 0.02626691 0.35114998 -0.2802179 -0.33740288 0.014030788 0.8342258
-0.5679202 0.57196033 0.3634059 -0.120447375 -0.36667207 0.12301962 -0.0027515353 -0.42794758
0.036361177 0.04910247 0.548084 0.024172386 0.81087035 -0.7501894 0.31072828 0.47300377
-0.017212205 0.32305712 0.3702168 0.79806894 0.1120237 -0.35598928 0.022007504 1.322422
0.50100875 -0.019900402 -0.15250367 -0.076712474 0.4083661 -0.33890432 -0.38861823 0.69600505
0.18025044 0.31771764 0.19344553 -0.14121516 0.3228703 -0.24239193 -0.023710899 -0.104559004
-0.6220859 0.5991659 -0.31094193 -0.6661938 0.48811713 -0.025305143 0.51287687 0.2897123
-0.28588477 0.53679836 0.15881406 -0.1352137 -0.35224035 -0.49968582 0.1307974 0.09841413
0.030880805 0.2217442 -0.095408954 0.20394045 0.57408303 -0.0049904617 -0.19723509 0.5943937
0.61963826 0.21482673 0.79358065 0.6053983 -0.06760438 0.6145521 0.22541456 -0.7684591
0.4353068 -0.38471606 0.60638154 -0.3175621 -0.35280263 0.5228102 -0.013062154 -0.060945686
-0.07398507 0.0494567 0.0116008865 0.29246867 -0.22309396 -0.10539101 0.55023646 -0.3141004
0.7317276 0.22698964 -0.6117233 1.0509069 -0.41593117 -0.24592361 -0.43405035 -0.29034612
-0.14372116 -0.57879907 0.44521305 0.48423707 -0.15378563 -0.12852482 -0.008227559 -0.21492155
0.08439632 0.2503825 -0.4830012 0.033265606 0.16668181 0.50972325 -0.017409055 -0.37725264
0.2442185 0.15276875 -0.31348678 0.08227381 0.29391906 0.17353833 -0.15961128 -0.116365656
-0.059412707 -0.13653001 -0.1754745 0.46374908 0.3142329 0.3603624 0.22221604 0.3411678
-0.3234937 0.0952218 0.6768851 -0.39286727 0.24814822 0.2798081 0.3178307 -0.021348713
0.6467925 0.28336623 -0.56591755 0.57861125 0.80447936 -0.33549297 -1.28355 0.10614965
-0.63099164 0.3480802 -0.20436445 -0.07585954 0.54055125 0.3374801 0.50751776 0.09091826
0.20257883 -0.6710962 0.8772319 -0.07314307 0.9244902 -1.1930102 0.34800252 0.33496702
0.388008 0.7680025 0.1905987 0.49229765 -0.06445948 -0.943848 0.49122885 -0.23687257
0.6638994 0.008650524 0.32646775 -0.3100106 0.44836426 0.37517086 0.17045854 0.60952157

weight_hh_l1 f4 [300, 100]
00000000: 2121 02bf b777 813e 175e c63d 4e2a b83e
00000010: 3680 7cbc b2f1 debe 646d 313e 5c58 0b3f
00000020: 8394 013f e4a4 90bf 3513 ffbe f7d5 02bf
00000030: 1e84 04be 576c cfbe e94d d7be cea7 953e
00000040: b2ce aabb c605 1a3c 7adb c93e e8e2 56be
00000050: 1132 aebd 3d16 3bbe 0d1c 453f 5e02 febd
00000060: 9b5d 043f 7269 54be 8655 d23d ec95 3a3d
00000070: bbe5 8e3b 63e6 3c3e e8ae 293e eac9 633e
00000080: 9746 d7be 00f5 a2be 671f 923f b325 923e
00000090: a3ff 96be dd5b 1b3f d8ee 29be 7878 173e
000000a0: e5e7 073e ef16 8dbe b79e 173e 2327 703e
000000b0: 45a1 573f 510e 3cbf a3f4 0bbf 9109 cf3e
000000c0: 38c1 10bf a8a1 03bf 7989 073e a169 b13d
000000d0: 1734 d33d 5677 b0be e74f cd3d 79ec 7dbd
000000e0: 05ab 7bbe b430 9fbe 40f2 233f 6fa3 eb3e
000000f0: b2d0 883e 56dc 083e cd35 243f effa 1c3e
00000100: f21c 053f 0d88 fabe 99c9 a23e 8dbe 063f
00000110: 246c aebe 3f9f cdbe 0a8b 63bd 6ab2 183e
00000120: 7cc6 08bf c7dd e73b 00c0 133f a389 e7be
00000130: 27fa 56bf 231f 9c3d b14d d83e c5c3 2bbf
00000140: 6f50 563d c715 11bd c13a 4fbe 5c33 833d
00000150: 8885 303e 946f 06bf e18f 24bf 2136 873c
00000160: 06f2 d83d 68d8 3abf 4cd4 7abd d1a7 883c
00000170: 9186 3f3e 3ca0 39bb 837c ce3e b361 2bbe
00000180: 6ab7 06bf 69a0 963f 6d6b 753e 69c1 4c3e
00000190: 8aee 923e c324 13bf d6e6 1cbe a552 cd3e
000001a0: 2e3e 9e3e ff18 a93e 59a5 503e bb7e 57be
000001b0: 9e67 0f3f c838 143f bebe 923d 6d13 e4bd
000001c0: 89b8 40bd 18c3 96bd ad77 de3e c879 f0bb
000001d0: 8112 6dbe 5685 ec3e 0f6c 7d3e ec82 ffbe
000001e0: fe18 95be aa44 993d 1cbc ecbe 0364 1f3f
000001f0: 5439 433e c945 f13d 93e8 013e 4ea4 ca3e
00000200: a098 8d3c 0241 ccbc 7be5 0c3f 84aa 88bf
00000210: ee45 fb3e c7c5 d3be ed22 77be ea6e 723e
00000220: 223f 51be 87c9 1b3f 55a3 d4bd cf36 3b3c
00000230: aa7f 103e d8a3 353d acb6 f4be 7ca8 4f3f
00000240: 3cf6 fd3e c347 d7be a536 38be 5b98 103f
00000250: b7e1 b13e 74ec 863d ab80 c5be 5ef5 253f
00000260: dc8b 3a3e 40c5 d53d 375d babc fe7c e13e
00000270: 2e6a 57bf 24d5 1bbe 34bf 8fbf d63e db3d
00000280: 0009 4a3e 35af cd3e e803 23bd 27b5 00bf
00000290: 1937 9f3d fdf5 b2bb 0dce fd3e d531 86be
000002a0: 9395 653e c728 aebe b26c 57be 0dbe 2e3e
000002b0: 2a3d 8e3d 4133 28bf 55e4 a93c 7dce 1f3f
000002c0: 84f2 ff3e 76fc b93d 560a 3c3e ff62 7bbd
000002d0: e6f2 733e 0e17 673e 45b0 68bc 09ed 243f
000002e0: ea51 3a3d 2c9a 253e 902c 1abf b507 393f
000002f0: d9ff 7e3d a50d 12bf 5ff5 f8bf 9f00 9cbe
00000300: 6965 013e cabe 46be 1f23 293e dbc7 bbbd
00000310: 55fb 363f 87f5 283f c2bc afbe 59c6 123f
00000320: 4166 fdbd 0814 acbd d812 babe 4767 eb3c
00000330: 6f35 18bf 6e5a aabc f928 183f b8c3 e83e
00000340: f96f 0d3f 0f54 a7bf a5be 42bf e96f de3e
00000350: 54c6 e4bd cd6c 1f3e fd16 bd3e 7214 19bf
00000360: 2295 03be ebad 3b3e 1b32 1d3e 2dbb 263f
00000370: 38da 97be 71f1 9e3d 97d8 843e a2f2 9ebe
00000380: b2fe a1bd 11f9 833c ffda 553d 172f 4f3f
00000390: 1764 4a3e 4e9a 59be bbff 833d 95e2 26be
000003a0: 5a18 113f 3849 8bbf 2662 3cbe bfcd bbbd
000003b0: 985c 99bd c7ec 543f 08c0 9a3e 3985 a03d
000003c0: 271a 50bc 0935 2fbe 5ab5 dabe 3cd5 6d3c
000003d0: 27d9 8d3f dd2c 30bf 49ea 00bf 9430 963e
000003e0: bec1 8bbe b3c7 c33e b727 80bf d9eb 353e
000003f0: 87aa 903d 1e9d 53be 546a a1be f5f4 53be
-0.508318 0.25286648 0.09685915 0.35969776 -0.015411427 -0.43543774 0.17326885 0.544317
0.50617236 -1.1300321 -0.4981934 -0.51107734 -0.12941024 -0.40512344 -0.42051628 0.29229587
-0.0052126283 0.009400791 0.3942526 -0.20984995 -0.08505643 -0.18270202 0.7699593 -0.12402795
0.5170533 -0.20743349 0.102702186 0.045553133 0.004360882 0.1844726 0.16570628 0.22244993
-0.42046043 -0.31827545 1.1415833 0.28544387 -0.2949191 0.6068705 -0.16595018 0.14792049
0.13272054 -0.2755656 0.14806639 0.2345243 0.8423045 -0.73459345 -0.5467016 0.40436986
-0.5654483 -0.5141854 0.13236035 0.08662725 0.1031267 -0.34466046 0.10025006 -0.061993096
-0.24576958 -0.31091845 0.6404152 0.46023127 0.26721722 0.13365301 0.64144593 0.15330099
0.5199729 -0.48931924 0.31794432 0.5263451 -0.3406688 -0.40160558 -0.05555252 0.1491181
-0.53427863 0.0070759985 0.57714844 -0.45222196 -0.8397545 0.07623126 0.42246774 -0.67095596
0.0523228 -0.03542116 -0.20237257 0.064062804 0.17238438 -0.52514005 -0.6428204 0.016505303
0.10593037 -0.7298646 -0.06123762 0.016681584 0.18703677 -0.0028324267 0.4032937 -0.16736488
-0.5262362 1.1767703 0.23966761 0.19995655 0.28697616 -0.5747797 -0.15322432 0.40102115
0.30906814 0.33026883 0.20375575 -0.21044438 0.5601748 0.5789914 0.071652874 -0.11136518
-0.047050986 -0.0736143 0.4345068 -0.007338736 -0.2315159 0.46195477 0.24748252 -0.49904573
-0.2912063 0.074838 -0.46237266 0.6226198 0.19064838 0.117808886 0.12686376 0.3957848
0.017284691 -0.024933342 0.5503766 -1.0677037 0.4907679 -0.4136183 -0.24134417 0.23675123
-0.2043424 0.6085438 -0.103827156 0.011426642 0.141112 0.044345707 -0.47795618 0.8111646
0.49601924 -0.42046937 -0.17989595 0.56482476 0.3474252 0.065880686 -0.38574728 0.64827526
0.18217415 0.10438013 -0.022749526 0.44040674 -0.8414639 -0.15218025 -1.1230226 0.107053444
0.19729996 0.40172735 -0.039798647 -0.50276417 0.07774181 -0.005461453 0.49571267 -0.26209894
0.2242034 -0.34015486 -0.21037558 0.17064686 0.0694526 -0.6570321 0.02073876 0.6242445
0.49989712 0.09081356 0.18363318 -0.061373707 0.23823127 0.22567388 -0.014202182 0.64424187
0.045488276 0.16172093 -0.60224247 0.72277385 0.062255714 -0.5705207 -1.9449881 -0.30469224
0.12636341 -0.19408718 0.16517304 -0.09168979 0.7147725 0.65999645 -0.34323698 0.57333905
-0.12373019 -0.08402258 -0.36342502 0.02873577 -0.59456533 -0.020795073 0.5943752 0.45461822
0.5524898 -1.3072528 -0.7607215 0.43444756 -0.111706406 0.15568848 0.369316 -0.5979682
-0.12849858 0.18328063 0.15351145 0.6512936 -0.29658675 0.07760895 0.25946495 -0.3104449
-0.079099074 0.016109975 0.052210804 0.8093123 0.19764744 -0.21250269 0.06445261 -0.16297372
0.5667778 -1.088172 -0.18396816 -0.09170102 -0.07488364 0.83173794 0.30224633 0.0783791
-0.012701548 -0.17110075 -0.42716485 0.014516171 1.1081895 -0.68818456 -0.5035749 0.29333937
-0.2729625 0.38238296 -1.001212 0.1776575 0.070637755 -0.20665404 -0.31526434 -0.20698912

bias_ih_l1 f4 [300]
00000000: 7277 05be 3981 98be d4f4 86be b0be 20be
00000010: c32c 42be e8d0 06be 4849 57be 7726 8b3e
00000020: d460 2cbe bb0c 70be 222d a8be d9d4 363d
00000030: f10d 35be 74d0 8dbe d8d7 2dbe 8cbd 3fbd
00000040: 0fca 42be b673 a93d b4b9 163e d4f0 833d
00000050: 4ee5 503e 9475 093e 8928 dc3d 76b5 4bbe
00000060: 76b6 45be 58b6 edbe b2b3 9cbe 81ae c63d
00000070: f317 adbd 3486 d8bc edd3 833e 7c6c c73e
00000080: d119 72bd 439b 9fbc f980 f6be a81b c5bc
00000090: 4ebf 17be 69e2 eabd bae3 e53e a107 643c
000000a0: b7e7 1dbe f9b9 c7be 5832 9e3d f7e2 a5bd
000000b0: b882 1e3e 8139 da3c 520a a5be 2749 7abe
000000c0: 875a 423d f253 96be ce91 a13e 5a93 2bbe
000000d0: 99db 39bd e493 e8be b906 b7bc 8003 e33d
000000e0: 9b42 4fbe c824 8fbe 85a7 f6bc 71bc a9bd
000000f0: 1331 f73d bab9 91be 0926 2dbe 919b 9dbd
00000100: 5875 193d 4e47 893d 0f7c 8cbd 5eb4 9fbe
00000110: 1c95 acbd d913 37be 631a 473e 2f5c bdbe
00000120: 4fdc 74be 9672 81be de81 dbbe 9787 88be
00000130: 2e5e 2cbe 14c0 3c3e 17e2 4a3e 9c37 fcbd
00000140: 6ab4 7ebe c11a 843d 9dca f83d 06dd 9bbe
00000150: 7fcd eebd 7f94 6fbe 605b 293d ab5e 07bf
00000160: edba 79be d3fc 72be 5c4d 70be 83f2 71be
00000170: 6f81 a5bd c6b4 a7bd 1bb3 22bd b22f a7bd
00000180: 06f9 59bd 96b2 dbbe bc83 ffbe f361 36bc
00000190: 36d0 e1be 2de5 11bf c945 c6be 0fde 0dbf
000001a0: ba8a c3be 7a12 4fbe 3edf 9bbe a162 b3be
000001b0: f357 0bbf a3f1 d0be 52de dabe 953b 71be
000001c0: 27f3 09bf 6660 1fbf ac82 4abf 537b 38bf
000001d0: 64c4 15be ecc8 08bf 3055 2fbf ef68 96be
000001e0: c110 70be 1723 55bf 6bf7 d4bd 1a7c e8be
000001f0: c9be 44bf f444 12bf 971f 40bf 06cd bfbd
00000200: af2a 6ebd 8698 22bf 9ffa 8cbe c2f2 d03d
00000210: 5a28 e1be 421e 1ebf 0008 bebf e979 2cbd
00000220: 4dd6 afbe a170 58bf 9aa3 f1be 6178 203f
00000230: 8c1e 31bf fbc9 57bf f146 02bf 29bb a0be
00000240: e407 9c3b f09d 07bf d5f2 55bd c8c9 0fbf
00000250: 535e ebbe cbe7 afbe e1ee 08bf c7be 723a
00000260: 4f29 0ebe 3d67 fdbe 3783 03bf d312 af3c
00000270: 5b08 cebe 5cda 24bf 2439 f9bc 22a4 dcbc
00000280: 484d 40bf a277 f1be bec7 84bf 2622 2fbf
00000290: c07b 8dbe 396b d9be 546b a8be 086d 81bd
000002a0: 47b3 243d 1dd5 1dbd 06ab 92be 6ee1 07bf
000002b0: b48a fc3d e7cf c5bd 1441 90bd 711c fbbe
000002c0: eeff f2bd d048 7a3f 34fc 04bf 902d bcbe
000002d0: f87f 05bf 231f a0be ddf3 f3be 5359 f7bd
000002e0: d8ed f1be d231 6cbe 498c 3f3e cc20 2ebf
000002f0: 92ff 18bf 54f9 3bbf 3f0f c13e 2ce3 89be
00000300: 6d56 30be b322 a7be 5be1 093f b5a5 01bf
00000310: 33d5 333d 3555 8abf 557b f1be a391 10bf
00000320: 2dfc cabd 830a 0abe 2001 4bbe 51f4 0abc
00000330: efe0 f9bd 2c00 c4bd d09c 23be 7411 acbe
00000340: 96b2 71bd 9e2d de3e 642e 1bbd 881c e4be
00000350: 637c 463d 813e 60be 4813 88bd 338c afbd
00000360: 51ab 11bd 3724 c6be b930 e33d 70cb af3e
00000370: 8542 f03d 3b51 97bc a6c2 a7be 8336 29be
00000380: 7d06 e53d 91bf 673d fac0 f9be 201d 1b3d
00000390: b30a 813a ac91 183e 43ec 913e 061f d8be
000003a0: 8147 bfbe 7846 e93e 8908 1a3e 4002 c3be
000003b0: 47b8 4b3e 4b71 ae3c 23b7 983e e48c 153e
000003c0: a769 4ebd 73c2 773e e7be 3e3e 6e9d 473e
000003d0: 4300 a8be b15f d03d 80f5 7b3e 77f3 1a3e
000003e0: ca8e 673d c523 a2bd 381c 853e 1d0f aebd
000003f0: 40f2 12be f8ab 793d 3fd7 c93d ca84 893e
-0.13033846 -0.2978609 -0.26358664 -0.15697742 -0.18962388 -0.13165629 -0.21024048 0.27177784
-0.16833812 -0.23442356 -0.32846934 0.04463658 -0.176811 -0.276981 -0.16976869 -0.046811625
-0.19022392 0.08274023 0.14719278 0.06442419 0.20399973 0.13423759 0.10749919 -0.1989344
-0.19307885 -0.4642818 -0.30605847 0.09701253 -0.084518336 -0.02643118 0.25747624 0.38949955
-0.05910665 -0.019483214 -0.48145273 -0.02406104 -0.1481907 -0.114689656 0.44900304 0.0139178345
-0.15420423 -0.39009073 0.07724446 -0.08099931 0.15479553 0.026638748 -0.32234436 -0.24441968
0.047449615 -0.2936092 0.31556553 -0.16755429 -0.04537544 -0.45425332 -0.022342073 0.11084652
-0.20240252 -0.2795775 -0.030109176 -0.082878955 0.12069907 -0.2846201 -0.1690904 -0.076956876
0.037465423 0.067030534 -0.068596 -0.31192297 -0.08426878 -0.17878665 0.1944366 -0.36984393
-0.23912166 -0.25282735 -0.42872518 -0.26665947 -0.16832802 0.18432647 0.19812809 -0.12315294
-0.2487351 0.064504154 0.121480204 -0.30442065 -0.11660289 -0.2339649 0.041346908 -0.52878827
-0.24387713 -0.23729257 -0.2346701 -0.23627667 -0.08081328 -0.08188777 -0.03972159 -0.08163394
-0.053216003 -0.42909688 -0.49905193 -0.011131751 -0.44104165 -0.5699032 -0.38725117 -0.5541696
-0.38191777 -0.20221892 -0.30443758 -0.35036185 -0.54431075 -0.40809354 -0.42747742 -0.23557885
-0.53886646 -0.6225647 -0.7910564 -0.7206318 -0.14625698 -0.5343158 -0.6848936 -0.29376933
-0.23443891 -0.8325667 -0.10398754 -0.45407182 -0.76853615 -0.57136464 -0.750482 -0.09365277
-0.058146175 -0.6351398 -0.2753496 0.102025524 -0.43976098 -0.6176492 -1.4846191 -0.04210845
-0.34343186 -0.8454686 -0.4719513 0.62683684 -0.69187236 -0.8429257 -0.508895 -0.31392792
0.004761683 -0.5297537 -0.052233536 -0.5616727 -0.459704 -0.34356532 -0.534895 0.00092599954
-0.13882945 -0.49492827 -0.5137209 0.02137128 -0.4024075 -0.6439569 -0.030422755 -0.026933733
-0.7511792 -0.47161585 -1.0373456 -0.6841148 -0.27633476 -0.42464617 -0.32894385 -0.06319624
0.040210035 -0.03853332 -0.28646106 -0.53078353 0.12331143 -0.09658795 -0.07043663 -0.49045137
-0.11865221 0.97767353 -0.5194733 -0.3675351 -0.5214839 -0.31273755 -0.4764699 -0.12077584
-0.47251773 -0.2306588 0.18705858 -0.68018794 -0.5976497 -0.7342732 0.37706944 -0.2693113
-0.17220469 -0.3264366 0.5385949 -0.50643474 0.043904494 -1.0807253 -0.47164407 -0.56472224
-0.0991138 -0.13480572 -0.19824648 -0.008481101 -0.12201106 -0.09570345 -0.15977788 -0.33607066
-0.059008203 0.43394178 -0.03788604 -0.44553018 0.04845847 -0.21898843 -0.066443026 -0.08571663
-0.03556377 -0.38699505 0.110932775 0.34334898 0.117314376 -0.01847135 -0.32765692 -0.16524701
0.11182878 0.056579176 -0.48780042 0.037869573 0.0009845108 0.1489932 0.28500566 -0.4221117
-0.3735924 0.45561576 0.15042318 -0.38087654 0.19894515 0.021294257 0.29827222 0.14604527
-0.050393727 0.2419527 0.18627511 0.19493648 -0.328127 0.10174502 0.2460537 0.15131937
0.05653266 -0.07916979 0.25998092 -0.084989764 -0.14350224 0.060955018 0.09855508 0.26859123
