Models/Shakespeare_RNN.pt (torch_old, 326583 bytes, 15 tensors)

weight f4 [100, 100]
1.0343962 0.6186123 1.1307158 -0.5193422 -0.38551491 0.66458195 0.61106527 1.8072306
-2.195786 0.28008986 2.0834115 0.28734437 -2.0328915 3.1194515 -0.22094806 -0.6626507
1.0031806 0.58249575 -0.2097251 -0.60125333 -1.0659252 0.076426946 -0.6831417 0.25429168
0.72051406 0.8694934 1.3968278 0.13741344 0.99212897 0.4887891 -1.5258298 1.8153445
-0.9605606 -0.8977366 0.4158984 1.4871446 1.0017859 -0.11459097 -0.045456268 -0.7583323
-0.24137698 0.06769739 0.8825251 -0.08585376 -1.3426769 -1.4319719 -0.8413383 2.0309901
-1.1039065 -1.210434 0.1548551 -1.0138813 0.61412305 -1.6487015 -1.7966855 -1.8123282
0.9642606 -1.1066698 -0.08095504 -1.0890934 1.0862414 -1.7507963 0.77571595 -0.30469176
0.81499285 1.275423 -1.2734616 1.4707379 -0.46390498 -3.0145495 -0.2553378 0.3223915
0.33490837 0.6255501 0.21222763 0.7119217 -0.17564502 0.3022005 0.037056666 -0.4284273
0.88778096 -1.0299581 -1.2112513 1.0355073 0.068671845 0.5518311 0.25469428 -0.9070058
-0.05684974 0.764562 0.62164444 -0.10223248 0.7364458 0.2087556 -0.21649486 -0.46039686
-0.18511601 0.6704664 0.13972753 0.85654444 -0.33978716 -0.0083337445 2.0148468 -0.036255084
-0.6495516 1.9564974 -1.0016549 -0.58918685 -1.2405251 -0.80760306 -0.77967095 1.2121398
0.5856627 -0.6128064 -1.2780672 -0.45276117 0.06744122 0.9113203 0.48829675 -0.83462876
0.17113617 -0.70842594 1.0819423 -0.7386213 0.28411087 1.3910456 -0.24152385 0.6471338
-1.9109675 0.5457402 0.9844846 1.2008065 -1.7767692 1.1762539 -0.5648152 2.1375456
-0.8999177 0.4514027 -0.08065263 0.12781587 -1.3970684 0.5666692 -1.5354924 -0.3484031
0.36682665 -0.120398685 0.25535837 -0.7405557 -1.0866001 1.2397848 -0.4139828 0.8065904
-0.45755628 0.33523607 1.3401636 0.66828245 -1.548839 -0.32852486 2.547712 0.7277131
-1.0757489 0.24539474 0.21127297 0.08115707 0.10403733 -1.1119243 0.73458 -0.7160629
-0.36034694 -0.8884241 0.63899726 2.2806163 -1.6904218 1.5007865 0.26819786 -0.08709279
0.31884137 0.294005 1.149993 -1.2040539 -0.67023164 1.7904478 1.0538833 0.30394903
-0.026938004 2.802594 -0.523266 1.9096994 -1.3151101 -1.5990155 -1.3053491 1.74059
-1.4617375 -0.7968342 -0.8782726 0.1185294 0.27414003 -0.7500205 0.062453683 0.50697154
-1.3900632 0.05949504 -0.40491107 0.3395914 0.8015212 -0.99061066 -1.2810919 0.02199705
0.17455953 1.3254528 1.3803066 -0.815521 0.3420373 0.23484018 -1.104508 -0.3381766
0.8191344 -0.45473048 -0.6147411 -0.47353396 1.1101538 -1.5942824 -0.241996 0.9276659
-0.7173449 -0.44560322 -0.8561157 -0.8114191 -0.60998356 -1.5656936 -0.37103325 1.8651978
1.6865554 0.97864234 -0.49643558 2.0587122 0.83587176 -1.8766875 -1.487465 0.8628108
-0.48237118 -0.032423392 -0.94386625 0.616679 -1.7254466 0.31872132 1.7584343 1.147232
0.4172934 0.613881 -1.2649488 0.48683047 0.29401976 -0.86718875 -0.76139045 -1.0286605
00000000: 1867 843f 605d 1e3f 4cbb 903f 9cf3 04bf
00000010: 3662 c5be 0b22 2a3f c66e 1c3f 5553 e73f
00000020: c287 0cc0 f067 8f3e 9d56 0540 cd1e 933e
00000030: e51a 02c0 18a5 4740 3540 62be 7aa3 29bf
00000040: 3968 803f 711e 153f 2dc2 56be bdeb 19bf
00000050: 3d70 88bf bb85 9c3d 60e2 2ebf 8532 823e
00000060: 9c73 383f 1f97 5e3f 41cb b23f 1cb6 0c3e
00000070: 2afc 7d3f 9142 fa3e 644e c3bf 355d e83f
00000080: 4de7 75bf 11d2 65bf a3f0 d43e c15a be3f
00000090: 853a 803f acae eabd 5a30 3abd 1122 42bf
000000a0: 872b 77be eea4 8a3d 2aed 613f 19d4 afbd
000000b0: d6dc abbf db4a b7bf f261 57bf befb 0140
000000c0: cf4c 8dbf 80ef 9abf 5692 1e3e ddc6 81bf
000000d0: 2b37 1d3f a708 d3bf caf9 e5bf 5ffa e7bf
000000e0: c8d9 763f 5ba7 8dbf c2cb a5bd 6a67 8bbf
000000f0: f509 8b3f 181a e0bf 5295 463f 8f00 9cbe
00000100: 5fa3 503f 1041 a33f ca00 a3bf 2441 bc3f
00000110: f484 edbe 61ee 40c0 a3bb 82be 8010 a53e
00000120: 1c79 ab3e 0d24 203f 3352 593e 8040 363f
00000130: 4adc 33be 06ba 9a3e bbc8 173d d35a dbbe
00000140: 9d45 633f abd5 83bf 480a 9bbf 818b 843f
00000150: d3a3 8c3d ce44 0d3f 4a67 823e 8831 68bf
00000160: 46db 68bd 56ba 433f 1724 1f3f 435f d1bd
00000170: b687 3c3f 07c4 553e d4b0 5dbe 23b9 ebbe
00000180: 0d8f 3dbe b0a3 2b3f bc14 0f3e 7f46 5b3f
00000190: 95f8 adbe 428a 08bc 40f3 0040 3680 14bd
000001a0: 0349 26bf 826e fa3f 3a36 80bf f3d4 16bf
000001b0: 87c9 9ebf 13bf 4ebf 8498 47bf 6627 9b3f
000001c0: feed 153f e1e0 1cbf b597 a3bf 50d0 e7be
000001d0: 9f1e 8a3d 4a4c 693f 0802 fa3e 3baa 55bf
000001e0: 523e 2f3e 675b 35bf 167d 8a3f 4916 3dbf
000001f0: fb76 913e c80d b23f 0752 77be 90aa 253f
00000200: 959a f4bf a1b5 0b3f 2f07 7c3f 07b4 993f
00000210: 2c6d e3bf 7d8f 963f bb97 10bf 8ccd 0840
00000220: 0261 66bf 411e e73e 352d a5bd 2ae2 023e
00000230: 23d3 b2bf 3c11 113f 048b c4bf e461 b2be
00000240: b4d0 bb3e 9693 f6bd 55be 823e 0f95 3dbf
00000250: b615 8bbf 45b1 9e3f 8ef5 d3be b57c 4e3f
00000260: d144 eabe 10a4 ab3e 7b8a ab3f 8f14 2b3f
00000270: 5b40 c6bf 6934 a8be b70d 2340 684b 3a3f
00000280: 24b2 89bf c248 7b3e f157 583e ae35 a63d
00000290: 8611 d53d 8953 8ebf 6f0d 3c3f e64f 37bf
000002a0: 657f b8be c36f 63bf 5395 233f 9ef5 1140
000002b0: be5f d8bf c619 c03f 3b51 893e b45d b2bd
000002c0: 2d3f a33e d387 963e f832 933f 701e 9abf
000002d0: 4d94 2bbf 652d e53f a6e5 863f 359f 9b3e
000002e0: 17ad dcbc b35d 3340 c3f4 05bf 0871 f43f
000002f0: 8755 a8bf 8aac ccbf ae15 a7bf a7cb de3f
00000300: 371a bbbf 53fd 4bbf 79d6 60bf 8bbf f23d
00000310: 155c 8c3e 5801 40bf 6fcf 7f3d e3c8 013f
00000320: 97ed b1bf 12b1 733d 8150 cfbe edde ad3e
00000330: 7e30 4d3f a998 7dbf d2fa a3bf 2833 b43c
00000340: bcbf 323e 70a8 a93f e3ad b03f fcc5 50bf
00000350: 831f af3e f279 703e 8560 8dbf 7c25 adbe
00000360: cbb2 513f 6fd2 e8be ac5f 1dbf 0b73 f2be
00000370: 8519 8e3f 7211 ccbf cdcd 77be 837b 6d3f
00000380: eaa3 37bf 1b26 e4be 662a 5bbf 2ab9 4fbf
00000390: e227 1cbf a668 c8bf 12f8 bdbe cdbe ee3f
000003a0: 0ce1 d73f 4e88 7a3f ce2c febe f1c1 0340
000003b0: b1fb 553f 4c37 f0bf 4165 bebf 2be1 5c3f
000003c0: 5bf9 f6be 64ce 04bd 38a1 71bf adde 1d3f
000003d0: 6fdb dcbf 712f a33e 6014 e13f 80d8 923f
000003e0: 7ba7 d53e 4e27 1d3f d8e9 a1bf d841 f93e
000003f0: c289 963e 1500 5ebf 7cea 42bf 26ab 83bf

weight_ih_l0 f4 [100, 100]
0.013095643 -0.8648113 -0.1919224 -0.3037716 -0.3189996 -0.5114522 -0.34318045 -0.2838376
0.37861374 -0.37036812 0.59696716 -0.020927977 -0.29461294 -0.5825941 -0.19933353 0.66242486
0.022942608 -0.08191816 0.023488441 -0.40605813 -0.030923316 0.41456816 -0.18310261 -0.022956654
-0.10842755 0.42629915 0.12557553 0.03229741 -0.12804063 0.084798336 0.22674775 0.33521265
-0.055031262 -0.2377775 -0.03894443 0.36635786 0.5734881 0.6860618 -0.25239295 0.35385907
-0.060504034 0.65503526 -0.22093381 -0.35185218 0.13118216 -0.17137471 0.017510898 -0.1393553
0.22295992 -0.37765807 0.08971207 0.44390404 -0.18505993 0.37179238 0.3363837 0.27258098
0.24958155 0.4322361 -0.49923506 0.5425166 -0.16159716 -0.35112852 0.6119634 0.7748443
0.768248 -0.37997055 -0.02190209 -0.36010075 -0.2109556 0.11834828 -0.067941494 0.27504545
-0.07712281 -0.05619777 0.10263671 -0.16753396 -0.16664648 -0.11886408 -0.3178559 0.3274128
-0.06098274 -0.35701242 0.021528296 0.08895746 0.21472983 -0.82134557 0.0803887 0.023044106
-0.13698818 0.54911476 0.32436648 0.36881652 -0.7561768 0.4307711 0.17103581 0.4403337
0.011487939 -0.30618662 0.16393656 0.19316244 -0.18666533 0.6644415 -0.040115856 -0.062339623
0.13762055 -0.013093829 0.5499785 0.16137917 0.2614219 -0.092515096 -0.038312297 -0.11471726
-0.47229832 -0.07765845 0.3582391 -0.19116715 0.14993434 0.115765534 -0.15591916 0.28962237
0.16729978 -0.2902886 0.08955304 -0.19356914 0.45169502 0.08668708 0.114740305 -0.31851396
-0.008248819 0.117594495 0.32920927 0.031094147 0.02385446 0.4807446 0.63048667 -0.06788908
0.29747543 -0.5860533 -0.1885077 0.7103544 -0.035090785 0.17438407 0.0016776425 0.58370054
0.09377168 -0.0063117705 0.48129854 0.4069299 -0.35652217 0.16408335 0.27164358 -0.23391023
0.015797056 0.11025456 -0.094792925 0.37709573 0.3487881 0.3120228 -0.025411854 -0.08202202
-0.35286117 -0.23341185 -0.06218807 0.062785916 0.16408768 -0.0978478 0.4386541 0.022689816
-0.29816106 -0.20481357 -0.066529214 0.17812313 -0.18881595 0.050348386 -0.12186114 0.25084808
-0.2185899 0.5324675 -0.16294637 0.08385398 0.4862559 0.47737485 -0.6739366 0.010544897
-0.3028767 -0.004537881 -0.023544751 0.058782626 0.35011035 -0.09160297 -0.2315292 -0.22068135
-0.5580569 0.17343262 -0.043697953 0.15517774 -0.059301216 0.6923225 -0.1417757 -0.18546829
0.097106636 -0.07038529 -0.32656816 -0.46200752 -0.08082366 0.037642345 0.7361339 -0.09960719
0.001696607 0.089910775 0.38931704 -0.2953011 -0.097599916 -0.35678515 0.341998 -0.31913885
0.12981127 0.47165245 -0.5114522 0.14282002 -0.21992755 -0.79242647 0.22374192 0.578712
-0.38898498 -0.05380329 -0.4031466 -0.28207684 0.21087779 0.23175843 -0.053606175 0.23970132
0.039733216 0.203201 -0.3701487 0.057895668 0.08098243 -0.61225826 0.2101087 -0.44725716
-0.05479826 -0.049382795 -0.14628294 -0.047968816 0.3489625 -0.03197066 0.1954972 -0.38135582
-0.58741367 -0.57772374 0.30768108 0.034023963 0.2783448 -0.3462008 -0.19016533 -0.037029177
00000000: 1c8f 563c 4664 5dbf 4e87 44be f387 9bbe
00000010: ea53 a3be 88ee 02bf 59b5 afbe 2953 91be
00000020: a9d9 c13e e4a0 bdbe d7d2 183f 2671 abbc
00000030: 82d7 96be e324 15bf 171e 4cbe ad94 293f
00000040: 23f2 bb3c b5c4 a7bd d56a c03c dae6 cfbe
00000050: e552 fdbc 4742 d43e 407f 3bbe 980f bcbc
00000060: 430f debd e243 da3e df96 003e 4a4a 043d
00000070: 151d 03be c0aa ad3d 9030 683e fea0 ab3e
00000080: 7668 61bd f27b 73be 3284 1fbd 4293 bb3e
00000090: 1ed0 123f bfa1 2f3f a639 81be 042d b53e
000000a0: 14d3 77bd 64b0 273f 793c 62be f825 b4be
000000b0: 9e54 063e da7c 2fbe 0473 8f3c 28b3 0ebe
000000c0: 9b4f 643e 665c c1be f6ba b73d 6447 e33e
000000d0: 5a80 3dbe 925b be3e 7c3a ac3e bc8f 8b3e
000000e0: 4e92 7f3e 0d4e dd3e bd9b ffbe 5ee2 0a3f
000000f0: ba79 25be 1ec7 b3be a2a9 1c3f 325c 463f
00000100: e7ab 443f 808b c2be 036c b3bc 205f b8be
00000110: bf04 58be 9560 f23d e924 8bbd c2d2 8c3e
00000120: 90f2 9dbd a22f 66bd 3233 d23d 068e 2bbe
00000130: 60a5 2abe 036f f3bd 02be a2be a7a2 a73e
00000140: 0ac9 79bd 55ca b6be 1c5c b03c 542f b63d
00000150: 23e2 5b3e b443 52bf d5a2 a43d fec6 bc3c
00000160: a146 0cbe c992 0c3f 5d13 a63e 85d5 bc3e
00000170: ce94 41bf 088e dc3e 0324 2f3e 6b73 e13e
00000180: e937 3c3c 7ec4 9cbe fcde 273e 60cc 453e
00000190: 3225 3fbe d718 2a3f 8650 24bd d557 7fbd
000001a0: 67ec 0c3e 8087 56bc 64cb 0c3f 9540 253e
000001b0: 17d9 853e 8e78 bdbd 5bed 1cbd e2f0 eabd
000001c0: 16d1 f1be 650b 9fbd 1e6b b73e 52c1 43be
000001d0: 6388 193e 7b16 ed3d 46a9 1fbe 6249 943e
000001e0: a250 2b3e b5a0 94be 9667 b73d fd36 46be
000001f0: 9244 e73e ff88 b13d f7fc ea3d 4314 a3be
00000200: 0e26 07bc 62d5 f03d 1e8e a83e 27b9 fe3c
00000210: 6e6a c33c 2824 f63e 9367 213f 6e09 8bbd
00000220: b34e 983e 9707 16bf 2a08 41be c9d9 353f
00000230: 5bbb 0fbd bd91 323e 57e4 db3a 666d 153f
00000240: 5e0b c03d f8d2 cebb c36c f63e 1e59 d03e
00000250: 138a b6be 7705 283e de14 8b3e 2a86 6fbe
00000260: d468 813c 25cd e13d cb22 c2bd b112 c13e
00000270: 5b94 b23e 74c1 9f3e 852c d0bc 29fb a7bd
00000280: 38aa b4be 8403 6fbe ebb8 7ebd e795 803d
00000290: 9a06 283e 6d64 c8bd 4597 e03e fedf b93c
000002a0: 91a8 98be a6ba 51be 7840 88bd e965 363e
000002b0: f858 41be 1c3a 4e3d 5592 f9bd 296f 803e
000002c0: 08d6 5fbe ca4f 083f 6adb 26be a3bb ab3d
000002d0: 89f6 f83e 7a6a f43e 1c87 2cbf 81c4 2c3c
000002e0: a812 9bbe 81b2 94bb ece0 c0bc 0dc6 703d
000002f0: aa41 b33e 579a bbbd fe15 6dbe 4bfa 61be
00000300: d1dc 0ebf 5298 313e a0fc 32bd eae6 1e3e
00000310: d5e5 72bd 0c3c 313f a62d 11be 66eb 3dbe
00000320: d8df c63d 2a26 90bd f133 a7be 408c ecbe
00000330: e086 a5bd dc2e 1a3d 4573 3c3f dbfe cbbd
00000340: af60 de3a 2423 b83d 9054 c73e b531 97be
00000350: 77e2 c7bd 8bac b6be 5d1a af3e 2b66 a3be
00000360: 3fed 043e 6e7c f13e 88ee 02bf 693f 123e
00000370: b034 61be 76dc 4abf 9a1c 653e 7826 143f
00000380: 0a29 c7be d760 5cbd 3b69 cebe 606c 90be
00000390: 59f0 573e 1552 6d3e 2692 5bbd 4374 753e
000003a0: 4cbf 223d ec13 503e 2184 bdbe 0224 6d3d
000003b0: 1eda a53d f5bc 1cbf bc26 573e e4fe e4be
000003c0: 2474 60bd 9d45 4abd 32cb 15be f37a 44bd
000003d0: 36ab b23e abf3 02bd 6b30 483e 1241 c3be
000003e0: be60 16bf b4e5 13bf 6088 9d3e b65c 0b3d
000003f0: 3683 8e3e 3b41 b1be b3ba 42be e8ab 17bd

weight_hh_l0 f4 [100, 100]
-0.27124867 0.441415 -0.4346065 -0.018502535 -0.37432984 -0.42381528 -0.12142898 0.2981441
-0.13392535 0.37266773 -0.23713295 0.44820133 -0.37103286 0.3992273 0.20498115 -0.14234678
-0.16101217 0.108946316 -0.24700719 -0.15662643 0.103524394 0.090662904 0.41108856 0.16298428
-0.09693324 0.19221273 0.4867998 -0.383346 -0.06409923 0.042161167 -0.067601465 0.43548226
-0.19154371 0.040263474 0.23480079 -0.18871295 -0.48323667 -0.06956234 0.039992023 -0.42890653
0.2757163 0.03837077 -0.09509225 0.5935688 0.4779181 -0.31912282 -0.1666883 0.124571495
0.16779375 -0.19447835 0.43461668 -0.3192883 0.20032425 0.25383532 -0.051301554 -0.4948817
0.4196919 0.094379805 -0.20734298 0.21832198 -0.13214315 0.103460506 -0.048531387 0.27868095
0.04547741 0.05004122 -0.2227123 0.19458456 -0.10881886 0.027787238 0.3900375 0.07832533
-0.53317934 -0.1991758 0.44810736 0.38368392 -0.44857895 0.37430155 -0.2122557 0.31672153
-0.31996107 -0.22654441 0.594637 -0.1904272 0.16841978 -0.10940293 -0.41350642 0.4467013
0.23790424 0.4997173 0.44094744 -0.5309493 0.2841549 0.63479614 0.62505406 0.46271813
0.011540784 0.27097034 0.06712232 -0.38080356 -0.07376065 -0.15571283 0.6120547 -0.33899888
-0.4293212 0.30736303 0.1343855 0.4977372 -0.34549895 0.19431545 -0.06536128 -0.18203263
-0.48203382 0.17207964 -0.18325923 0.17540161 -0.54725987 -0.36973464 -0.17232509 0.58792067
0.24163029 0.59398067 -0.16718102 0.33481932 0.56247646 -0.1732325 -0.2854677 -0.26150283
-0.14537935 -0.08811972 0.025765913 -0.24942683 -0.17720005 0.25275367 -0.5040922 0.38114354
-0.026019588 0.052568592 0.60703474 0.17235395 -0.067741215 0.413997 -0.72760963 0.28120333
0.04693887 -0.3614773 -0.04751457 -0.034343265 -0.40411103 -0.048603494 0.08275793 0.16941711
0.17268677 0.45009065 -0.41649634 0.079564154 0.23183231 0.4218658 0.2578297 0.0777585
0.26955783 -0.6719016 -0.6785376 -0.09917695 0.15565413 0.16688398 0.34708828 0.369501
0.34491807 0.117348574 -0.06207665 0.3003521 -0.31268856 0.42012805 -0.6671511 0.45033455
0.53984606 -0.14663543 -0.069875136 -0.7626981 -0.44415554 -0.34617725 0.06912695 -0.16313669
-0.10198351 -0.28911877 0.021780243 -0.31431958 0.32165205 -0.5591866 0.19413169 0.03251075
-0.28040615 0.19043957 -0.2109578 -0.5027177 0.22970262 -0.41471598 -0.0667785 -0.16287187
-0.6414169 0.63113856 0.1696796 -0.42729962 -0.38813743 0.4693445 -0.19825207 0.2935962
-0.21918322 0.29202017 -0.19153781 0.120887145 -0.13845627 -0.0026977537 -0.50221545 0.4842414
0.35048014 0.41742897 0.28274336 0.08503383 -0.27031046 -0.23225719 -0.12706259 0.13567911
-0.25503477 0.26727864 -0.30598342 0.0148108 0.12120122 -0.21031307 0.00058880285 0.65636766
-0.10265194 0.075876094 0.07868542 0.29640853 -0.028651584 0.32593897 0.48116916 -0.08180959
-0.25092077 0.029912291 -0.2658489 0.20420627 0.27875873 -0.1392936 0.24107029 0.40052116
-0.012930004 0.34732616 -0.27649084 0.56901807 -0.030307509 -0.013157796 -0.008011326 0.45068598
00000000: 1be1 8abe 2601 e23e be84 debe a192 97bc
00000010: 29a8 bfbe 51fe d8be c2af f8bd 58a6 983e
00000020: ba23 09be 4ece be3e fbd2 72be a57a e53e
00000030: 05f8 bdbe 8567 cc3e 94e6 513e 5bc3 11be
00000040: 60e0 24be 3f1f df3d 74ef 7cbe ae62 20be
00000050: 9904 d43d 79ad b93d 337a d23e 5ae5 263e
00000060: ef84 c6bd 6ad3 443e d33d f93e ed45 c4be
00000070: 7546 83bd 30b1 2c3d a372 8abd 88f7 de3e
00000080: 0924 44be 50eb 243d 9e6f 703e f83d 41be
00000090: cc6a f7be b376 8ebd adce 233d a399 dbbe
000000a0: b02a 8d3e ab2a 1d3d babf c2bd 20f4 173f
000000b0: aeb1 f43e 1164 a3be 56b0 2abe 571f ff3d
000000c0: 20d2 2b3e 5525 47be 1486 de3e c279 a3be
000000d0: cd21 4d3e b4f6 813e 9421 52bd 2261 fdbe
000000e0: dbe1 d63e 334a c13d b851 54be cc8f 5f3e
000000f0: 8950 07be 1ae3 d33d d9c8 46bd 45af 8e3e
00000100: 8546 3a3d 06f8 4c3d b10e 64be 2d41 473e
00000110: 6cdc debd 10a2 e33c ffb2 c73e 0869 a03d
00000120: 717e 08bf bef4 4bbe 546e e53e 3872 c43e
00000130: 24ac e5be 74a4 bf3e 8f59 59be 5329 a23e
00000140: f0d1 a3be 42fb 67be 213a 183f 59ff 42be
00000150: 3c76 2c3e a50e e0bd 1db7 d3be 08b6 e43e
00000160: 2b9d 733e f2da ff3e ddc3 e13e 4bec 07bf
00000170: c07c 913e 0082 223f 8b03 203f 64e9 ec3e
00000180: 8e15 3d3c a0bc 8a3e 6d77 893d aff8 c2be
00000190: d30f 97bd 2f73 1fbe 9eaf 1c3f 4391 adbe
000001a0: fdcf dbbe b05e 9d3e 5a9c 093e 69d7 fe3e
000001b0: 3de5 b0be a1fa 463e 23dc 85bd c366 3abe
000001c0: 23cd f6be a535 303e 4fa8 3bbe 7b9c 333e
000001d0: 3919 0cbf dc4d bdbe fd75 30be f881 163f
000001e0: ee6d 773e 1e0f 183f 8031 2bbe 706d ab3e
000001f0: 75fe 0f3f dc63 31be d328 92be b3e3 85be
00000200: 53de 14be 1d78 b4bd 0913 d33c bf69 7fbe
00000210: ee73 35be ee68 813e 300c 01bf 3f25 c33e
00000220: 0827 d5bc 2a52 573d a166 1b3f 8e7d 303e
00000230: e8bb 8abd 6af7 d33e a044 3abf e2f9 8f3e
00000240: f942 403d 8d13 b9be a39e 42bd 86ab 0cbd
00000250: a4e7 cebe 7514 47bd fd7c a93d ae7b 2d3e
00000260: cdd4 303e 4872 e63e 023f d5be 88f2 a23d
00000270: 7365 6d3e cbfe d73e 4102 843e d93f 9f3d
00000280: 7c03 8a3e be01 2cbf a4b4 2dbf 491d cbbd
00000290: cc63 1f3e a2e3 2a3e 8eb5 b13e 3c2f bd3e
000002a0: 1a99 b03e 7354 f03d 1644 7ebd c0c7 993e
000002b0: b718 a0be 061b d73e 6aca 2abf 4092 e63e
000002c0: 5a33 0a3f 9927 16be b21a 8fbd 2f40 43bf
000002d0: 5b68 e3be 253e b1be 6e92 8d3d 4e0d 27be
000002e0: bbdc d0bd 6007 94be 7b6c b23c 7fee a0be
000002f0: 94af a43e da26 0fbf 75ca 463e fe29 053d
00000300: 6591 8fbe 9702 433e 5205 58be 1bb2 00bf
00000310: 2a37 6b3e a755 d4be 2bc3 88bd e2c7 26be
00000320: e633 24bf 4c92 213f 7dc0 2d3e 04c7 dabe
00000330: f3b9 c6be ec4d f03e 9702 4bbe 3e52 963e
00000340: 9171 60be ab83 953e 7d22 44be ae93 f73d
00000350: 7bc7 0dbe cccc 30bb 3191 00bf 7dee f73e
00000360: 2272 b33e 40b9 d53e bdc3 903e 3726 ae3d
00000370: 2266 8abe d4d4 6dbe b21c 02be 77ef 0a3e
00000380: eb93 82be bfd8 883e dca9 9cbe ffa8 723c
00000390: 5838 f83d 4f5c 57be e459 1a3a b607 283f
000003a0: 2e3b d2bd ed64 9b3d d225 a13d dcc2 973e
000003b0: bab6 eabc 79e1 a63e ce5b f63e c98b a7bd
000003c0: b078 80be 9f0a f53c 591d 88be 731b 513e
000003d0: 77b9 8e3e fba2 0ebe 21db 763e 1c11 cd3e
000003e0: 5ed8 53bc bcd4 b13e 3590 8dbe 2bab 113f
000003f0: 7447 f8bc cc93 57bc f041 03bc 50c0 e63e

bias_ih_l0 f4 [100]
0.14565623 -0.018847363 -0.030853055 0.13465719 0.30443218 0.26402938 -0.2404985 0.054361172
-0.13027279 -0.19108607 0.085538864 0.13276555 0.0073429323 0.10093473 -0.099832304 0.14293335
-0.030803047 0.16206567 0.07544658 -0.5657767 -0.12713382 -0.0066646202 0.008892466 -0.018934533
-0.07485802 -0.012051796 0.30310076 0.05861815 -0.40694672 0.1335157 -0.31014302 0.23163651
0.20686506 0.23742874 0.33552486 0.18992229 -0.1733012 -0.092533715 -0.2797543 0.15029436
-0.0403172 -0.04821284 -0.555381 0.19461502 -0.07923642 0.04869218 0.1603253 0.09420711
0.12912394 0.24332114 0.265187 -0.42471507 -0.023779057 -0.25540823 0.26132783 -0.20868795
-0.27238557 -0.18819837 -0.009418641 0.04102801 -0.12668183 0.25439706 0.14861745 0.12702022
-0.029469185 0.050912444 -0.037172034 0.042430624 -0.0090020755 -0.10745396 0.033606395 0.059698325
0.108991586 -0.0989494 -0.15238798 0.056091353 0.058384925 0.09847295 0.15488629 0.50883377
0.2552951 0.30951083 -0.08658596 0.09929048 -0.4098223 0.056570977 0.08466884 -0.2676646
-0.027742198 0.29163224 -0.080192864 0.5061867 0.14148726 0.15311907 -0.21361838 0.13651906
-0.09038743 -0.20845667 -0.16614093 -0.20691805
00000000: e826 153e c965 9abc 8cbf fcbc 93e3 093e
00000010: 89de 9b3e dc2e 873e 3d45 76be d2a9 5e3d
00000020: 3b66 05be 11ac 43be 002f af3d b1f3 073e
00000030: fb9c f03b deb6 ce3d e174 ccbd 1f5d 123e
00000040: ac56 fcbc 8bf4 253e bd83 9a3d bed6 10bf
00000050: 5e2f 02be e362 dabb b5b1 113c 981c 9bbc
00000060: 294f 99bd e574 45bc 0630 9b3e 9619 703d
00000070: 525b d0be 57b8 083e 11cb 9ebe 1f32 6d3e
00000080: 6fd4 533e 8520 733e eac9 ab3e fd7a 423e
00000090: df75 31be 5182 bdbd f53b 8fbe c4e6 193e
000000a0: a623 25bd d47a 45bd 732d 0ebf 2949 473e
000000b0: b446 a2bd 7471 473d 512c 243e a8ef c03d
000000c0: 1139 043e 2d29 793e 97c6 873e 4174 d9be
000000d0: 4ccc c2bc dec4 82be c3cc 853e 4bb2 55be
000000e0: 1f76 8bbe 13b7 40be a550 1abc fd0c 283d
000000f0: e2b8 01be 5540 823e 2c2f 183e 9711 023e
00000100: 5c69 f1bc 9189 503d b441 18bd bccb 2d3d
00000110: 717d 13bc d210 dcbd dca6 093d 3b86 743d
00000120: fb36 df3d fca5 cabd 980b 1cbe 0cc0 653d
00000130: 0825 6f3d 30ac c93d 839a 1e3e ee42 023f
00000140: 0ab6 823e 3478 9e3e fb53 b1bd cf58 cb3d
00000150: 3ad4 d1be f8b6 673d db66 ad3d 560b 89be
00000160: 9b43 e3bc d250 953e 283c a4bd 7495 013f
00000170: 09e2 103e 3fcb 1c3e c7be 5abe a7cb 0b3e
00000180: 0b1d b9bd aa75 55be d920 2abe 53e2 53be

bias_hh_l0 f4 [100]
-0.024802012 -0.022822093 -0.13442305 0.0071244426 0.17445335 0.31831637 -0.23569892 0.06995243
-0.09206005 -0.03785083 0.0077957655 0.12581518 0.024914317 -0.06502172 0.05386571 0.10170018
-0.00043114234 0.25759923 -0.108630486 -0.6796396 -0.08356298 -0.092566065 -0.035610795 0.088600956
-0.027474774 0.117070965 0.22524218 -0.07562004 -0.40027285 0.04807219 -0.25758806 0.2675195
0.23110934 0.19585179 0.383576 0.15666981 -0.0065322504 -0.14759718 -0.4102171 0.09630694
0.050240915 0.030525945 -0.48741934 0.12757856 -0.052458655 0.0398909 0.2515453 0.116614446
0.17646678 0.34164986 0.32128656 -0.23918842 -0.013146546 -0.2798017 0.27038395 -0.25534767
-0.14491552 -0.26408678 0.0018612357 0.13901253 -0.18655527 0.12390865 0.13885966 0.16805038
-0.100095175 -0.12431213 0.096686974 -0.01067015 0.0379451 -0.002616851 0.19523205 0.13180543
0.24885437 -0.08700032 -0.022586467 0.0422873 0.057695463 -0.08871096 0.08672964 0.5655859
0.18038239 0.3826464 -0.01496244 0.25788498 -0.3113899 0.026700275 0.16518593 -0.089796744
0.06785267 0.35403302 0.100930065 0.44047508 0.13394476 0.18246847 -0.121519394 0.1435376
-0.08302031 -0.26968956 -0.029844621 -0.21452503
00000000: 972d cbbc 66f5 babc 32a6 09be 2874 e93b
00000010: e6a3 323e 5dfa a23e 0f5b 71be 3843 8f3d
00000020: fb89 bcbd 7909 1bbd 9f73 ff3b b2d5 003e
00000030: 1c19 cc3c 1c2a 85bd 4aa2 5c3d 2f48 d03d
00000040: f20a e2b9 0ce4 833e a979 debd dcfc 2dbf
00000050: 1123 abbd 4793 bdbd a0dc 11bd 6b74 b53d
00000060: c712 e1bc e7c2 ef3d e3a5 663e aede 9abd
00000070: 90f0 ccbe 58e7 443d 95e2 83be 51f8 883e
00000080: eda7 6c3e 5f8d 483e 1364 c43e 0d6e 203e
00000090: 7d0c d6bb b723 17be fa07 d2be 933c c53d
000000a0: 6bc9 4d3d 8c11 fa3c 078f f9be f4a3 023e
000000b0: e3de 56bd a464 233d 8cca 803e 8ed3 ee3d
000000c0: b5b3 343e bbec ae3e ac7f a43e cfed 74be
000000d0: 9c64 57bc 2b42 8fbe c46f 8a3e eebc 82be
000000e0: bc64 14be 6236 87be b5f4 f33a 4d59 0e3e
000000f0: 5808 3fbe d1c3 fd3d 3a31 0e3e 6615 2c3e
00000100: b3fe ccbd 5c97 febd d203 c63d dad1 2ebc
00000110: 526c 1b3d 797f 2bbb e9ea 473e 01f8 063e
00000120: aed3 7e3e 392d b2bd 4107 b9bc 7335 2d3d
00000130: 1452 6c3d 17ae b5bd 4f9f b13d 3dca 103f
00000140: 29b6 383e 3bea c33e 0625 75bc 8009 843e
00000150: 7f6e 9fbe 89ba da3c 8026 293e 5be7 b7bd
00000160: 57f6 8a3d d143 b53e 6cb4 ce3d f385 e13e
00000170: d128 093e 04d9 3a3e 29df f8bd 85fb 123e
00000180: 8d06 aabd c014 8abe b57c f4bc 73ac 5bbe

weight_ih_l1 f4 [100, 100]
0.55364054 0.62473977 -0.68424374 0.08356321 0.73612356 -0.19348688 -0.40777227 0.37283978
-0.3107171 0.11971036 0.03849017 -0.57219 -0.19864875 0.4726523 -0.08093513 -0.41014186
-0.114993624 0.124485806 0.5967883 0.1474793 0.07790152 0.6476172 -0.021134775 -0.27814573
0.15511915 -0.31778938 -0.33749515 0.14289881 0.08631656 0.41156608 -0.14416273 0.05834619
0.315115 0.32471833 0.2730862 0.59952366 0.48476025 -0.28494626 0.06409473 -0.3387263
-0.25531837 -0.15942003 0.15793125 0.11246179 -0.4132973 0.44477013 -0.31783742 0.29916847
0.48797882 -0.031799845 -0.18533716 0.7454998 0.26293272 -0.20734613 0.21775246 -0.15792839
-0.6136701 -0.018480428 0.100260586 -0.24369897 -0.06714226 -0.14481366 -0.24067305 0.016763013
-0.40209717 0.42274383 -0.26335847 0.18259668 -0.15850721 0.18869372 -0.0138093345 0.2977232
-0.2561286 0.50045973 0.22505316 -0.032600436 0.2179024 -0.122246206 0.5245692 0.8622758
0.83188045 -0.12623946 -0.15102346 -0.54966146 0.4365197 -0.06076137 -0.33899513 -0.122701496
-0.49372306 -0.49449158 0.10264652 0.08848301 -0.1986242 -0.08710468 -0.13735318 -0.49142033
-0.23014788 -0.021284696 -0.13109976 0.17146099 0.43916535 -0.19010316 -0.05865789 0.04322322
0.70572555 -0.16717091 0.47073326 0.87889594 0.57169646 -0.07299538 0.31934977 0.36456025
-0.002198051 0.013530793 0.5743082 0.47088444 -0.6433762 -0.11899321 0.1572672 0.5109055
-0.40231955 0.34177923 -0.3132148 -0.037562013 0.16048451 -0.0846692 -0.1834844 -0.42646256
-0.058788624 -0.5707089 0.43479583 -0.9781906 0.43698013 -0.07791678 0.40349075 0.17144847
0.65138054 -0.32246342 -0.44166338 0.03451686 0.13951138 -0.08774499 -0.2841141 -0.0762672
-0.3858683 -0.54919654 0.19347057 1.08896 -0.49477717 -0.21209607 0.013126389 -0.08973745
0.31813592 -0.26367724 0.2758277 0.099090844 -0.118278 -0.1531624 0.44835237 0.4988255
0.22776632 0.09663884 0.46986973 0.018655272 -0.1752983 -0.07143557 -0.1317535 0.028141517
0.014162441 -0.24935716 0.52929026 0.1241767 0.33983484 -0.78649473 -0.24011256 0.40225923
0.10866885 -0.1233529 0.3346714 0.24599943 0.44759497 0.016065398 -0.3253879 -0.61496174
-0.6018544 -0.51748365 -0.2652536 -0.21564803 0.15870798 0.6009489 -0.28268287 0.38133883
-0.26548657 -0.14097516 0.2848519 -0.54919946 -0.17435506 -0.15265118 -0.22964337 -0.023667982
0.20649466 -0.18074095 -0.3774555 0.10393496 0.44363308 0.25134066 0.026120294 -0.14757581
0.40349472 0.026100058 0.03994832 -0.3815835 0.6569596 -0.48041123 0.5688056 -0.214585
0.09608927 -0.536043 0.9390075 -0.15358624 -0.02255802 0.13710546 0.31952024 -0.5553111
0.4877777 -0.7541826 0.030265829 -0.39563912 0.03736715 -0.002366795 0.16772665 0.44122896
-0.13500977 0.35924152 0.33561328 0.52486014 -0.16698702 -0.43712205 -0.069472745 0.9952853
-0.7303792 -0.024408793 -0.10378397 -0.0841011 0.3213736 0.5213093 -0.24913868 -0.39389735
0.034876682 -0.069861285 -0.24236162 0.3730007 0.18680817 -0.33063647 -0.08289002 -0.2787898
00000000: 63bb 0d3f f2ee 1f3f 992a 2fbf 3023 ab3d
00000010: 9872 3c3f 6d21 46be 87c7 d0be dbe4 be3e
00000020: 5016 9fbe b52a f53d dea7 1d3d 0b7b 12bf
00000030: 946a 4bbe 7bff f13e 51c1 a5bd 1dfe d1be
00000040: c781 ebbd 6af2 fe3d 1ec7 183f d004 173e
00000050: d58a 9f3d 3eca 253f d622 adbc 1e69 8ebe
00000060: 8ed7 1e3e 4ab5 a2be 2acc acbe 1154 123e
00000070: bdc6 b03d cab8 d23e 659f 13be 6afc 6e3d
00000080: c156 a13e 7b41 a63e f4d1 8b3e 627a 193f
00000090: 7f32 f83e 7ae4 91be 1944 833d 896d adbe
000000a0: 17b9 82be 013f 23be bbb8 213e 5e52 e63d
000000b0: b49b d3be e9b8 e33e 96bb a2be 9c2c 993e
000000c0: 5cd8 f93e 8e40 02bd 06c9 3dbe 13d9 3e3f
000000d0: 1e9f 863e 8b52 54be 80fa 5e3e fbb7 21be
000000e0: 7c19 1dbf 4464 97bc 6c55 cd3d 398c 79be
000000f0: e281 89bd 084a 14be ff72 76be 9652 893c
00000100: aedf cdbe e171 d83e ecd6 86be a0fa 3a3e
00000110: b74f 22be ed38 413e 8c40 62bc 2d6f 983e
00000120: 4a23 83be 211e 003f 5674 663e 0988 05bd
00000130: cf21 5f3e 385c fabd 2b4a 063f 1bbe 5c3f
00000140: 1ef6 543f eb44 01be e5a5 1abe 9db6 0cbf
00000150: 837f df3e eae0 78bd c590 adbe ec4a fbbd
00000160: 45c9 fcbe 002e fdbe 5738 d23d 9536 b53d
00000170: 2464 4bbe f063 b2bd 50a6 0cbe 729b fbbe
00000180: e3ab 6bbe 3e5d aebc 043f 06be 7893 2f3e
00000190: 48da e03e 67aa 42be 4143 70bd d50a 313d
000001a0: 6eaa 343f da2e 2bbe f303 f13e 53ff 603f
000001b0: b35a 123f 9a7e 95bd d081 a33e a4a7 ba3e
000001c0: 2d0d 10bb 42b0 5d3c dd05 133f c417 f13e
000001d0: 4db4 24bf b6b2 f3bd a70a 213e b4ca 023f
000001e0: d4fc cdbe b0fd ae3e b15d a0be a0da 19bd
000001f0: 0d56 243e 0c67 adbd 56e3 3bbe 4d59 dabe
00000200: 57cc 70bd fa19 12bf 8f9d de3e b36a 7abf
00000210: dcbb df3e d592 9fbd 5796 ce3e 3090 2f3e
00000220: e0c0 263f ed19 a5be b421 e2be 8d61 0d3d
00000230: 12dc 0e3e a5b3 b3bd 6777 91be fa31 9cbd
00000240: 8890 c5be 2598 0cbf 261d 463e 0b63 8b3f
00000250: 6f53 fdbe b62f 59be 1110 573c 45c8 b7bd
00000260: b6e2 a23e b400 87be 4a39 8d3e 24f0 ca3d
00000270: bc3b f2bd 9bd6 1cbe 718e e53e 0e66 ff3e
00000280: 933b 693e 96ea c53d c492 f03e f1d2 983c
00000290: 6681 33be d04c 92bd 64ea 06be 0a89 e63c
000002a0: 9509 683c 7c57 7fbe 917f 073f 5b50 fe3d
000002b0: d5fe ad3e b857 49bf 11e0 75be ecf4 cd3e
000002c0: c68d de3d 72a0 fcbd 0d5a ab3e 46e7 7b3e
000002d0: 2b2b e53e 959b 833c 3e99 a6be 226e 1dbf
000002e0: 2113 1abf cf79 04bf 52cf 87be d6d2 5cbe
000002f0: 5884 223e cad7 193f cfbb 90be d83e c33e
00000300: dbed 87be cb5b 10be 1cd8 913e 5698 0cbf
00000310: 228a 32be 9750 1cbe a227 6bbe 5be3 c1bc
00000320: 5673 533e 2814 39be d941 c1be dadb d43d
00000330: e023 e33e b9af 803e 3afa d53c 1d1e 17be
00000340: dc96 ce3e cacf d53c d9a0 233d ea5e c3be
00000350: 812e 283f 76f8 f5be 3e9d 113f 2cbc 5bbe
00000360: 74ca c43d 1d3a 09bf cc62 703f b645 1dbe
00000370: 99cb b8bc 6065 0c3e 2898 a33e de28 0ebf
00000380: 00be f93e 1c12 41bf 0bf0 f73c 3691 cabe
00000390: 4c0e 193d 3b1c 1bbb 89c0 2b3e c3e8 e13e
000003a0: 0040 0abe 81ee b73e 81d5 ab3e 3c5d 063f
000003b0: a5fe 2abe 76ce dfbe ba47 8ebd 04cb 7e3f
000003c0: 22fa 3abf f3f4 c7bc b18c d4bd 333d acbd
000003d0: 158b a43e 8774 053f 361e 7fbe eaac c9be
000003e0: dada 0e3d 6f13 8fbd a52d 78be f3f9 be3e
000003f0: a44a 3f3e 2f49 a9be 3ec2 a9bd 89bd 8ebe

weight_hh_l1 f4 [100, 100]
0.21109901 0.37733057 0.46507862 0.14327984 0.003924319 0.31054902 0.34537143 -0.3907115
-0.34190285 -0.28023738 0.10109536 -0.009247562 0.25421596 -0.26580405 -0.16215068 -0.36975256
0.51291096 -0.15937397 0.1466367 0.31249404 -0.46588004 -0.10689691 -0.26026973 -0.24631327
-0.03280359 -0.14710082 -0.32611644 -0.093932204 0.15643296 -0.27940264 0.03839855 -0.1419465
-0.2323101 -0.16255322 -0.20304878 0.350985 0.12025417 -0.1817745 0.4735563 0.33060646
-0.03318795 0.009699331 0.18518844 -0.29846486 0.1509222 -0.4950315 -0.2041718 -0.27160373
0.4291099 -0.55892223 -0.3809852 0.077592485 -0.38462353 -0.2765644 0.33159047 0.34961644
0.25870085 -0.5019253 0.3136331 -0.1955588 0.18201795 -0.11998077 0.2024228 0.0039865808
0.05647398 0.15315032 0.33351913 0.23426172 -0.16754878 0.36129656 0.16332307 -0.13059416
0.33718 -0.40353906 -0.13539514 -0.051807936 -0.22011143 0.2758989 -0.08559049 0.030793227
-0.2043031 -0.31949076 0.06272297 -0.27195182 0.011368726 0.025075443 -0.14608145 0.15106829
0.4052954 0.29845336 -0.47942615 -0.31285203 -0.13855301 -0.068873554 -0.029069224 0.038360868
-0.078835145 -0.0049758465 -0.03144257 -0.281578 0.25934547 -0.11614831 -0.27611783 -0.12195265
0.06605664 -0.374945 -0.123257905 -0.49728724 -0.5559856 0.26271588 -0.102604784 0.25249174
-0.12225107 0.22210342 -0.56600153 -0.15643081 -0.45640773 -0.13620307 -0.14649895 0.1193638
-0.06515415 0.100443654 0.39741388 0.23110393 0.20600611 -0.09848671 -0.29529467 0.010781444
-0.16594754 -0.17652547 -0.27091137 0.2914564 -0.0030208593 0.082927145 0.21454504 -0.34381825
-0.2181856 0.07975127 -0.32578963 0.50894314 0.42627567 -0.20397767 -0.1415759 0.098140664
0.040511508 0.03982303 0.35523605 0.14920312 0.06204137 -0.46575025 0.018698622 -0.14835984
-0.24478623 0.52958524 -0.46803552 -0.01325749 0.076701134 0.29905617 0.4707596 0.09373632
-0.33258456 0.061283216 -0.4737776 -0.06292747 -0.40522626 0.43302044 -0.112034805 0.178621
-0.21681094 -0.16125125 -0.13055684 -0.07777037 0.6372109 0.04713251 -0.2481674 0.29577887
-0.2883328 0.25460202 0.1599843 0.6430977 -0.043908697 0.28697008 -0.2818595 -0.26717448
0.30112743 0.21805857 -0.310963 0.08544945 -0.24980101 -0.4365743 -0.638767 0.46122724
-0.004570133 -0.25072178 0.50710136 0.06471487 0.18159927 -0.18736565 -0.0037075903 -0.14006004
0.13637516 -0.260466 0.44524443 0.029135298 -0.122356474 -0.4366536 0.21786027 0.033012595
-0.21510918 -0.45720476 0.028979704 0.14429086 0.05523719 0.18978463 0.26232654 0.11203658
-0.055742368 -0.14164042 0.36143142 -0.04943538 0.090256676 -0.036932442 0.2997562 0.22937736
-0.48544115 -0.502081 -0.30473885 -0.31760415 0.30281028 0.45490733 -0.08108058 0.34651828
-0.14278217 0.15151526 -0.57967603 0.13142283 -0.012604089 -0.26536858 -0.53430694 0.51012164
0.29536524 -0.2395437 -0.37177593 0.17398566 0.13609695 -0.109612875 -0.02906193 -0.2801918
0.11910478 -0.33668435 -0.2527965 0.11042151 0.1389736 -0.21600024 -0.07732506 0.15209939
00000000: 572a 583e 7931 c13e c91e ee3e f3b7 123e
00000010: 9397 803b 4800 9f3e 86d4 b03e 560b c8be
00000020: e40d afbe 467b 8fbe 160b cf3d 1683 17bc
00000030: 9828 823e 7817 88be d40a 26be 3550 bdbe
00000040: 224e 033f ee32 23be ee27 163e 38ff 9f3e
00000050: d487 eebe c4ec dabd 1342 85be 8c39 7cbe
00000060: 0f5d 06bd 99a1 16be bcf8 a6be 875f c0bd
00000070: f62f 203e dd0d 8fbe cc47 1d3d 6c5a 11be
00000080: b3e2 6dbe 5a74 26be 05ec 4fbe 4eb4 b33e
00000090: d147 f63d 1823 3abe f975 f23e 4045 a93e
000000a0: 16f0 07bd f1e9 1e3c 0aa2 3d3e 63d0 98be
000000b0: 598b 1a3e c574 fdbe 6a12 51be a50f 8bbe
000000c0: 4bb4 db3e 8715 0fbf 7e10 c3be cfe8 9e3d
000000d0: 60ed c4be d999 8dbe 3ac6 a93e ed00 b33e
000000e0: 7074 843e 2d7e 00bf 8594 a03e 9140 48be
000000f0: ea62 3a3e 7ab8 f5bd ec47 4f3e dda1 823b
00000100: 4351 673d 70d3 1c3e 05c3 aa3e 4ee2 6f3e
00000110: e891 2bbe ddfb b83e 2a3e 273e 7aba 05be
00000120: dba2 ac3e ac9c cebe 06a5 0abe 8f34 54bd
00000130: e464 61be 9f42 8d3e 114a afbd 1442 fc3c
00000140: d534 51be 4b94 a3be e774 803d 453d 8bbe
00000150: e543 3a3c 046b cd3c 6096 15be a5b1 1a3e
00000160: e182 cf3e e1ce 983e 5877 f5be 242e a0be
00000170: d7e0 0dbe 940d 8dbd 9522 eebc 4920 1d3d
00000180: 5274 a1bd 6d0c a3bb edc9 00bd fe2a 90be
00000190: eec8 843e 2adf edbd 515f 8dbe 50c2 f9bd
000001a0: b448 873d cbf8 bfbe a46e fcbd 6f9c febe
000001b0: 1355 0ebf b282 863e 7522 d2bd 9946 813e
000001c0: c55e fabd 146f 633e 7ae5 10bf 662f 20be
000001d0: 46ae e9be d178 0bbe d203 16be 0275 f43d
000001e0: 8a6f 85bd 67b5 cd3d d579 cb3e 82a6 6c3e
000001f0: 44f3 523e 66b3 c9bd dd30 97be a7a4 303c
00000200: 27ee 29be 18c3 34be e5b4 8abe c639 953e
00000210: 9cf9 45bb b5d5 a93d b2b1 5b3e f208 b0be
00000220: 0c6c 5fbe a254 a33d e6cd a6be 194a 023f
00000230: ce40 da3e 86df 50be 46f9 10be f9fd c83d
00000240: 65ef 253d 791d 233d 80e1 b53e b4c8 183e
00000250: 171f 7e3d d176 eebe da2d 993c a4eb 17be
00000260: 3ea9 7abe e692 073f 5aa2 efbe f135 59bc
00000270: 7c15 9d3d e41d 993e 6707 f13e d4f8 bf3d
00000280: 8648 aabe 1c04 7b3d fa92 f2be 1ee0 80bd
00000290: d179 cfbe dbb4 dd3e 8172 e5bd 6ce8 363e
000002a0: b003 5ebe 0c1f 25be b1b0 05be 1246 9fbd
000002b0: 4120 233f 050e 413d 981f 7ebe 5470 973e
000002c0: 5ba0 93be 325b 823e edd2 233e 0da2 243f
000002d0: 9bd9 33bd beed 923e e34f 90be 18cb 88be
000002e0: 602d 9a3e bf4a 5f3e 8b36 9fbe 1f00 af3d
000002f0: d6cb 7fbe ab86 dfbe 3c86 23bf fa25 ec3e
00000300: 0ec1 95bb 9b5e 80be 65d1 013f 3b89 843d
00000310: 29f5 393e c8dc 3fbe 0bfb 72bb e66b 0fbe
00000320: eea5 0b3e cd5b 85be 14f7 e33e 26ad ee3c
00000330: 0896 fabd 1091 dfbe c316 5f3e 3738 073d
00000340: 9545 5cbe be16 eabe d866 ed3c fcc0 133e
00000350: 6440 623d e756 423e aa4f 863e 6f73 e53d
00000360: 1c52 64bd 300a 11be 8a0d b93e c17c 4abd
00000370: 7ed8 b83d 7946 17bd a579 993e e6e1 6a3e
00000380: be8b f8be 6188 00bf bb06 9cbe 039d a2be
00000390: f309 9b3e 9de9 e83e 930d a6bd d86a b13e
000003a0: 7d35 12be d126 1b3e a665 14bf b593 063e
000003b0: 6281 4ebc 64de 87be 57c8 08bf 5597 023f
000003c0: 1d3a 973e f24a 75be 6a59 bebe 4c29 323e
000003d0: 005d 0b3e b77c e0bd 4913 eebc 4d75 8fbe
000003e0: 35ed f33d e461 acbe 8b6e 81be ac24 e23d
000003f0: 184f 0e3e 2b2f 5dbe 9a5c 9ebd f1bf 1b3e

bias_ih_l1 f4 [100]
-0.16383676 0.06534335 0.53991896 -0.06394722 0.10010937 -0.17550103 -0.27606428 -0.097141646
-0.059515327 -0.3013183 -0.068047695 0.39054102 0.4124079 -0.16751342 -0.18082626 -0.28157288
-0.5257436 0.10408929 -0.13375342 0.043385863 -0.16025865 -0.23150916 -0.008425595 -0.038449984
-0.11340655 -0.025516497 0.009138148 -0.49471158 -0.36389127 -0.3508959 -0.12682848 -0.048686873
-0.1548495 -0.4337543 -0.23086244 0.30148944 -0.36830255 -0.2665369 0.004895142 0.2625878
0.11960686 -0.33595002 0.004991508 0.017751139 -0.09368421 -0.16907908 0.18201602 -0.18830338
0.5211114 -0.30311495 0.24857591 -0.1653097 -0.18602571 -0.044956584 -0.13971487 0.083534986
-0.0614817 -0.036384594 0.044203456 0.17695038 -0.5567786 0.25288275 -0.23090881 -0.028690886
-0.16891095 -0.19305946 0.014970084 -0.008657451 0.366154 0.43437347 -0.05787764 0.11341011
-0.2777986 -0.24780628 0.0437386 0.07389392 0.34004772 0.43771008 0.010266762 0.13636607
-0.17585675 -0.064283095 0.0638603 -0.36226603 -0.12207828 0.1064074 0.09863717 0.31741595
0.28667495 -0.13728987 0.26535898 0.43615273 -0.18341519 0.33885878 0.45311987 0.1529988
-0.005678233 -0.32900068 0.3220278 -0.1763838
00000000: d3c4 27be bcd2 853d 2138 0a3f c3f6 82bd
00000010: 2406 cd3d 8bb6 33be 4c58 8dbe 33f2 c6bd
00000020: 58c6 73bd 6446 9abe 975c 8bbd fef4 c73e
00000030: 2127 d33e a388 2bbe 852a 39be 522a 90be
00000040: 2297 06bf c42c d53d a8f6 08be 60b5 313d
00000050: d81a 24be bd10 6dbe 820b 0abc bb7d 1dbd
00000060: b141 e8bd f907 d1bc 2cb8 153c d64a fdbe
00000070: f54f babe a1a8 b3be 53df 01be e36b 47bd
00000080: de90 1ebe 0b15 debe 3467 6cbe d35c 9a3e
00000090: 2792 bcbe 8677 88be 6d67 a03b e871 863e
000000a0: 71f4 f43d a401 acbe ce8f a33b d66a 913c
000000b0: 82dd bfbd 1123 2dbe 6862 3a3e 9ad2 40be
000000c0: 8f67 053f e231 9bbe af8a 7e3e f246 29be
000000d0: 867d 3ebe 6524 38bd 6a11 0fbe 6414 ab3d
000000e0: 3cd4 7bbd 0308 15bd af0e 353d 7b32 353e
000000f0: 0b89 0ebf d979 813e 5c73 6cbe 2609 ebbc
00000100: fef6 2cbe 61b1 45be 1545 753c fbd7 0dbc
00000110: 8978 bb3e 3366 de3e 1b11 6dbd 8f43 e83d
00000120: 9e3b 8ebe eec0 7dbe 3f27 333d b255 973d
00000130: bc1a ae3e 891b e03e ec35 283c 8ca3 0b3e
00000140: cb13 34be dba6 83bd 30c9 823d ef7a b9be
00000150: 2d04 fabd 1fec d93d 4902 ca3d 5884 a23e
00000160: 0fc7 923e b795 0cbe 22dd 873e 694f df3e
00000170: 31d1 3bbe e67e ad3e 54ff e73e b8ab 1c3e
00000180: 7910 babb c772 a8be d4e0 a43e f49d 34be

bias_hh_l1 f4 [100]
-0.09557034 -0.08296805 0.5144289 -0.051547155 0.19687086 -0.11859278 -0.3323194 -0.12852418
-0.009859854 -0.14349611 -0.055525977 0.4712035 0.46891987 -0.16737568 -0.23185696 -0.3668359
-0.47368902 0.09107835 -0.07842116 0.16077703 -0.13130406 -0.25429818 0.05482507 0.062796965
0.06166858 -0.11878537 0.047378194 -0.50772494 -0.38024375 -0.3049849 -0.18445231 -0.22191772
-0.33854103 -0.5239785 -0.2833347 0.27262688 -0.32806814 -0.2534504 -0.09689721 0.19978972
0.084402084 -0.2561251 0.11553142 0.10520471 0.032559972 -0.16618413 0.23059423 -0.046552543
0.54558825 -0.26987645 0.26031664 -0.15414463 -0.2324978 -0.0119739305 -0.055139177 -0.0018306986
0.053927664 -0.025867209 -0.027105758 0.117979616 -0.5416336 0.106109425 -0.2189662 -0.046052746
-0.20970978 -0.15938567 0.023478335 -0.0069979187 0.2440241 0.43634227 0.009256788 0.097054735
-0.20968848 -0.252895 0.11562515 -0.07998561 0.294536 0.26748937 0.021874921 0.12688193
-0.23531744 -0.15644592 0.023079285 -0.31451604 -0.1612759 0.026706731 0.13469054 0.33662468
0.23732212 -0.14770694 0.30957443 0.48665133 -0.14791888 0.37428507 0.4047192 0.06910221
-0.044270154 -0.3347739 0.27956554 -0.326162
00000000: 62ba c3bd 27eb a9bd 9db1 033f 1c23 53bd
00000010: 8498 493e c5e0 f2bd c525 aabe d89b 03be
00000020: 3a8b 21bc a5f0 12be 356f 63bd 9641 f13e
00000030: 4416 f03e 8864 2bbe e96b 6dbe ead1 bbbe
00000040: 5e87 f2be 4987 ba3d 469b a0bd bca2 243e
00000050: 9274 06be 5f33 82be 4190 603d b29b 803d
00000060: 3198 7c3d be45 f3bd a30f 423d 43fa 01bf
00000070: 4faf c2be fb26 9cbe 11e1 3cbe 663e 63be
00000080: 4055 adbe 7423 06bf 3f11 91be c095 8b3e
00000090: 8cf8 a7be 40c4 81be 0b72 c6bd ad95 4c3e
000000a0: 00db ac3d d422 83be bd9b ec3d 9175 d73d
000000b0: 9b5d 053d 2c2c 2abe e520 6c3e e1ad 3ebd
000000c0: acab 0b3f 3f2d 8abe 3948 853e 17d8 1dbe
000000d0: e713 6ebe 4e2e 44bc 9ed9 61bd 0df4 efba
000000e0: 41e3 5c3d 78e7 d3bc e50c debc 4c9f f13d
000000f0: 80a8 0abf e64f d93d ad38 60be cea1 3cbd
00000100: 29be 56be ff35 23be a355 c03c cc4e e5bb
00000110: 74e1 793e 4168 df3e c8a9 173c a2c4 c63d
00000120: 94b8 56be 747b 81be e1cc ec3d 7fcf a3bd
00000130: 6ccd 963e 5ef4 883e 0933 b33c 56ed 013e
00000140: 0ef7 70be 5c33 20be c510 bd3c 3f08 a1be
00000150: 8225 25be 13c8 da3c 51ec 093e 125a ac3e
00000160: 9204 733e 7d40 17be 8a80 9e3e 5d2a f93e
00000170: 0c78 17be 4ba2 bf3e 5b37 cf3e 7685 8d3d
00000180: 9f54 35bd 7c67 abbe 3723 8f3e b5fe a6be

weight_ih_l2 f4 [100, 100]
0.12624006 0.06268303 0.5381413 -0.21913537 -0.42749035 -0.3257506 -0.18147904 0.4856523
0.06259939 -0.013728488 -0.16316421 -0.06342321 0.13932347 -0.39537594 -0.80230093 -0.44275948
0.250373 0.215379 -0.47681803 -0.027869076 0.36752957 -0.58718055 0.1728833 -0.11994848
0.4769176 0.3229517 -0.17041329 0.18389185 0.22415766 -0.014483984 -0.41050455 -0.06573363
0.23828486 -0.13796273 -0.048746113 -0.078506745 -0.942817 0.18660232 -0.35287508 0.7362816
-0.16955903 -0.013588099 0.29925606 0.21665321 -0.087176114 0.33921954 0.35651067 0.56713045
0.9429376 -0.3648884 -0.27909672 -0.0016353598 -0.34924173 -0.06400295 -0.046778243 -0.14416437
0.949415 -0.2204564 -0.24578857 -0.14744015 -0.5221005 -0.27862012 0.1518939 -0.35792616
0.16707629 0.03071785 -0.5209835 0.9242595 0.30579343 -0.422214 -0.023877744 0.6496795
0.02404439 0.40718994 -0.2967193 -0.19269402 0.45653665 -0.3143042 0.5490328 0.1503136
-1.1686743 -0.2263749 0.14147496 -0.06073022 -0.34310344 -0.28705344 0.52730113 0.15155366
0.2338991 -1.181858 -0.2801917 0.4029285 -0.60578966 0.3247443 0.12749171 -0.2440701
0.24315163 -0.2542888 0.08088713 0.25342107 -0.32509342 0.44752693 -0.18554494 0.027351707
0.23212264 -0.19859634 0.09959723 0.1559095 -0.31563973 -0.001307585 0.22816804 -0.13115348
0.08592623 -0.3131903 -0.16195461 -0.3326374 0.45250043 0.04747709 -0.014984261 -0.13569912
-0.30272034 0.42601794 -0.20596395 -0.35011905 -0.3998127 -0.72151583 -0.052669406 -0.21783371
0.24964911 -0.3335976 0.18618469 -0.09691986 -0.09852796 -0.10641643 -0.18710293 0.06495736
-0.093151465 0.28341606 0.3472034 -0.48029897 0.35911542 -0.4034673 0.16856009 0.033533208
0.27289414 -0.3200637 0.14073786 -0.0746476 0.07615203 0.8007897 -0.84649545 -0.28767624
0.30794743 0.31854472 0.23337865 0.14555638 -0.7221333 -0.76209384 0.38236538 -0.07533607
-0.14095807 -0.345045 -0.037854232 0.06781978 0.43432677 0.39031327 0.86937815 -0.48775074
0.08984006 -0.0017641207 -0.117355116 -0.5817781 -0.44330412 0.038372554 -0.2231167 -0.63083655
0.6003373 -0.3191463 -0.25578824 0.67775756 0.2295268 -0.24396586 0.025879646 0.058213845
-0.2573646 -0.08073875 0.24283567 -0.0083876215 0.65055394 0.19618478 0.69377893 -0.21684444
-0.454041 -0.27906296 0.49210024 -0.030240633 -0.74735457 -0.92392325 -0.049304217 0.052999515
-0.03515546 -0.22393286 0.34319335 0.30099076 -0.20572446 -0.1334465 -0.06473574 0.1820332
0.30797228 0.10115425 -0.41726232 0.30240852 0.30611774 0.16325508 -0.14541815 -0.23026845
0.23767318 0.054129206 -0.3874401 0.3532451 -0.069871955 -0.32931888 -0.16360502 0.56505
-0.18849638 -0.13676764 0.057788316 -0.16391155 -0.31702247 -0.11632718 -0.054265406 0.091001816
0.117456466 0.20498525 0.07374089 -0.07723372 -0.03476649 -0.14122687 0.10688175 0.19819948
-0.056774918 -0.008998638 0.22669072 0.4045962 0.018213408 -0.05154033 -0.1713919 -0.22875986
0.15381506 0.027113698 0.39082217 -0.12447034 -0.008445014 0.34621644 -0.43572146 -0.13964015
00000000: 1345 013e f65f 803d a1c3 093f 0665 60be
00000010: 04e0 dabe c8c8 a6be a4d5 39be 6ba7 f83e
00000020: 1c34 803d 74ed 60bc 8514 27be 07e4 81bd
00000030: d0aa 0e3e b76e cabe 9863 4dbf 5fb1 e2be
00000040: e430 803e 508c 5c3e 7e21 f4be b04d e4bc
00000050: d62c bc3e 7751 16bf 5208 313e 8ca7 f5bd
00000060: 8b2e f43e ed59 a53e d280 2ebe 254e 3c3e
00000070: 9689 653e 3b4e 6dbc a72d d2be 5a9f 86bd
00000080: f200 743e 1a46 0dbe 01aa 47bd 25c8 a0bd
00000090: 745c 71bf ae14 3f3e 0bac b4be f37c 3c3f
000000a0: e2a0 2dbe 9ea0 5ebc 1738 993e 57da 5d3e
000000b0: 6489 b2bd 2fae ad3e 9188 b63e 762f 113f
000000c0: 5c64 713f a7d2 babe c4e5 8ebe 9259 d6ba
000000d0: d0cf b2be fb13 83bd 8b9a 3fbd d39f 13be
000000e0: dd0c 733f 53bf 61be 00b0 7bbe 8dfa 16be
000000f0: 61a8 05bf 4ca7 8ebe 138a 1b3e 1942 b7be
00000100: 0c16 2b3e 00a4 fb3c 2d5f 05bf 459c 6c3f
00000110: f590 9c3e 6f2c d8be 429b c3bc 6551 263f
00000120: bef8 c43c 337b d03e 98eb 97be 9551 45be
00000130: 2cbf e93e 7bec a0be 6a8d 0c3f cfeb 193e
00000140: 1f97 95bf d2ce 67be d0de 103e 40c0 78bd
00000150: 41ab afbe abf8 92be 35fd 063f e230 1b3e
00000160: 3f83 6f3e 1f47 97bf 4975 8fbe a54c ce3e
00000170: 0815 1bbf e344 a63e 308d 023e 83ed 79be
00000180: befc 783e 2432 82be 27a8 a53d 68c0 813e
00000190: a572 a6be 4022 e53e 7eff 3dbe b010 e03c
000001a0: 8fb1 6d3e d75c 4bbe a2f9 cb3d bda6 1f3e
000001b0: 889b a1be 4663 abba e2a4 693e 194d 06be
000001c0: 17fa af3d 7b5a a0be 6ed7 25be 734f aabe
000001d0: 23ae e73e 5677 423d 8c80 75bc b6f4 0abe
000001e0: 29fe 9abe 061f da3e 37e8 52be ce42 b3be
000001f0: 40b4 ccbe 43b5 38bf e0bb 57bd cd0f 5fbe
00000200: 04a4 7f3e 4ecd aabe 33a7 3e3e eb7d c6bd
00000210: 07c9 c9bd dbf0 d9bd e997 3fbe 5d08 853d
00000220: 32c6 bebd e91b 913e a5c4 b13e bfe9 f5be
00000230: fadd b73e 4493 cebe 049b 2c3e 1e5a 093d
00000240: c8b8 8b3e 64df a3be 961d 103e d7e0 98bd
00000250: 98f5 9b3d 8e00 4d3f edb3 58bf 4d4a 93be
00000260: 49ab 9d3e 4b18 a33e d0fa 6e3e bb0c 153e
00000270: badd 38bf 9518 43bf 65c5 c33e cc49 9abd
00000280: 5057 10be bda9 b0be 0a0d 1bbd 19e5 8a3d
00000290: 1460 de3e 24d7 c73e 918f 5e3f 77ba f9be
000002a0: 11fe b73d 113a e7ba e157 f0bd 69ef 14bf
000002b0: c2f8 e2be 8a2c 1d3d b478 64be 817e 21bf
000002c0: b5af 193f 2567 a3be adf6 82be 8581 2d3f
000002d0: 1309 6b3e 30d2 79be 8d01 d43c a471 6e3d
000002e0: 4bc5 83be 5c5a a5bd eaa9 783e 3c6c 09bc
000002f0: b48a 263f aae4 483e 7f9b 313f 780c 5ebe
00000300: 1078 e8be 57e1 8ebe 90f4 fb3e 34bb f7bc
00000310: a152 3fbf 3c86 6cbf 38f3 49bd 0516 593d
00000320: 2cff 0fbd a84e 65be 0ab7 af3e 761b 9a3e
00000330: 6fa9 52be 33a6 08be 2c94 84bd e966 3a3e
00000340: 8bae 9d3e f629 cf3d 68a3 d5be 4ad5 9a3e
00000350: 77bb 9c3e 572c 273e 7fe8 14be 7ecb 6bbe
00000360: 9960 733e 96b6 5d3d 8c5e c6be 8bdc b43e
00000370: 0719 8fbd 7c9c a8be 1388 27be 1ea7 103f
00000380: 3205 41be d10c 0cbe 71b3 6c3d 6ed8 27be
00000390: c550 a2be f23c eebd 6745 5ebd 295f ba3d
000003a0: 048d f03d a7e7 513e 7705 973d b62c 9ebd
000003b0: 4f67 0ebd c79d 10be d2e4 da3d cef4 4a3e
000003c0: d18c 68bd 066f 13bc 9d21 683e 3c27 cf3e
000003d0: 4934 953c f41b 53bd 5c81 2fbe 0640 6abe
000003e0: b281 1d3e 8c1d de3c d819 c83e 4eea febd
000003f0: f55c 0abc 4843 b13e e216 dfbe d4fd 0ebe
