Models/Trump_LSTM.pt (torch_old, 730010 bytes, 11 tensors)

weight f4 [100, 100]
00000000: bc70 323f dfa5 ef3c 0e91 903d 3a14 7ebf
00000010: a5c2 97bf 7489 d83e 1481 46be f606 bf3e
00000020: c968 433f e710 5bbd 2446 dfbe 4776 04be
00000030: 33e6 d9be 11b2 d43e 640e d93d feb7 54bf
00000040: b3ed 62bf 5921 95be a835 263f b05c 49bf
00000050: 2fa0 8fbf da7c 203f 5402 c73e a421 8e3f
00000060: e151 68be 5eb6 9c3f 2808 c03e 7f3d 76bf
00000070: d410 a7be b4e5 66be 014b 0f3e d5f4 ebbe
00000080: c598 b63f 597f 703f 9d40 41bf 22af 823f
00000090: 6f96 cf3e 09d0 d83f 099a bb3f ccce c1bf
000000a0: d7ff 49be 423d 933f 34ed 1f3f d62a a0bf
000000b0: 9c40 0d40 0cca 263f 69f6 99bd d881 4d3f
000000c0: 36e7 48bd 24c2 413f 25cf 1d3f eed1 88bd
000000d0: 0d97 9abf d088 7cbb d673 303f 041f 713f
000000e0: 8e31 c33d cb0d 7f3e d176 173f 0e07 c6be
000000f0: 99dc 543e d4f3 b5bd d57d 9b3f 3bff 06bf
00000100: a8fa a1be 1eef 31bf f2d3 3a3e f682 703f
00000110: e926 a73e 094d 133d 13cf ae3f 20b0 b5be
00000120: b5aa a83d 3752 99bf 6368 38be d9b6 983e
00000130: bcea a6bf 7972 f63f b5bb 0cbf b3a8 d7be
00000140: 2fdf 603f 78ae 3bbf 67d1 b23f 5b91 163e
00000150: 3cd9 38be b1de 02bf ca95 cc3e 91b7 873d
00000160: 88ca 853f e27a c83d dc3f af3d bd68 9b3e
00000170: 09a9 fa3f c08f 5cbe 7dae 503f 02f5 263f
00000180: f1dd 1c3f 3121 d0be cb3e 933f 5ef3 093f
00000190: 7873 b03f c8eb 03be 15ea e13f 5996 6abf
000001a0: d715 acbe 5e42 2240 50e8 1f3f 6a72 4e3f
000001b0: a1a9 783f 966f e6bd dffa 883e 0381 33be
000001c0: b263 083f 726c 3e3c 1c58 163f 2610 c73e
000001d0: 8ae2 3fbd d81b 403d 0b17 393f 3327 ffbf
000001e0: 5b9d 5dbf 3e18 383e c017 bb3e da1a 92be
000001f0: 30d3 d63d 2afb be3e 0fd9 9d3e b761 3cbd
00000200: 9d61 39be efa0 abbe df01 30bf 50e8 14be
00000210: 0da4 c8bd 0b65 fb3d 8f87 8abe c028 eebe
00000220: 3b76 983f 28e1 d4be a520 a4bf 9294 013f
00000230: fec4 cebe a3e8 a8bf 53b0 1bbf 130f 873e
00000240: 7edc 1140 0244 af3e c520 df3e b1ce 423f
00000250: a662 64be c1b4 623e 1fc8 643e 7327 f03d
00000260: ce4a a53c 4ff6 4bbe d9e0 97be 3246 81bd
00000270: ce7e efbe e2ff 68bf 7e05 283f 6beb 4fbe
00000280: 163e 993e a1ac af3e eaf9 de3f 6fe5 303f
00000290: 1dd1 fb3e 21d3 2b3d 6a97 623e 4465 363f
000002a0: 8f0e d7bf 5abc eb3e 485c fe3e 260c 28bf
000002b0: 2f61 60be 301e 6abe d31b d0bf 22d2 09c0
000002c0: 0345 c5be 57f6 27bf 4c21 6a3f 82e2 e93d
000002d0: c0ff c6be be30 5c3f 6e81 003f d4ed 9bbd
000002e0: 65e8 13bf e2d3 e3bf 49c1 c63e 52c7 6cbf
000002f0: bbe9 81bf 37b2 3dbf 1064 36bf 097f 95be
00000300: bed5 3abf 6ccb 5c3e b6f1 92bf 0dbe 293f
00000310: 0848 85be 3b11 6d3e 77de 56be c3fa 6bbf
00000320: 08a9 343f 5ca6 cfbe 8927 66be 306d 9a3c
00000330: 5022 263d 0a4d 843f 7cf0 df3f 259e 9f3f
00000340: 6d20 823e acc3 433e 0b60 863d c38d 75be
00000350: 8acc 433f 6acb 10be a3ab a1bf 09b7 1ebe
00000360: 5b9d c23f 01cf c0be 9ffc 923e 3bbd f5bf
00000370: f737 e5bf 2882 933f 5176 643e d59c b8be
00000380: fe7a 55bf e8c3 bb3e 8d71 03c0 473b e1bc
00000390: 1cc0 16bf 277b 03be b195 3dbe 1f1e afbd
000003a0: c3a7 a73f 305b 233f fe9b 913f 3a1b 9dbf
000003b0: 2032 c23f d3a9 90bf 0817 9ebe 844f 193f
000003c0: 4c76 243f 4938 bcbf 7329 703f c34a 6d3f
000003d0: d5f9 b33f ab12 5dbf bd79 5c3f f50f 873e
000003e0: 265c 333f ab26 323e b0bd efbf 7efd 563e
000003f0: 490f eb3e 37cf 44bf e897 9d3f 83ad 093f
0.6970327 0.029253898 0.07058917 -0.99249613 -1.1856276 0.42292368 -0.19385177 0.37309998
0.76331764 -0.053482916 -0.436082 -0.12935744 -0.4255844 0.41542104 0.10598448 -0.8309325
-0.8864395 -0.29127005 0.6492562 -0.78657055 -1.1220759 0.6269051 0.38868964 1.1104016
-0.22687484 1.2243154 0.37506223 -0.96187586 -0.32630026 -0.22548562 0.13993455 -0.4608523
1.4265372 0.9394432 -0.7548922 1.0209696 0.4054446 1.6938487 1.4656383 -1.5141234
-0.19726501 1.1503069 0.6247132 -1.2513072 2.2070684 0.6515205 -0.07517702 0.8027625
-0.049048625 0.7568686 0.616442 -0.06680666 -1.2077347 -0.0038533695 0.6892675 0.9418795
0.09530936 0.24907605 0.59165674 -0.38677257 0.20787276 -0.08884397 1.2147776 -0.527332
-0.31636548 -0.6950549 0.18244913 0.9394983 0.32646874 0.03596214 1.3656944 -0.35485935
0.08235685 -1.1978215 -0.1800857 0.29827002 -1.3040385 1.9253684 -0.5497392 -0.42120895
0.8784055 -0.73313093 1.3970155 0.14703886 -0.18051618 -0.5112105 0.3995803 0.066268094
1.0452433 0.09789063 0.08557102 0.30353346 1.9582835 -0.21539211 0.8151625 0.652176
0.61276156 -0.40650323 1.1503538 0.53886974 1.3785238 -0.12882912 1.7649561 -0.9163566
-0.33610412 2.5353007 0.62463856 0.8064333 0.97133833 -0.11251752 0.267539 -0.17529683
0.5327712 0.011622535 0.58728194 0.38879508 -0.046846904 0.046901554 0.72300786 -1.9933838
-0.8656823 0.17977998 0.36541557 -0.2853611 0.104894996 0.37300998 0.30829665 -0.045991626
-0.18103643 -0.3352122 -0.68752855 -0.14541745 -0.09796915 0.12275132 -0.27056548 -0.46515465
1.1911081 -0.4157803 -1.2822462 0.50617325 -0.40384668 -1.3195995 -0.60815924 0.26378688
2.2790828 0.34231573 0.4357969 0.76096636 -0.22303256 0.22139265 0.22341965 0.11726274
0.020177271 -0.19918178 -0.29663733 -0.06312217 -0.46776432 -0.91015446 0.6563338 -0.20304649
0.2993018 0.34311393 1.7420018 0.6910009 0.49182978 0.041949395 0.22128072 0.7124827
-1.6801318 0.46042138 0.4967978 -0.6564354 -0.21912073 -0.22863078 -1.6258491 -2.1534505
-0.38529214 -0.6561026 0.91457057 0.11420156 -0.38866997 0.86011875 0.50197494 -0.076137215
-0.5777648 -1.7799037 0.3881934 -0.9249164 -1.0149454 -0.7410006 -0.71246433 -0.29198483
-0.72982395 0.21561974 -1.1480014 0.6630562 -0.26031518 0.23151104 -0.20983301 -0.92179507
0.7057042 -0.4055661 -0.22476019 0.018850893 0.040560067 1.033601 1.7495265 1.2470137
0.25415364 0.19117612 0.065612875 -0.23979859 0.76483977 -0.14140096 -1.2630504 -0.1549951
1.5204271 -0.3765793 0.2870836 -1.9198374 -1.7907704 1.1524096 0.22310759 -0.36057153
-0.83390796 0.36672902 -2.0538056 -0.027494086 -0.58886886 -0.12839948 -0.18514134 -0.08550667
1.3098072 0.63811016 1.137573 -1.2273934 1.5171547 -1.1301826 -0.30876946 0.59886956
0.64243007 -1.4704677 0.93813246 0.926922 1.4060618 -0.8635661 0.8612326 0.26379362
0.7006248 0.17397563 -1.8729763 0.20995137 0.459101 -0.76878685 1.2311983 0.5378038

weight_ih_l0 f4 [400, 100]
00000000: 7a84 913f 8441 93be abc8 89bf 35a1 403f
00000010: f6c5 543f 785e 413e 9786 ffbf c08a 0a3e
00000020: 4db3 0bbe 1f8b cabe 8ef9 5abf e2ec 52bf
00000030: cce0 edbf 982d 773e 6bd4 243d 8f74 6bbf
00000040: dfc3 ba3f f6cc d33f c2de f63e 2e8f b23d
00000050: fc31 4bbf 699e 07bf 77b0 40bf 6dd3 6a3f
00000060: f194 97bd 6835 553f d08d e8bc f953 7e3e
00000070: 08f8 e1bd 8767 9c3e f6fc 313e 9e50 85be
00000080: 142d 7e3f bdf7 afbf 5d1e ef3e 4992 0dbf
00000090: a385 04bf 91eb b33e 0250 fabf a58f 503f
000000a0: 384b 0040 607b 96be e5e7 50bf 8cce 553e
000000b0: ce60 44bf 7afe a2bf 9c42 b0bf b403 593f
000000c0: 19f3 f53f c847 543f 9863 723e b55c 1fbe
000000d0: 7ec8 af3f 072a 103f e17e 8fbf 5193 0c3f
000000e0: fcb1 2abf 347f af3e 3a0d 4e3f 2fb9 4e3f
000000f0: d2be 67bf 966f 1140 6e81 0abd 5678 a6bf
00000100: 2f00 853f 6026 cb3f da68 b53e aae4 403f
00000110: 76a8 8abe 908c dfbf 6b22 253b f81e 2bbd
00000120: 58cc c4bf ffc6 8b3f a686 08be 4c9f 9fbe
00000130: 5815 d2be bb54 e63f 52b3 dbbe 74c0 b43f
00000140: 7433 723e 1c55 bebf 7245 003d b6ae a63f
00000150: 882f 7f3e e884 e1bf 08a7 263f a231 9fbf
00000160: 346e d0bf 236e c6bd 783e 17bf bcc2 133e
00000170: 452c 4cbe f95f aebf c326 19bf f439 d5bf
00000180: 06b9 c93e 3420 8b3f 7756 083f 7bed 1d3f
00000190: 873a 0d3f ed45 26bf 1457 193f 76fa ad3e
000001a0: 657a b73e 6bf3 053f b701 1a3f 94bb 4a3e
000001b0: 356c 933e a6fc f83f dff6 7e3e 0c9f 8f3f
000001c0: 9e57 aebf 5a5a 8e3f f7b5 13c0 5dd4 11bf
000001d0: 376a e73d 4843 863f 9fe9 5bbe e3a1 f13e
000001e0: bc9d 053f 9069 0dc0 5abd dd3e 07dc 5040
000001f0: 4237 cfbe 8e49 013e fbf9 b43f 934c ac3f
00000200: 424e 0840 d5b8 c83f 94b9 4d3f 90c6 9e3f
00000210: 3d65 d73e 3c72 d7bf 11f4 e1be 9ab8 bebf
00000220: c4c0 00bf d0f2 9cbd b6d9 a0be 6364 b7bf
00000230: be74 8d3e 8bef ad3f ee3e 613f 4776 1240
00000240: 31cb 3cbf 5581 3cbe e3ab 2e3e 3410 c03f
00000250: ad6f 86be e489 77bf e8ee 3cbf 4beb 833f
00000260: 4c45 0c3f f7fd 043f c3a0 b63f 84e9 783e
00000270: 32fd 66bf c3c1 803f 7c20 2bbf cfdc a53f
00000280: eb57 07be 8ace 35be f472 95bf 690a ffbf
00000290: e895 dfbd 84da e6bd f602 183f c4a3 d5bf
000002a0: e342 ef3e a1fe abbe f716 cf3e c2ba 503f
000002b0: fd8b ac3f 8306 ab3e 5f46 823e 732d 9bbf
000002c0: 3b9e 783f ccf6 77bf 0c37 d33f 2186 983e
000002d0: 2652 e7be 9c47 bfbe a3be 003e aeef f93e
000002e0: 53c5 e2be 5a84 8e3f acc5 abbf 51a7 b23f
000002f0: 7ea0 933f 613f e2be 0b1b b7bf 33a6 463e
00000300: 088d c0be 9e1a b03e 5045 aa3f 9abe d53e
00000310: b1e4 d1bf d5b6 6b3f f959 773b d220 dd3e
00000320: 2c04 8abf 0a78 87bf a9ef c83d 63c2 e8bf
00000330: 6b20 2940 c2e9 ccbe 5c26 01c0 3142 a4bf
00000340: 8ac7 473f 92c1 d5bf c3aa c0bf 3616 d93f
00000350: ecb5 793d ce9d 473e 5724 b2be 276c 01bf
00000360: 37f7 9cbf 5c30 96be 15dc 8d3f 1309 12c0
00000370: 96a5 5cbe 2a0a ac3e 858b b4bf 0a58 5040
00000380: b96e 83be 2848 0740 e4d8 443f 35ee 13c0
00000390: 2b8e 25bf c042 d73f e571 2cbe 34f6 9d3f
000003a0: fe49 7bbe 3fa2 f1bf 2e78 d23f e6b6 febe
000003b0: ec93 a3be 5852 95bf a5c2 0640 ea8f c2bd
000003c0: 5f33 733f 4616 4d3e bfa4 7e3f c743 fabd
000003d0: b5b6 09bf 504b 903f d356 efbe 9670 04bf
000003e0: 8049 9040 8f61 bbbe 9871 753f 1c31 8ebf
000003f0: fc95 81bf 22da 92bf d25e a13e 6661 6840
1.1368554 -0.28760922 -1.0764364 0.7524598 0.83114564 0.18883693 -1.9962949 0.13529491
-0.13642617 -0.39559266 -0.8553704 -0.82392704 -1.8584228 0.24138486 0.04024164 -0.9197473
1.4591025 1.6546924 0.48216826 0.087187156 -0.79373145 -0.5297609 -0.75269264 0.9172886
-0.07401455 0.83284616 -0.028387934 0.2483672 -0.11033636 0.30547735 0.17381653 -0.2603807
0.99287534 -1.3747479 0.46702853 -0.5530134 -0.51766413 0.3514066 -1.9555666 0.81469184
2.004591 -0.29391003 -0.8160384 0.20879573 -0.7671021 -1.273391 -1.3770328 0.84771276
1.9214813 0.8292203 0.23670805 -0.15562709 1.373306 0.5631413 -1.1210595 0.54912287
-0.6667783 0.34276736 0.8048893 0.8075132 -0.90525544 2.2724357 -0.03381484 -1.3005474
1.0390681 1.5871086 0.35431558 0.75348914 -0.2708165 -1.7464771 0.0025197517 -0.04177758
-1.5374861 1.0920104 -0.13332614 -0.3117622 -0.4103191 1.7994608 -0.42910248 1.4121232
0.2365244 -1.4869723 0.03131623 1.3022068 0.24920475 -1.7618685 0.6509862 -1.2437022
-1.6283631 -0.09688976 -0.59079695 0.14429754 -0.19938762 -1.3623039 -0.5982477 -1.6658311
0.39398974 1.0869203 0.53256935 0.6169049 0.5516743 -0.6495045 0.59898496 0.3398015
0.35835567 0.5232455 0.60158867 0.19798118 0.28793493 1.9452102 0.24898861 1.1220412
-1.3620489 1.1121323 -2.3079813 -0.56964666 0.11299556 1.0489283 -0.21475838 0.47193822
0.5219381 -2.209568 0.43308526 3.2634294 -0.40471846 0.12625715 1.4138788 1.3460869
2.1297765 1.5681406 0.80361295 1.2404346 0.42069426 -1.6831737 -0.4413152 -1.4900086
-0.50294137 -0.076635 -0.314161 -1.432751 0.2762813 1.3588728 0.8798665 2.288469
-0.73747545 -0.18408711 0.17057757 1.5004945 -0.26257077 -0.9669478 -0.7380204 1.0306181
0.5479324 0.5195002 1.426781 0.24307829 -0.90230095 1.0059131 -0.6684644 1.295801
-0.13217132 -0.1775457 -1.1675706 -1.9925052 -0.10917264 -0.11272147 0.5937952 -1.6690602
0.46730718 -0.33592704 0.40447208 0.8153497 1.3480221 0.33403406 0.25444314 -1.2123245
0.9711644 -0.9686096 1.6501174 0.29789832 -0.45179862 -0.3735932 0.12572722 0.48815674
-0.4429117 1.113414 -1.34197 1.3957311 1.1533353 -0.4418898 -1.4305128 0.19399337
-0.37607598 0.34395307 1.3302402 0.4174698 -1.6397916 0.92075855 0.0037742837 0.43189102
-1.0782523 -1.0583508 0.098113365 -1.8184322 2.6426036 -0.40022093 -2.0179663 -1.28327
0.7803885 -1.6699698 -1.5052112 1.6959903 0.06096451 0.19493791 -0.3479335 -0.5055565
-1.2262944 -0.2933377 1.1082789 -2.2818038 -0.21547541 0.33601505 -1.4105078 3.2553735
-0.25670412 2.113779 0.7689345 -2.311414 -0.64670056 1.6817245 -0.16840322 1.234076
-0.24539945 -1.8877639 1.6442926 -0.49748915 -0.31948793 -1.1665754 2.1056302 -0.09500106
0.9500026 0.20028028 0.9947013 -0.12219959 -0.53794414 1.1272984 -0.4674593 -0.5173429
4.508972 -0.3659787 0.95876455 -1.1108737 -1.0123897 -1.1472819 0.31517655 3.6309447

weight_hh_l0 f4 [400, 100]
00000000: 31c8 a03e 8181 b83f 4f08 2a3d 4971 f83e
00000010: f81a 40c0 76eb 4fc0 016c 2fbf bbca 2c3e
00000020: 4602 3ebc 149c aa3e 2f7c 90c0 da65 57bf
00000030: 98c1 d63f 5b46 e63b 0c65 e33f 5353 1d3f
00000040: cbc7 35c0 8337 c8bf 0809 da3f 37bb 2840
00000050: 3854 02bf df89 41bf 89c9 5f40 6cc1 c4bf
00000060: a6c8 f0bf 7a5f 28be 7068 ce3f bfa8 343f
00000070: 0773 e93e d16e 1440 fb39 bb3f 0aea edbf
00000080: 45e7 e83f e0e0 18be d92c 81bf 9b44 d43c
00000090: 2511 1dc0 815f 51bb ecc5 083f a3be 26bd
000000a0: 10b2 1abf 5527 1dc0 c837 d5be 03f1 f53f
000000b0: 4882 0a3f ce93 f3bc 86c5 723e 5661 8cbe
000000c0: 5df0 8ebf fe7c f33f ad3c c3bf d9e4 6dbf
000000d0: e323 943f c975 d5bf 5e70 c53f 6392 88bf
000000e0: da62 1f3f 55b0 2d3f b50e 083f f2ce 60bf
000000f0: faed 1cbf 18be 89bf 9feb 8e3f 002b aabf
00000100: d932 15c0 3005 a03f 3073 f9bf 64ce 24c0
00000110: 9e3f f23e a588 a1bf 89cf 473e 2cc6 a3bf
00000120: 6c6e e6bd 935e 15bf f2ca 3b40 b9fa 343f
00000130: 8320 50c0 7b54 f2bf 1db1 0640 2a0a 2cbe
00000140: ed66 4840 a349 0ebc 4a60 e5bf b66f 00c0
00000150: f48c 89bf 3927 643f 0cee 883f 40b4 97bf
00000160: 4e6e e93f 2d01 95be e783 8fbd 8b96 6bbe
00000170: d5c7 0f3f 9bd4 08bf 5b93 adbf 2d55 f33f
00000180: f2c9 b03f 3a6a 2dbf 2111 b3bf bc9b 9b3f
00000190: 264b 973e bfad c8bf 2855 2d40 b5c3 2e40
000001a0: ce61 de3f 3384 713f b1c8 07bf 76b0 833f
000001b0: 8cbd 983f d148 17c0 b3f3 d53f 6a69 953e
000001c0: 1292 54c0 d4d0 4fc0 b408 e3bf 2545 67c0
000001d0: 1b02 29c0 acc5 0dc0 2f90 65c0 af0c c9bf
000001e0: 25ec 16bf ec93 98be be5e fa3e 0008 03bf
000001f0: 8d40 89bf f1ce 59bf 2bec 7d3f fa34 da3f
00000200: 02bb 73bf 53be 3cbf 3c1f de3e 8cd1 1c3f
00000210: e634 0240 cdfd 2cbe acf1 9bbf 86a8 563f
00000220: 5a4d 0540 df4b 093e 7608 3dbf 78b6 7a3f
00000230: 8a7f babe faa0 7bc0 db4a 46be 0a01 483d
00000240: f7ff 14c0 dda0 7940 d243 5840 05fe 58be
00000250: 26b4 0dc0 c420 8240 cc1e 75c0 ee1e 72be
00000260: 60cf 56c0 e470 7dbf 6977 e1bf 8b34 f4be
00000270: 2695 1840 3f89 0d40 2874 70bf 51ef b4bf
00000280: 96ce 90c0 50d2 d53f b6d1 413f dc12 c93f
00000290: 0a5c 75bf 3b35 1dc0 b757 97c0 46d8 c7bf
000002a0: 8725 cd3e 32f6 59be e400 7b40 bf16 7fc0
000002b0: 04e0 24c0 63e4 18bf b7b0 b83f 2ffc 3d3f
000002c0: bf9a 5f3f 4203 c23f 9df3 d53f c7db a2bf
000002d0: 75ef f1be 7e58 12bf e9b2 dbbf 52b0 723f
000002e0: 1325 f8bf 2b36 adbe 30dd 2640 b7bf 6fbf
000002f0: e6ca 12be 4bbe 343f 9450 7f3e 97c3 6c3e
00000300: a40e aa3f 2bf7 ff3f 4662 06c0 7574 8940
00000310: bdb3 08c0 d91e df3f f434 3840 3bc4 4140
00000320: b46b ac3f de61 cfbd b000 973f 38cc 6fbe
00000330: e4aa 3abf a2cd 58bf 4625 ed3e ce40 c4bf
00000340: 6125 2a3f 554c 9bbf 3f12 ea3f d9f4 d5bf
00000350: 68f5 a33f d885 853f 7d8d a83f 9c4d a6bf
00000360: 42a2 f9bf 61f6 debe e57d 403d 32d0 db3f
00000370: 8412 f2be fb1e 3740 00e3 873f 1111 5b3f
00000380: bb88 7b3f 5109 3dbf 1f0c 3640 235e 713f
00000390: 0f6d 5440 ea6c 7040 becd aabf f25c 27c0
000003a0: c782 9d3f 269f 01bf ffc8 65c0 e229 9ebf
000003b0: 7ec8 e23f 8206 7f3f dd57 233f 6378 02c0
000003c0: 7347 00c0 c6ce 073f f0d7 273d dc7d 3540
000003d0: 4041 9abe d270 0e3f 3375 6e40 3cb9 cd3f
000003e0: ddf3 aebe 84a7 0e3f 0dfb 2740 3025 19c0
000003f0: ffc3 71c0 a745 803f 7c7f 373e 543a 633f
0.31402734 1.4414521 0.04151183 0.4852393 -3.001646 -3.2487464 -0.68524176 0.1687421
-0.011597222 0.33322203 -4.515159 -0.8413979 1.677783 0.00702743 1.7765212 0.6145527
-2.8403194 -1.5641941 1.7034006 2.6364267 -0.5090976 -0.75601 3.4966757 -1.5371528
-1.8811233 -0.16442671 1.6125622 0.70569986 0.4559557 2.3192637 1.4627069 -1.8587048
1.8195578 -0.14929533 -1.0091811 0.02591162 -2.4541714 -0.0031947794 0.53427005 -0.04070915
-0.6042795 -2.4555256 -0.4164412 1.9214176 0.54105043 -0.029733565 0.23708162 -0.2741801
-1.1167103 1.902252 -1.5252892 -0.9292732 1.1573452 -1.667657 1.5424917 -1.0669674
0.6226021 0.67847186 0.5314744 -0.87815773 -0.61300623 -1.0761137 1.1165656 -1.3294373
-2.3312285 1.2501583 -1.9488277 -2.575097 0.4731416 -1.2619826 0.19512762 -1.2794852
-0.1125153 -0.58347434 2.9342618 0.7069507 -3.2519844 -1.8932031 2.1045601 -0.16800752
3.131282 -0.008684549 -1.792001 -2.0068183 -1.074614 0.8912235 1.0697646 -1.1851883
1.8236787 -0.2910246 -0.0700758 -0.23006646 0.56164294 -0.5344941 -1.3560594 1.9010369
1.3811629 -0.67740214 -1.3989602 1.2156901 0.2954952 -1.5678023 2.7083225 2.730695
1.7373598 0.94342345 -0.53040606 1.0288227 1.1932845 -2.3638194 1.6714996 0.29181987
-3.3214154 -3.2471209 -1.7737031 -3.6135952 -2.6407535 -2.21519 -3.5869253 -1.5706996
-0.5895408 -0.29800355 0.48900408 -0.5118408 -1.0722824 -0.8508139 0.9918849 1.7047417
-0.95207226 -0.7372791 0.43383205 0.61257243 2.0344787 -0.16893692 -1.2183127 0.83850896
2.0828462 0.13407849 -0.73841035 0.97934675 -0.3642543 -3.9317002 -0.19364493 0.048829116
-2.3281229 3.9004433 3.3791394 -0.21190651 -2.2141204 4.0664997 -3.8300047 -0.23644611
-3.3564072 -0.9900038 -1.7614566 -0.47696337 2.3841033 2.2115018 -0.9392724 -1.4135534
-4.525218 1.6704807 0.7571062 1.570888 -0.95843565 -2.456374 -4.7294574 -1.5612876
0.40067694 -0.21285322 3.9219294 -3.9857633 -2.5761728 -0.5972349 1.4428929 0.74212927
0.873455 1.5157244 1.671497 -1.2723321 -0.47253004 -0.5716628 -1.7163974 0.94800293
-1.9386314 -0.3383039 2.6072502 -0.9365191 -0.14335212 0.70602864 0.24933082 0.23121487
1.3285718 1.9997305 -2.0997481 4.295466 -2.1359704 1.7431289 2.878232 3.027602
1.3470368 -0.101260886 1.1797085 -0.23417747 -0.7291701 -0.8468877 0.463175 -1.5332277
0.66463286 -1.213267 1.8286818 -1.6715347 1.2809267 1.0431471 1.3168179 -1.2992435
-1.9502642 -0.43547347 0.046995062 1.7172911 -0.4727975 2.861266 1.061615 0.85572916
0.9825551 -0.7384234 2.8444898 0.94284266 3.3191564 3.7566476 -1.3344038 -2.615048
1.2305535 -0.50633466 -3.5903928 -1.2356532 1.7717435 0.99619305 0.63805944 -2.0385978
-2.004361 0.53049886 0.04097742 2.8358068 -0.30127907 0.556409 3.7259033 1.6072154
-0.34170428 0.5572436 2.624698 -2.3928947 -3.7775877 1.0021256 0.17919725 0.88760877

bias_ih_l0 f4 [400]
00000000: e4b6 e23f dfb8 da3f 6b0b d93f bde1 a93f
00000010: 72cb d13e f43e 1240 19d1 243e 777e 0a3f
00000020: bd7d 543f 5d9b ae3f 2744 ff3e 3a2c 843f
00000030: 1c09 47bf 5d80 d23e d35e 3c3f 271c 0a40
00000040: 5cdb f73d ee4e 4e3f 3e11 af3f c9bd 9b3d
00000050: ab69 393f 143d 993f 0f9a f8be 08d8 2fbf
00000060: b8b6 c13f fb6d 3940 7992 793f 1d72 f43f
00000070: 2d3c c13e 47cf d63e 18d0 453e f74a 093e
00000080: 90fe 87bf e58c 233f dead f03f bde8 153f
00000090: 2dd7 b03f 84cd 0840 a1f3 873f 95d4 783f
000000a0: 1bd1 773f 6be3 8e3f f66b ca3e 2aeb 3b3f
000000b0: 8c11 123e d630 6dbe 6adc d13f 4aaf 4fbd
000000c0: 4668 953f 8469 d53f 4de8 1d3e fd0d de3f
000000d0: cb32 49bd ea3a ba3f 29a1 003f 3582 2b3f
000000e0: 1c31 943f 918f 9a3f 1c42 0540 f4cf 833f
000000f0: c0d7 d83f 0ac0 f73a d426 8a3f 4403 ae3f
00000100: fa22 b23f 6433 c63f ff51 0840 bd56 7f3f
00000110: 58fd e93b 2cdb fa3f 86b5 1a40 fd62 c93f
00000120: 4469 1d40 edaa 2340 1504 6b3f c6a4 30bf
00000130: 5a47 583f 6558 0540 620e 233f 8c0a 633f
00000140: ad19 223f d103 4140 fdcf d5bf c479 4f3f
00000150: 0dce c83f 8fe7 c93e 31fa 513e ae1c 933d
00000160: da66 3540 be4d c7be 93b7 453f bcb3 8d3f
00000170: b087 c03f fcaf 21be 3ffc db3f ce2a d33f
00000180: a14b 493f 75dd 163f 81d5 1c40 4210 c73f
00000190: f1b6 85bf 6a42 e13c b02c e73e dc67 aabf
000001a0: d73d fd3e 25a8 2a3f 14e4 64bf 3824 90be
000001b0: 0c58 f33e 3e50 36bf 7965 563e a23c d8be
000001c0: 1eb8 103f e6ed 95bf 5ecd 753f 076c ba3f
000001d0: 8244 eabd df35 7d3e 7c89 a53e ab00 5abe
000001e0: 50bb e3be 5c8e acbe e776 37bf d361 103f
000001f0: 02a7 0ebf b464 c13e c03c ee3e 597d 103f
00000200: 4ede ad3e 7035 ebbe d35d e73e de04 4b3f
00000210: d182 54bf 936a 9fbe 4ab5 473f 928c 2b3f
00000220: 6d19 cebd 7dfc 7f3d 0075 e0bd 118e 24bf
00000230: be18 2c3f fb1b 773f 9937 06bf 6705 523f
00000240: 4305 933e 1842 d3bd f235 283e 7fbf f73e
00000250: f212 d53e 2627 cd3f 4b1e 13be a6a7 d6bf
00000260: 3c4f 7f3d e642 8f3f 970c fabe c9b6 92bf
00000270: 87f8 e23d 02a4 b3be 4858 4d3f 98af 2e3e
00000280: 5a16 7d3f 6faf 14be 67ae 1cbf 2aa6 9f3f
00000290: e478 f03c 0663 f03e 66a9 2d3f b8f0 943e
000002a0: 51df 1d3f 5ba1 a0be 7330 b93f b63d 7abf
000002b0: 57b9 8c3f 55ac 893f 483f 05be add5 213f
000002c0: 0710 5c3f 2f57 84bd d2cd 943e 5e7e 803f
000002d0: 10f9 1f3f ea97 a03f ef9a b4be d120 b4bf
000002e0: 16ca bdbf 6419 0b3e f310 61be 4e69 7fbe
000002f0: 949f 043f ee55 00bf 8ad1 593f c87a 413e
00000300: e2d1 8dbe ce99 dd3c 1971 78bf 6d7d 053f
00000310: 2366 583f 466a ad3e c9a2 a23f 27f7 a63f
00000320: ac35 2e3f 0096 0340 7449 32c0 ab37 aebe
00000330: 41ce 3540 3667 1240 66f6 163f 3032 56be
00000340: 65e8 b03e 07cf 04c0 10fa 89bc 4fc0 bdbe
00000350: d36d c7bf 3b32 823e fa47 c3bf 8989 ed3f
00000360: 2c97 9dbf 11f8 0dc0 8aa5 0fc0 f2bb 4040
00000370: b816 afbf 5e3a 233d c9a9 2d40 a9fc c4bf
00000380: 60eb ae3e ce16 09c0 582a d63f d502 4f40
00000390: 5a29 3f3f d7aa ec3e d2ec c2bf 5c61 0340
000003a0: 1b26 3340 5f2d cbbf 71c3 0140 0549 1640
000003b0: 8b91 b1be f4c8 3a40 6474 663f 3e99 413e
000003c0: 64ac 1740 fed6 01c0 b8b3 9cbf c2bb 2dc0
000003d0: 292d 3040 e846 b1bf 7be1 10c0 af7e a23d
000003e0: 9a73 0cc0 cc6c cc3f db88 db3d 556c 2a3f
000003f0: 052b 04c0 00f7 21c0 1643 c2be 9307 1abf
1.7712064 1.7087668 1.695661 1.3272015 0.4097553 2.2850924 0.1609539 0.5409922
0.8300436 1.3641163 0.49856684 1.0325997 -0.77748275 0.41113558 0.7358219 2.1579683
0.12102386 0.8058919 1.3677137 0.07604558 0.7242686 1.1971765 -0.48555037 -0.6868901
1.5133886 2.8973377 0.97489125 1.9097325 0.37741223 0.41955015 0.19317663 0.13407503
-1.0624561 0.63886863 1.880306 0.58558255 1.3815666 2.1375437 1.0621225 0.97199374
0.96803445 1.1163152 0.39535493 0.73405707 0.14264506 -0.2316316 1.639539 -0.050704278
1.1672447 1.6672826 0.15420647 1.7348019 -0.049120706 1.4549229 0.5024591 0.66995555
1.1577487 1.2075063 2.08216 1.0297837 1.6940842 0.0018901837 1.0793099 1.3594747
1.3916924 1.5484433 2.1300046 0.9974173 0.0071407966 1.9598136 2.4173293 1.5733334
2.45955 2.5573075 0.91803104 -0.69001424 0.84483874 2.0835202 0.6369382 0.8868797
0.6332043 3.015858 -1.6704098 0.81045175 1.5687882 0.39434478 0.20505597 0.071832046
2.8344026 -0.389265 0.7723324 1.1070476 1.5041409 -0.15789789 1.7186354 1.6497438
0.78631026 0.58931667 2.4505312 1.5551836 -1.0446454 0.027497489 0.4515128 -1.3312945
0.49461243 0.6666282 -0.8941052 -0.28152633 0.47528112 -0.7121619 0.20937146 -0.4223376
0.5653094 -1.1713226 0.9601649 1.4564217 -0.11438848 0.24727581 0.32331455 -0.21289317
-0.44478846 -0.33702362 -0.71665806 0.5639927 -0.55723584 0.37772143 0.46530724 0.56441265
0.33958668 -0.45939207 0.4518877 0.793043 -0.8301211 -0.31135997 0.78011 0.6701137
-0.10063443 0.06249665 -0.10959816 -0.64279276 0.67225254 0.9652707 -0.52428585 0.82039493
0.28714952 -0.10315341 0.16426829 0.48388287 0.41616017 1.6027572 -0.14367025 -1.6769912
0.062331423 1.1192291 -0.4883773 -1.1462032 0.11082559 -0.35086066 0.8021283 0.17059171
0.9886223 -0.14520048 -0.61203617 1.2472584 0.02935452 0.4695055 0.67836607 0.29089904
0.6166888 -0.31373104 1.446791 -0.97750413 1.0994061 1.0755717 -0.13012421 0.6321667
0.85961956 -0.064619415 0.29063278 1.0038564 0.62489414 1.254636 -0.35274455 -1.4072515
-1.4827297 0.13583905 -0.21979122 -0.24942514 0.51805997 -0.5013112 0.85085356 0.18894494
-0.2769919 0.027050879 -0.97047573 0.5214451 0.8453085 0.33870143 1.2705928 1.3044175
0.68050647 2.0560303 -2.7857332 -0.34026846 2.8407137 2.2875495 0.58969724 -0.20917583
0.34552303 -2.075136 -0.016842872 -0.37060782 -1.5580391 0.25428948 -1.525634 1.8557597
-1.2311759 -2.2182658 -2.2444787 3.0114713 -1.3678808 0.039850585 2.7134879 -1.5389606
0.34163952 -2.142017 1.6731672 3.2345479 0.7467247 0.4622409 -1.5228522 2.0528173
2.7992008 -1.5873221 2.0275538 2.3482068 -0.34681353 2.9185152 0.9002135 0.18906114
2.369897 -2.028747 -1.2242346 -2.7145848 2.7527564 -1.3849764 -2.2637622 0.07934319
-2.1945558 1.5970702 0.107194625 0.6657155 -2.0651257 -2.5307007 -0.37941808 -0.6016781

bias_hh_l0 f4 [400]
00000000: 99d6 e63f b804 d53f c691 e33f d676 9b3f
00000010: b434 ff3e ad65 1640 6c95 d33d 9522 f63e
00000020: b1aa 773f 395f a83f 1a20 af3e 4c6b 843f
00000030: 51c7 22bf ba9c fb3e dd77 313f 0538 0640
00000040: a495 813e b2a9 4e3f 7296 b03f 39cc 743e
00000050: a2fc 083f 25b6 a23f 113e dabe 18ed 40bf
00000060: 610d ae3f 91ab 3c40 c536 7b3f 6d2a f83f
00000070: adf6 c13e 6fcc 823e e75d 123e 8313 c83d
00000080: d564 89bf 3e84 103f 2159 f13f 0ff3 df3e
00000090: 707e b53f d1cd 0240 7d79 843f 8898 793f
000000a0: e9a8 613f 72ca 993f c213 eb3e bb7c 483f
000000b0: b4f6 543e c090 9dbe d256 c33f 0f60 5f3d
000000c0: 4fe3 883f 9dba da3f b4c7 853e 986d e23f
000000d0: c77b dabb 8494 bc3f 8116 e63e 3971 3a3f
000000e0: 9217 913f e428 a23f 8d89 0540 540b 793f
000000f0: 0bfc ca3f f7f6 f1bd 0e45 923f 0377 b63f
00000100: 0f91 b03f 69eb c03f 0381 0b40 12a3 6e3f
00000110: 6ef7 39bd e24d fd3f c668 1340 e422 be3f
00000120: 46c8 1940 b8e6 1d40 2bdc 773f b9bc 3dbf
00000130: bd23 583f 3695 0b40 2f56 093f 0700 5d3f
00000140: aac5 413f eb65 4440 9001 ddbf b54a 4d3f
00000150: f072 bd3f 717d fa3e ba91 533e 97f5 8cbc
00000160: 3020 3440 7c87 e4be c527 3b3f 177f 823f
00000170: e1b5 bc3f 36c5 89bb 4727 d63f a4d3 e03f
00000180: 66d4 4e3f ec3a 1d3f 7900 1b40 dfa6 b83f
00000190: dced 8fbf 5455 c23d 87a9 943e a2e1 9cbf
000001a0: a4fc 113f 3a1f 2b3f 7a03 62bf 7ca6 f2be
000001b0: 3dc6 c33e 4b40 42bf e166 9c3e 79d6 0fbf
000001c0: 9253 243f ca1a 99bf 739e 773f a256 b83f
000001d0: 0135 89be 97a7 673e e2c9 8b3e 3c9b 21bd
000001e0: 8aa0 e6be 215c 58be e4c0 50bf ff4d 153f
000001f0: 87e4 03bf ef9e 873e 8c1a 083f af88 313f
00000200: 87ad 043f 0f9c 0fbf 3d76 bc3e 6a21 503f
00000210: 3c0f 4cbf c23e 8abe 0126 2c3f 3973 fd3e
00000220: 3331 52bd e903 f63d aad0 14be 5874 1cbf
00000230: 6c77 423f d8c2 7d3f 8d2a efbe d9ab 5f3f
00000240: f036 c93e 8f1f 94bd 84d0 7a3e 8b20 fd3e
00000250: 2686 d03e 530f b63f adf6 e9bd 28d2 ccbf
00000260: 3347 553d 118e 803f dbb5 17bf 9159 83bf
00000270: bd6e a83d 05e6 febe f785 443f 8731 783e
00000280: d0c6 813f c233 0ebe 049f 03bf 45e5 973f
00000290: e38c 893d 91ab fb3e 8d77 273f e377 3e3e
000002a0: cb35 133f 31a2 acbe 35a8 ab3f 50f3 80bf
000002b0: 38f6 6e3f e469 893f 2a72 9dbd 3735 fb3e
000002c0: 0f89 793f c0e3 f4bd b8b0 b33e 0a74 813f
000002d0: f2bf 2f3f 910b 963f 9d47 94be f7e1 c1bf
000002e0: d0ab b6bf 9304 503e 4ceb abbe 022d 92be
000002f0: 33e5 fc3e be65 01bf bcae 2d3f 0575 793d
00000300: e370 a7be dbf1 1dbd 0e80 71bf 861a df3e
00000310: ad89 4f3f 20b9 493e 089f a53f efbd a83f
00000320: 9895 323f 8b8e fd3f da17 34c0 fac8 bebe
00000330: 42f7 3c40 9f24 1940 aa14 333f 56a8 68be
00000340: 3ba0 c83e 55b0 0bc0 cb10 85bd e69d 01bf
00000350: 2efc c9bf b196 5d3e 8260 c2bf d9eb f43f
00000360: 15e3 a7bf 2672 0fc0 d565 15c0 b8c6 4540
00000370: 3e43 a7bf e178 d13d 615c 2640 b261 c8bf
00000380: 32df 023f ef5d 04c0 fa55 e73f a2a1 5040
00000390: c99e 363f 79ef c93e 581b c0bf 01cc 0140
000003a0: 7da7 3140 1c4f dcbf 0c62 fb3f adc9 1940
000003b0: b185 e4be c518 3c40 3855 3f3f 10de b13d
000003c0: 600a 1440 7abc 01c0 ab35 9fbf c8b8 2bc0
000003d0: e485 3340 0be8 b0bf 4e40 13c0 0b5f 0b3e
000003e0: 9fde 0cc0 5023 c53f f146 fabc c7d8 393f
000003f0: 0bd8 07c0 a820 26c0 7963 b7be 5b08 14bf
1.803424 1.6642065 1.7778862 1.2145641 0.49844897 2.3499558 0.10331234 0.4807326
0.9674483 1.315406 0.3420418 1.0345244 -0.6358538 0.4914301 0.6932352 2.0971692
0.2530948 0.80727684 1.3795912 0.2390603 0.5351049 1.2711836 -0.42625478 -0.75361776
1.3597833 2.9479716 0.98130447 1.9387947 0.3788351 0.25546595 0.14293633 0.097693466
-1.0733896 0.56451786 1.8855325 0.43740126 1.4179211 2.043812 1.0349575 0.9749837
0.8814836 1.2014906 0.45913512 0.78315324 0.20797235 -0.30774498 1.526087 0.054534968
1.0694369 1.70882 0.26128924 1.7689695 -0.0066675874 1.4732823 0.44939044 0.72829014
1.1335318 1.2668729 2.0865204 0.9728291 1.5858167 -0.11814683 1.1427324 1.425507
1.3794268 1.5071841 2.1797493 0.93217576 -0.045401983 1.9789393 2.3032699 1.4854398
2.4028487 2.467207 0.96820325 -0.7411609 0.8442953 2.180982 0.5364713 0.86328167
0.75692236 3.0687206 -1.7266102 0.8019212 1.4800701 0.4892383 0.20661059 -0.01720695
2.8144646 -0.44634616 0.7310756 1.0195035 1.4743005 -0.0042044176 1.6730736 1.7564588
0.80792844 0.6141803 2.4219038 1.4425925 -1.1244464 0.09488931 0.2903559 -1.2256358
0.57026124 0.6684452 -0.88286555 -0.47392642 0.3823718 -0.75879353 0.3054724 -0.56186634
0.6419002 -1.19613 0.9672615 1.4401438 -0.2679825 0.22622524 0.27302462 -0.039454684
-0.45044357 -0.21128894 -0.8154433 0.5832214 -0.5152058 0.26488444 0.5316551 0.6934919
0.5182728 -0.560975 0.3680896 0.81300986 -0.79710746 -0.27001005 0.6724549 0.4950197
-0.05131645 0.120124646 -0.14532724 -0.61115026 0.75963473 0.9912543 -0.4671215 0.87371594
0.39299726 -0.07232582 0.24493605 0.4943889 0.40727347 1.4223427 -0.11424003 -1.6001635
0.052069854 1.0043355 -0.59261864 -1.0261708 0.08224247 -0.49784866 0.76766914 0.24237643
1.0138798 -0.13886932 -0.51414514 1.1866843 0.06716325 0.49154332 0.65416795 0.1860042
0.57503957 -0.33717492 1.3410708 -1.0074253 0.9334445 1.073544 -0.07687791 0.49064037
0.9747476 -0.11957502 0.35095763 1.0113537 0.6865226 1.172228 -0.28960887 -1.5147084
-1.4271183 0.20314245 -0.33577955 -0.28549963 0.49393615 -0.5054587 0.6784475 0.060902614
-0.32703313 -0.03856073 -0.9433602 0.43574923 0.8106945 0.19699526 1.2939157 1.3182963
0.6975951 1.9809126 -2.8139558 -0.37262708 2.9525914 2.3928602 0.69953406 -0.22720465
0.39184746 -2.1826375 -0.06497344 -0.5063156 -1.5780084 0.21639515 -1.5185702 1.9134475
-1.3116175 -2.241342 -2.3343403 3.0902538 -1.3067396 0.10228134 2.5993884 -1.5654814
0.5112182 -2.0682333 1.8073113 3.2598653 0.71336037 0.39440516 -1.5008345 2.0280764
2.7758477 -1.7211642 1.9639297 2.4029343 -0.44633248 2.9390118 0.7473941 0.08684933
2.3131332 -2.0271287 -1.2438253 -2.6831532 2.805047 -1.3820814 -2.3007998 0.13610475
-2.2010877 1.5401402 -0.030551406 0.725964 -2.1225612 -2.5957432 -0.3581808 -0.5782525

weight_ih_l1 f4 [400, 100]
00000000: 8eb0 893d 25fc 1d40 2646 89bf 90aa 273f
00000010: f6ed 69be 758c 37bf d2e6 c3be 8e55 0840
00000020: 481f b2bf c53a d33c f80c 9abf d0b4 613f
00000030: 0d89 513f 4fa2 09bf 4e58 09c0 1e6f 603e
00000040: 80ba 1bbf dd0b 8ebe ad06 bfbf 3bb0 763f
00000050: 0d7d 323f 141b c83f a539 c33f 4ed7 a6bf
00000060: 7aba d5bf 36b7 5a3f 0b47 b2bf 4a5b 30c0
00000070: 4e4f 19be 3fa5 0940 ea53 a8bf 4302 a4bd
00000080: 3cb9 20bf cfea 813d 6596 03c0 a3ca 063f
00000090: ca3c 97bd f4f8 41bf 5c5c 013e 429b 9f3b
000000a0: 9d76 87bd d674 0cbf 9541 3440 9f43 18bf
000000b0: 22d7 0cc0 d1fc 723f df4d 853e fb1a 5dbe
000000c0: 7a03 fcbf 87be 3140 b156 d5bf d404 fc3f
000000d0: 7b9e bc3e 203c 02c0 96fd 32bc 70bc 82bf
000000e0: 7503 91bd 1c89 d63e 21fa 0940 90fb f93f
000000f0: 55f0 2d40 09d0 f5bf 6439 cd3e 2e06 a53e
00000100: cb49 16c0 6f64 b5bf b389 8b3e d336 dfbf
00000110: a309 aebd 6e97 b83f ebda b23e 3e10 543f
00000120: 491c bcbf 8268 263e 0f4a 803e a933 a3bf
00000130: 305a 24bf ff1e 18bf 7ede ddbf b3df b9be
00000140: 09aa 643d 69f4 d3bf 2814 f7bc 80d3 8a3f
00000150: d572 71bf a530 2040 c397 a53f d0f8 e63e
00000160: a1cd 6f3f af17 1cc0 bae5 3540 f588 8bbe
00000170: ecee 583f aed5 653e a7ea 2abf e5a4 c33e
00000180: 0995 cc3f c647 9abf 8609 f83e af40 163f
00000190: 3309 cd3e ea6a d2bf 32ae 1dc0 1459 863f
000001a0: 94f1 18be 87d8 a2bf cbf6 b43f 7f00 13bf
000001b0: 645c dc3f 913c b4bf 3dd1 973f cd4c 1f3f
000001c0: aa08 d03f 3532 ab3f d4fd 713f 9c25 923f
000001d0: 256b a1bf e86e 7e3f 7dc6 0dbe 733f 7a3e
000001e0: 34ae 9abe 734d 22be 57bf a0bf 3876 fa3f
000001f0: c23e 923f 75c4 d9be 90b6 79bf bf59 d93d
00000200: 2cf5 d23e cffa edbf 03f6 babf 57da 8e3d
00000210: bcff 15c0 cc2d 6fbf 739b 103e 97d4 5cbf
00000220: d499 40bf 1c9d 36bf 40f8 afbf a252 07be
00000230: 04a1 943f 1682 fabc aac1 97be 456b 803f
00000240: 2dde 9c3b 14cf 883f edb8 b3bd fba3 c1be
00000250: 98ac 5c3d 12bf 13bf e295 793f 620f 2d3e
00000260: d240 2a3e bc48 08bf 01ec ffbe 7f08 023f
00000270: 5d02 b33f 28d3 13bf f283 5c3f 2546 93bf
00000280: 5eb8 c83f 9b19 10c0 191d 733f 1187 9a3f
00000290: 4eb4 443e 30e9 5cbf d729 fbbe 8d5f 5dbf
000002a0: ef61 743f 0277 a33f 8ed7 8d3f d7bd 64be
000002b0: 3a54 a83f fbc2 a6bf a045 f4be 48dd 24c0
000002c0: 43cc c3bf f58c 2cbe 29df e33f aaf3 9dbf
000002d0: 96f7 c93f 2b76 b93f 378f 7fbf 8846 b4bf
000002e0: c1c4 01be ec64 a43f 30e7 22bf 690f fabe
000002f0: 6b64 71c0 94fa 2d40 c5ac 233f ad29 fa3e
00000300: 6f66 993c 8b37 693f 369e 2c3e 9887 04c0
00000310: 7e13 23c0 ad46 3d3f 9f5b fbbe 32ed 83be
00000320: d584 cb3f 0bb2 de3d 32b0 923f 26e6 433a
00000330: fb1d b7be 94d1 003f ecf0 793e 46d1 89bc
00000340: 94e6 06bf 6c43 37bf 5253 08bf 4763 a23d
00000350: 1bea 133e 9fe5 803f afea 80bf 812b 8e3f
00000360: 104b 1cbe c70a dcbf 89cc 833e 4356 82be
00000370: 0ff2 b9bf 17b4 823f 6e92 cbbe bc07 da3e
00000380: 000b e33f 6905 833e d546 27be f76a 2dbc
00000390: 0161 a73e 9d9d a4bf e763 a4bf 626c 12bf
000003a0: e58d 873f fd94 9fbf e336 b83f 5b05 dcbe
000003b0: fd99 6d3f 6d69 b73f b9c4 e83e f91f d9be
000003c0: a0f0 4b3e 082b 44bf 269e f43e d2c2 3cbf
000003d0: 237a 0dbe 5ac5 1540 ddfd e73d 8a93 223f
000003e0: a68e 413f 4244 f83e 9a5d 9abf cb6d e03f
000003f0: a2ae 053f 3621 3c3f e6ae c13d 5c45 53bf
0.06723128 2.4685147 -1.0724533 0.6549463 -0.22844681 -0.71698695 -0.3826204 2.1302218
-1.3915796 0.02578486 -1.2035208 0.8816652 0.8184975 -0.5376329 -2.1460147 0.21917388
-0.6083145 -0.27743426 -1.4923912 0.96362656 0.6972206 1.5633264 1.5251967 -1.3034456
-1.6697533 0.8543581 -1.392793 -2.7555718 -0.14971659 2.1507108 -1.3150609 -0.08008244
-0.62782645 0.06343614 -2.0560544 0.5265295 -0.073846415 -0.757705 0.12632889 0.004870803
-0.066144206 -0.5486578 2.8165028 -0.5947818 -2.2006307 0.9491702 0.26035973 -0.21592323
-1.9688561 2.7772539 -1.6667081 1.9688973 0.3683966 -2.0349197 -0.010924717 -1.0213757
-0.070807375 0.4190148 2.1558917 1.9529896 2.7177937 -1.9204112 0.40082848 0.32231277
-2.348254 -1.4171275 0.27253494 -1.7438606 -0.08497932 1.4421213 0.34932646 0.82837284
-1.4696132 0.16250804 0.25056502 -1.275014 -0.64200115 -0.59422296 -1.7333524 -0.3630348
0.05582622 -1.6558963 -0.030160978 1.0845795 -0.94315845 2.502969 1.2936939 0.45111704
0.9367314 -2.4389455 2.8421464 -0.27252927 0.84739566 0.22444794 -0.667643 0.38211742
1.5982982 -1.2053154 0.48444766 0.5869245 0.4004608 -1.6438878 -2.463757 1.0495934
-0.14935905 -1.2722329 1.4137815 -0.5742263 1.7215695 -1.4080983 1.186073 0.62226564
1.6252644 1.3374697 0.94527936 1.1417727 -1.2610823 0.9938798 -0.13845249 0.24438266
-0.3021103 -0.15849857 -1.2558392 1.9567327 1.1425402 -0.42532697 -0.97544193 0.10612821
0.41202676 -1.8592166 -1.4606327 0.06975239 -2.3437338 -0.93429255 0.14121799 -0.86261886
-0.75234723 -0.7133348 -1.3747635 -0.13215116 1.1611638 -0.030579608 -0.2963994 1.0032736
0.0047872276 1.0688195 -0.08775506 -0.3782042 0.053875536 -0.57713425 0.9749433 0.169004
0.1662629 -0.53235984 -0.49984744 0.50794214 1.3985096 -0.57744074 0.8613883 -1.1505781
1.5681264 -2.2515628 0.94966274 1.2072469 0.19209406 -0.86293316 -0.4905536 -0.86473924
0.95461935 1.2770693 1.1081407 -0.22338043 1.3150704 -1.3028253 -0.4770937 -2.576006
-1.5296711 -0.16850646 1.7802478 -1.2339985 1.5778682 1.4489187 -0.99827904 -1.4084024
-0.12672712 1.2843299 -0.63634014 -0.48839882 -3.771754 2.718419 0.639355 0.4885992
0.018725602 0.91100377 0.16857228 -2.070776 -2.5480647 0.7393597 -0.4909334 -0.25766903
1.5899912 0.10873803 1.146002 0.00074729545 -0.3576506 0.5031979 0.2440831 -0.016823422
-0.52695584 -0.7158725 -0.53252137 0.07929092 0.14444773 1.0070075 -1.007162 1.1107026
-0.15263009 -1.7190789 0.25741985 -0.25456437 -1.4526995 1.0211209 -0.39760154 0.42584026
1.7737732 0.25590065 -0.16335614 -0.010584584 0.32691196 -1.28606 -1.2842988 -0.5719663
1.0590178 -1.2467343 1.439175 -0.42972836 0.9281309 1.4329048 0.45462587 -0.42407206
0.1991601 -0.7662816 0.47776908 -0.7373477 -0.13816123 2.3401704 0.113277175 0.63506377
0.7560829 0.48489577 -1.2059815 1.7533506 0.52219594 0.73488176 0.09457187 -0.8252771

weight_hh_l1 f4 [400, 100]
00000000: 875b e140 8631 363f 490e 1840 eaf5 a73f
00000010: 45cf 28c0 84e8 383f ef2c 7fbe 0b80 303e
00000020: dbaa f4be 2eac eebe a7ba 23bf 97f1 c83f
00000030: 789c 8b3f 0671 803f a5be c7be f2b0 0bbf
00000040: b347 9d3f da19 acbe d30f 5abe b6ef 51c0
00000050: 86ca a6be 719c a5bf f7bf a63f e20f 33bd
00000060: 1509 363d b1dd 903f c395 22bf 3a9e adbf
00000070: b6c4 b83e edcb e4bf 6745 233f 53a9 673f
00000080: 679d 42bf 1896 2abe 10a1 2540 521f 633f
00000090: 9e86 90bf c330 723e 3e23 6540 8e4d 883d
000000a0: f408 ae3d c254 98c0 73a9 a13f 57d4 5bbf
000000b0: 5ab6 483f 07e6 453e 141e 98be 4ddf 193f
000000c0: 3f18 2940 bdb4 d03f 362d 6bc0 bdb9 293f
000000d0: f446 1dbf c94f 1abe ca77 cd3e 638d 20c0
000000e0: e9fd 24bf e8c5 c2be 712e d63f c31e 5d3d
000000f0: 7bea 5c40 5825 ccbf 4504 903d 5208 993f
00000100: 7545 a9bf 4032 e83d 411a ef3f 6cff 393e
00000110: ef45 a23f c4df 0e40 dfc6 873f 0af2 723f
00000120: 85c0 893f 55eb d93e a318 39c0 d6dc 62be
00000130: 283c 153e 63b3 8e3f 1eff 1dbf 8c5f debf
00000140: 7230 24be de27 513f 4cf6 36bf 6d5c 0ac0
00000150: 6343 ab3f 2080 efbe 6017 fb3d f524 d53e
00000160: e64a 8fbd e3bb ab3e 002a 623f 7680 e5be
00000170: 02d7 7340 3051 96be 1972 13bf 4651 803f
00000180: 2c2c f8bf c03d aa3f 0281 4e40 0e40 9bbf
00000190: 77cb a9bf 1723 33bf 536f 27bf f10d ef3f
000001a0: be75 943e 90e1 023f 7537 aabe 44a3 bd3e
000001b0: 3611 3fbf eddf cf3f f411 0c3e 70df 2fbd
000001c0: d4cd 0cbf 5ea3 73bf bff4 f43d a20e 19bf
000001d0: 9cef e03f ac10 3d3f 8db7 3a3f b484 53bf
000001e0: f9b5 3f3e 3b37 b63e e85b 1dbf 72a1 80bf
000001f0: d1e3 d3bf 46f5 253e 0fce 7c3f f1c6 993d
00000200: 6b53 78bf 149e 8f3f d98f 6fbe 7223 9b3e
00000210: 8b06 323d 92d9 873e 559f 4bbe 2dfe a63f
00000220: 1c16 9fbe a37d 90bf 9131 9ebf 2a57 8a3f
00000230: 80c6 dd3f f980 7fbf 971d 01bf d605 f9bf
00000240: 87ec 22bf 8be5 273e eac4 313d af2c 3c3e
00000250: 87be f6be f151 53be 88d7 aebf 1cbd 413e
00000260: 7580 0d3f 05aa 2dbf e19e 193d daaf d9be
00000270: e739 7ebf 21e2 bf3d e88a 92bf 771e 963e
00000280: 6707 213f 3ea5 d2bf fda2 b93e e5ca f5be
00000290: f8d7 a13e 1b31 5bbf e27a 553f b006 09bf
000002a0: d7f4 bbbf e130 85bf 3c80 87bf 06f1 bd3e
000002b0: 1754 853d 3cc6 4bbf 26dc 863f c3e2 7dbe
000002c0: 64ef 9e3e db13 d83e 3bb9 fc3e e623 983e
000002d0: 50de afbe 2ba2 1b3f 8e9e 99bf 0217 923f
000002e0: 1d35 c13f c7e1 9e3f 5c06 223e de52 df3f
000002f0: de17 c13d ccc1 7a3f 9130 413f fe97 93bf
00000300: e663 5dbe b9c1 213f 3793 9dbd abb9 40bf
00000310: 905c f33e 172c 0f3f d01e 763e e2be 4e3f
00000320: 1ad3 433f b449 4e3e d333 d73f 6034 69be
00000330: 3845 de3e 0585 fc3e 49ce 023f 8b34 25be
00000340: a3c4 53bd 2132 e23e cddd 32be ce02 6abf
00000350: e22f 0cbf e9ed 073f 5a4a 0dbf 4f97 c53d
00000360: 3a5b 1b3e ecd5 5f3e 8ae2 873f 16cc 70be
00000370: c57b 413f 6bc5 b4be c494 963d 7ec0 20bf
00000380: 4c7c 7fbf c9d9 a03e 1df9 75bf a555 7e3f
00000390: 640d 823f ee9b 40bf 0bb5 0fbf 1c4a f43e
000003a0: 211a 5b3f 9eda c43e 8233 ccbe 1458 bfbe
000003b0: f6bd 5e3f d892 003f be71 fbbf fdc5 42be
000003c0: 0171 7fbf e875 27bf 1901 813e 7aea b73d
000003d0: 645c 5e3f c5bf 2cbe aa5e 99be 26df 84be
000003e0: b915 1d3f 2dca 133f 62f6 cabe 8182 1b3f
000003f0: e1d2 aebd c2e8 09bf 599c b93e 5bc0 7c3e
7.042423 0.71169317 2.375872 1.3121922 -2.6376507 0.7222979 -0.24919485 0.17236345
-0.47786602 -0.46615738 -0.63956684 1.5698727 1.0907125 1.0034492 -0.39012638 -0.5456687
1.2287506 -0.33613473 -0.21295099 -3.2802558 -0.32576388 -1.2938367 1.3027333 -0.04371632
0.044442255 1.1317655 -0.6350977 -1.3563912 0.3608758 -1.7874733 0.63777775 0.90492743
-0.76021427 -0.16658819 2.5879555 0.88719666 -1.1291082 0.23651414 3.580276 0.066554174
0.084978014 -4.7603464 1.2629837 -0.8587088 0.78403246 0.1932603 -0.29710448 0.60106355
2.6421049 1.6305157 -3.6746345 0.6629904 -0.6143639 -0.15069498 0.40130454 -2.5086296
-0.64449936 -0.38041615 1.6732923 0.053984415 3.4518116 -1.5948896 0.07032064 1.1955664
-1.3224322 0.113377094 1.8679887 0.18163842 1.2677592 2.2324076 1.0607566 0.9490057
1.0761877 0.42562357 -2.8921287 -0.22154555 0.14573729 1.1148494 -0.617174 -1.7372909
-0.16034105 0.8170146 -0.7146957 -2.1618912 1.337994 -0.4677744 0.12260318 0.41629758
-0.069967076 0.33541784 0.88345337 -0.4482457 3.809998 -0.29358816 -0.57595974 1.0024803
-1.938848 1.3300095 3.226624 -1.2128923 -1.3265218 -0.6997542 -0.6540424 1.867613
0.2899608 0.5112543 -0.33245435 0.37038624 -0.74635637 1.6240212 0.13678724 -0.042937696
-0.5500157 -0.95171154 0.11960744 -0.5978795 1.7573123 0.73853564 0.72936326 -0.82624364
0.18721761 0.35589013 -0.6146836 -1.0049269 -1.6553899 0.16206846 0.9875192 0.07508648
-0.97002286 1.1220117 -0.23394717 0.3030048 0.04346327 0.2653318 -0.19884999 1.3046318
-0.31071556 -1.1288341 -1.2358876 1.080785 1.7326202 -0.9980617 -0.50435776 -1.9454906
-0.6364216 0.16396157 0.043400683 0.1837642 -0.48192236 -0.20636727 -1.3659525 0.18919796
0.55274135 -0.67837554 0.037505034 -0.42516977 -0.993071 0.093693025 -1.1448641 0.29320118
0.6290192 -1.6456678 0.36257163 -0.4800636 0.31610084 -0.85621804 0.8339063 -0.5352583
-1.4684094 -1.0405542 -1.0586009 0.3709795 0.065101795 -0.79599357 1.0535934 -0.24793534
0.31042016 0.4220265 0.4936007 0.29714888 -0.34349298 0.60794324 -1.2001512 1.1413271
1.5094334 1.2412652 0.15822738 1.7447164 0.094283804 0.9795196 0.7546473 -1.1530759
-0.2162014 0.6318622 -0.07694095 -0.75283307 0.47531557 0.5592665 0.24035192 0.80760014
0.7649399 0.20145303 1.681269 -0.22773886 0.43412185 0.49320236 0.51096016 -0.16133325
-0.0517012 0.4417887 -0.17467423 -0.9141053 -0.54760563 0.530974 -0.55191576 0.096480004
0.15171519 0.21858948 1.0616009 -0.23515353 0.7557948 -0.35306868 0.073525935 -0.6279372
-0.99799037 0.31416157 -0.9608324 0.99349433 1.0160336 -0.7523793 -0.56135625 0.4771279
0.85586745 0.38448042 -0.39883047 -0.37371886 0.8700861 0.50224066 -1.9644086 -0.19020839
-0.99781805 -0.65414286 0.2519615 0.0898027 0.86859727 -0.1687003 -0.29955035 -0.259515
0.6136127 0.5773037 -0.396411 0.6074601 -0.08536316 -0.53870785 0.36252096 0.24682753

bias_ih_l1 f4 [400]
00000000: ceb1 903e 5b2c ae3f af4f 73bf d547 24bf
00000010: 8b20 1e3e f15d ea3f cc4a 6f3e 2c6c 523e
00000020: a938 edbe 5b42 723e 8653 ac3e e39e a13f
00000030: cfb9 d3be e37d 46be dee0 9e3d 6fea b23f
00000040: f33e 35bf 62e6 14be 7ed2 52bf 06cd 8f3e
00000050: cc1f 9a3f 7e2d 13bf a34c c33f 6749 f43f
00000060: a366 2a3f 33d7 bdbe bee8 85bc 0f22 67bf
00000070: 4ccf ebbe 7c9d 25be 6db0 4d3d cb15 d0be
00000080: c340 cb3e ea0b 68be 2bc9 dcbf f04e 2d3e
00000090: ebf3 3ebf a9d1 a2bf 1952 2cbf a494 84bf
000000a0: bed5 10be 14a7 8a3d 0e8d d13e 76ca 6f3f
000000b0: c900 003c 470f 203c 8e35 0240 5a8b a4bf
000000c0: 6bb7 5ebf 9530 163f 347d 3dbf 85d3 e53f
000000d0: 65cd 963f 0757 783f 88e5 a9be b7d4 a9be
000000e0: 6b18 c63d b0c0 33be 120a 6c3d 64a0 2b3f
000000f0: eb1a c9be b77f 263f 81e8 a03d 6af1 d7be
00000100: 493a d4be 690a 7c3f cf3b efbe adb4 94bd
00000110: fd2f 5d3f 25d6 a4be ac54 6e3f 7318 d7be
00000120: 8cbf 4f3f 49ad d3be 0d67 f33d eaa2 d63e
00000130: f60b ba3e 84e1 dd3f e2a2 7e3e 6327 003f
00000140: 2674 1a3f f383 c7be e9f1 163f f9df 90be
00000150: 434b e0be 650d 1c3f f218 d63e cd92 45bf
00000160: f137 51bd b0aa 53bd 4336 f9be 2058 babe
00000170: c1a7 2b3f 0745 44bf ecc1 603e b2a5 6a3e
00000180: 65d8 833f 8f79 24bf 38ab 8b3e e981 4b3f
00000190: 6884 223d f02d 62bf eced 383c 4c92 323e
000001a0: cf86 61be ba83 15bf 5eec 80bf d20d b1be
000001b0: 50be 99bf eda9 053e 5c6b 20bf 9e3a 513f
000001c0: fe77 99bd c327 01be 19c2 e7be 06d4 313e
000001d0: 75e9 d93e d98f 9f3d 7b06 dd3e 4979 d9bd
000001e0: 6b9e 2abe 12c2 613f 1204 9bbd 3ee9 693e
000001f0: 37e7 613f 5b92 023e 9474 c53d 6a01 05bf
00000200: f569 cc3b b95a 78bc 137b 9abe 15c4 d1be
00000210: 0ea4 5abf 03ea d23e 5690 e9be 0235 1fbf
00000220: eaa2 dcbe 0b2a 3b3f 82d8 d93d de85 09be
00000230: cba9 0abf b40d 91be cd8c 1fbf e2b3 88be
00000240: 880a 353d 9be3 083c f472 6b3a 6b95 98bf
00000250: 801e 0fbe ea22 f03e a3fb 61bf e23b 84be
00000260: bbde df3e 9816 e53d dc25 87be 81d2 9db9
00000270: 2ef4 7e3c 1944 a53d 7cc0 cf3e 0556 94be
00000280: 08c3 25bf ac38 2ebd 4f22 a03d 5e79 583e
00000290: ff3b 203f 0ab1 483f 70d9 dd3d a6ae 01bf
000002a0: 0049 803f 3b08 eb3e ea72 323f 37c0 0d3f
000002b0: 2851 7a3e ddbc cd3e e588 e8be 27da 33bf
000002c0: d78b 30bd b966 89bd db18 7b3f 8dbd 98bf
000002d0: 20f2 923d 03b9 a03d 682c 253e cb83 0bbf
000002e0: 0e83 5fbe 2b84 8f3e a41f 13be 57f5 47be
000002f0: 66c3 323f ef10 273f 4984 c4be 7628 aebe
00000300: 9e59 c23e 473b 3c3d 36c2 8cbe b52a 123f
00000310: 8133 37be 844c 84bf 84d3 f0be 4bee c03e
00000320: e147 80bf 466b 1b3f 0a14 67bf 2052 773e
00000330: 50d0 a53f ebf7 ebbe a4a5 62bf b045 7d3f
00000340: d0b8 0bbf 7a8e 21bf f3de 2dbe 03f3 ee3d
00000350: de9d 21bf 4226 093f 5f1b 1140 d02c 7e3f
00000360: d5b7 e7be 5d0d ebbe 0834 903e 5f09 063f
00000370: a473 57bf 1849 3b3f 4e96 d8bd dee3 923f
00000380: 0898 55bf 9e0c 053f 9735 643f a364 6b3d
00000390: f68a bc3f faf4 423d 50f4 473f 631d a8bd
000003a0: 9e5b 03be a9b9 5f3f 5214 0bbe 3c8d 283f
000003b0: 17b8 89bf 85ea d4bd 2126 69be 76e8 0dbb
000003c0: 2c1f 35be 35f4 b2be 7817 bf3d a130 7b3f
000003d0: e508 953f e5d4 413f 48de 5cbf 056f 343f
000003e0: af90 25bf 51f7 e23e 41a4 723e eb78 ed3e
000003f0: 70b3 47bf 5301 0cbf de20 5c3f 217a 1ebf
0.28260654 1.3607286 -0.9504346 -0.64172107 0.15442102 1.8309919 0.23368376 0.20549077
-0.4633229 0.23658125 0.33657473 1.2626613 -0.41352698 -0.1938396 0.07757734 1.3977793
-0.7079918 -0.14541009 -0.82352436 0.28086108 1.2040954 -0.5749129 1.5257763 1.9084901
0.6656286 -0.37078246 -0.016346332 -0.90286344 -0.46056592 -0.16173357 0.05021708 -0.40641627
0.39697847 -0.22660795 -1.7248892 0.16924644 -0.7459094 -1.2720233 -0.6731277 -1.0357862
-0.14144036 0.06770149 0.4092793 0.93668306 0.007812687 0.009769267 2.0345187 -1.2855027
-0.86998624 0.5866788 -0.7401917 1.7955176 1.1781431 0.97007793 -0.3318293 -0.331701
0.09672626 -0.17553973 0.05762679 0.6704161 -0.3927835 0.6503863 0.078568466 -0.42176372
-0.41450718 0.98453385 -0.46725318 -0.07261024 0.8640135 -0.3219463 0.9309795 -0.4201084
0.8115165 -0.41343144 0.1188489 0.4192117 0.3633725 1.7334447 0.24866822 0.500601
0.6033348 -0.38967857 0.58962876 -0.28295878 -0.4380742 0.6095794 0.41815907 -0.77177125
-0.05107874 -0.051676452 -0.4867421 -0.3639536 0.6705285 -0.7666783 0.21948975 0.2291477
1.0300413 -0.64247984 0.27279067 0.794951 0.039677054 -0.88351345 0.011287194 0.1743862
-0.22024082 -0.58404124 -1.0072134 -0.34580857 -1.2011204 0.13053103 -0.6266382 0.8173007
-0.0749359 -0.12612824 -0.45265272 0.17366037 0.42560926 0.07791109 0.43169007 -0.106188364
-0.16661994 0.8818675 -0.07569136 0.22842881 0.8824343 0.12751143 0.09641376 -0.5195528
0.006238217 -0.015158349 -0.30172023 -0.4096991 -0.8540658 0.41194162 -0.45617932 -0.6219026
-0.43093044 0.7311103 0.10636999 -0.13429973 -0.54165334 -0.28330767 -0.6232422 -0.2669974
0.044199497 0.008355047 0.0008981668 -1.1920599 -0.13976479 0.46901637 -0.8827459 -0.25826937
0.43724617 0.1118595 -0.26396072 -0.0003010221 0.015561147 0.08069629 0.4057654 -0.28971878
-0.6475072 -0.042534515 0.07819044 0.21140048 0.62591547 0.7839514 0.108324885 -0.5065712
1.0022278 0.45904717 0.69706595 0.5537142 0.24445021 0.40183154 -0.45416942 -0.7025475
-0.04310211 -0.06709046 0.980848 -1.1932846 0.07175088 0.07847788 0.16130221 -0.54497975
-0.21827337 0.28030524 -0.14367539 -0.19527183 0.69829404 0.65260214 -0.38382176 -0.34015244
0.37958997 0.04595497 -0.2749192 0.57096416 -0.17890741 -1.0335851 -0.47036374 0.37681803
-1.0021936 0.6071056 -0.9026495 0.24152422 1.2954197 -0.46087584 -0.88534 0.9893446
-0.54578876 -0.63108027 -0.1697958 0.116674446 -0.6313151 0.53574 2.2672956 0.9928713
-0.4525744 -0.45908633 0.28164697 0.5235805 -0.8416083 0.7315841 -0.10575543 1.147579
-0.83435106 0.5197238 0.8914427 0.05746902 1.4729908 0.04759691 0.78107166 -0.0820873
-0.12827918 0.8739267 -0.1358197 0.65840507 -1.0759305 -0.103962936 -0.22768451 -0.002165345
-0.17687672 -0.3495194 0.09330648 0.98121077 1.1643339 0.75715476 -0.86276674 0.704819
-0.64673895 0.44329312 0.2369547 0.46381316 -0.78008175 -0.5468952 0.8598765 -0.61905104
