Models/Trump_RNN.pt (torch_old, 326355 bytes, 15 tensors)

weight f4 [100, 100]
0	0x3f86ed32	1.0541136
1	0xbd0f6e79	-0.035017464
2	0x4009fcfb	2.1560657
3	0x3fb578a6	1.4177444
4	0xbfdbbcf3	-1.7167038
5	0xbed1b62f	-0.40959308
6	0xbf2069dc	-0.6266153
7	0x3df3ab71	0.11897934
8	0x3bc3b1d4	0.0059721265
9	0xbf2f2096	-0.684091
10	0xbef1f291	-0.47255376
11	0xbf8e5b48	-1.1121607
12	0xbdd70921	-0.10499788
13	0xbf38ba72	-0.7215949
14	0xbfb1c158	-1.3887129
15	0xbf81c393	-1.013781
16	0xbf7c4026	-0.9853538
17	0xbf8a6e9a	-1.0815003
18	0xbf51bc68	-0.8192811
19	0xbdddafa3	-0.10824516
20	0xbf0196c3	-0.5062067
21	0x3f1cdc2d	0.6127346
22	0xbdd534d1	-0.104104646
23	0xbf8da873	-1.1067032
24	0xbfb401ab	-1.4063009
25	0x3ff449f3	1.9085068
26	0x3ef8de0a	0.48606902
27	0x3f9f4723	1.2443584
28	0x3f060795	0.5235532
29	0x3f95c10c	1.1699538
30	0xbed84556	-0.422404
31	0xbf4bd3dd	-0.7962015
32	0xbfe35064	-1.7758908
33	0xbfee034d	-1.8594757
34	0x3f1eff3c	0.62108207
35	0x3f288ea8	0.65842676
36	0xbe54f923	-0.20798163
37	0xbeb919e5	-0.36152568
38	0x3e6bfcff	0.23045729
39	0xbfb1b4f0	-1.3883343
40	0x3ff61fa1	1.9228402
41	0xc01484ca	-2.3206048
42	0x3f279ab5	0.6547044
43	0xbda6dace	-0.081472024
44	0xbf290804	-0.66027856
45	0x3ecf25f3	0.4045864
46	0xbf876a24	-1.0579267
47	0xbf752653	-0.95761603
48	0x3f754da3	0.9582159
49	0x3db19435	0.086708464
50	0x3f2185fa	0.63095057
51	0x3fc298b7	1.5202855
52	0xbf5cd1fc	-0.8625791
53	0x3e4e50fb	0.20148079
54	0xbea69098	-0.3253219
55	0xbfba190b	-1.4538893
56	0x3fb7f794	1.437243
57	0x3ef790cf	0.48352668
58	0xc01811f9	-2.376097
59	0xbfab4039	-1.3378974
60	0xbfc003d0	-1.5001163
61	0xbf36b9c0	-0.7137718
62	0x3f728f3c	0.9474981
63	0xbfcc9e50	-1.5985813
64	0xbf606e57	-0.87668365
65	0xbf943d5b	-1.1581224
66	0x3f63c5b7	0.88973564
67	0x3fb05153	1.3774818
68	0x3ed42a43	0.41438493
69	0x3f4a5fe4	0.7905257
70	0x3f310bc1	0.6915856
71	0x3f1ba88b	0.6080405
72	0x3f5a191a	0.8519455
73	0xbd4abe52	-0.04949791
74	0xbe6c84b0	-0.23097491
75	0xbf67c5c0	-0.9053612
76	0xbeb24371	-0.3481708
77	0x3d32e1dc	0.043672428
78	0x3e538691	0.20656802
79	0x3d8f0860	0.06984019
80	0xbed97b25	-0.42476764
81	0xc00884f2	-2.1331143
82	0xbf1aad41	-0.60420614
83	0x3fc2220f	1.5166644
84	0xbfdc78b9	-1.7224342
85	0xbf5714d2	-0.84016144
86	0x3f2174a2	0.6306859
87	0xbf81dd67	-1.0145692
88	0xbe4dabc2	-0.20085052
89	0xbdaaed95	-0.083460964
90	0x3fd6a58c	1.6769271
91	0xbe90c431	-0.28274682
92	0x3f1e5c75	0.6185983
93	0x3f53b3fc	0.8269651
94	0x3f2ff0ea	0.6872698
95	0x3f9b3e10	1.2128315
96	0xbe3f27da	-0.18667546
97	0xbec12107	-0.3772051
98	0x3f9d77dd	1.2302204
99	0xbf074ca5	-0.52851325
100	0x401e026c	2.4688978
101	0x3f79a163	0.9751188
102	0xc0068bcc	-2.1022825
103	0xbd87f3e1	-0.06638313
104	0x3b3b1fc9	0.002855288
105	0xbf045472	-0.51691353
106	0x3f64be98	0.89353323
107	0xbf26e012	-0.65185654
108	0xbf58878f	-0.84581846
109	0xbf972346	-1.180764
110	0x3fdf2832	1.7434142
111	0x3d2d74df	0.042347785
112	0xbfe16093	-1.7607597
113	0x3e44184f	0.19149898
114	0xbe1f7786	-0.15572938
115	0x3dbe8df3	0.093044184
116	0xbf9e1828	-1.2351122
117	0x3f8a7d82	1.0819552
118	0xbf2d8f15	-0.6779645
119	0xbee4a66e	-0.44658226
120	0xbf932af2	-1.1497481
121	0x3f80df98	1.0068235
122	0x3e88da03	0.2672883
123	0xc00c8282	-2.1954656
124	0xbfc8e07d	-1.5693508
125	0xbe13fb2d	-0.14451285
126	0xbf3add67	-0.72994083
127	0xbde71895	-0.112839855
128	0x3f8b7738	1.0895758
129	0xbedf461c	-0.43608177
130	0x3f218118	0.63087606
131	0x3e1a4b57	0.15067802
132	0x3c9a04f6	0.018801194
133	0xbeef1c7a	-0.46701413
134	0xbe32033d	-0.17384048
135	0xbeb167d3	-0.34649524
136	0x3f628a7b	0.88492554
137	0xbf4f1c07	-0.8090214
138	0x3f1b9bd1	0.6078463
139	0xbd301f61	-0.042998675
140	0x3f13e58f	0.57772154
141	0x3f2079fa	0.6268612
142	0x4034e65b	2.8265598
143	0x3f8a33a8	1.0797014
144	0x3faa8d52	1.3324378
145	0x3fdce5fc	1.7257686
146	0xbf1250cc	-0.57154536
147	0xc0492c60	-3.1433334
148	0xbe987734	-0.29778445
149	0xbf68348a	-0.9070517
150	0xbe628b0c	-0.22123355
151	0x3fbc836b	1.4727606
152	0x3ebbe22c	0.36695993
153	0xbf781721	-0.9691029
154	0xbf16e5a0	-0.5894413
155	0x3ed92631	0.4241195
156	0x3eb479b4	0.35249102
157	0xbff120d3	-1.8838142
158	0xbe6b70d0	-0.22992253
159	0x3ee2d6c8	0.4430449
160	0xc0246b92	-2.5690656
161	0x3fcfe859	1.6242782
162	0xbf64573b	-0.89195603
163	0x3f09910d	0.53736955
164	0x3f07b0ef	0.53004354
165	0x3d8e3fce	0.069457635
166	0x3f8a31ab	1.0796407
167	0x3d824233	0.06360283
168	0x401a3deb	2.4100292
169	0x3e9b4cfc	0.30332172
170	0x3e86c7eb	0.263244
171	0x3f679f84	0.90477777
172	0x3e35d40c	0.1775667
173	0x3da80831	0.082046874
174	0xbe961f2c	-0.29320657
175	0x3ec2ed61	0.3807173
176	0x3f76029d	0.9609774
177	0xc002e8ff	-2.045471
178	0xbfdba07a	-1.7158349
179	0xbf8c253b	-1.0948862
180	0xc07bd0b5	-3.9346135
181	0xbf323593	-0.69613
182	0xbdeaf8d6	-0.11473243
183	0x3f985472	1.1900771
184	0x3f774d91	0.9660273
185	0x3e3e0cf7	0.18559633
186	0x3eb259d1	0.3483415
187	0xbf2964e5	-0.6616958
188	0xbf2aeadb	-0.6676461
189	0xbf2c5872	-0.67322457
190	0x3dfbbe2c	0.12292132
191	0x3f56d0a3	0.83912104
192	0x3fb101b8	1.382865
193	0x3ec754f1	0.38931993
194	0x3ea4073a	0.32036763
195	0xbf8d382c	-1.1032767
196	0x3e38f59f	0.18062447
197	0x3edf54d1	0.43619397
198	0x401b3e3e	2.425674
199	0xbf461634	-0.7737763
200	0x3fe94d1c	1.8226657
201	0xc02cb4e1	-2.69854
202	0x3e2d4f97	0.16924892
203	0x3f958052	1.1679785
204	0xbf18efe8	-0.5974107
205	0x3ff6c906	1.9280097
206	0xbfc2f923	-1.523228
207	0xbfd6ac05	-1.6771246
208	0xbf026b38	-0.5094485
209	0xbfd8baea	-1.6932042
210	0xbf492eae	-0.7858685
211	0x3e202ba4	0.15641648
212	0xbffeca8e	-1.9905565
213	0xbee5307e	-0.4476356
214	0x3febf6a1	1.843464
215	0x3f89841e	1.0743444
216	0xc016f58f	-2.3587377
217	0x405c14a1	3.438759
218	0x4017732f	2.3664052
219	0xbf4bccc3	-0.79609317
220	0x3d043248	0.032274514
221	0x3da842ea	0.08215888
222	0x3f734723	0.9503042
223	0xbfdeaf32	-1.7397215
224	0x3fa4bbdd	1.2869831
225	0x3efddfe9	0.49584892
226	0x3fd965e8	1.6984224
227	0xbeb7c8f2	-0.35895497
228	0xbd94afb5	-0.07260076
229	0x3e8dc854	0.276919
230	0xbf394587	-0.72371715
231	0x3f47e5cf	0.78085035
232	0xc011472b	-2.2699687
233	0x3f43a6fb	0.76426667
234	0x3e93c6f3	0.28862724
235	0xbf6e2664	-0.9302733
236	0x3f480c22	0.78143513
237	0x3f49163f	0.7854957
238	0xbf40495e	-0.7511195
239	0xbe8c70da	-0.2742985
240	0x3fc4f273	1.538649
241	0x3f1ca2a0	0.61185646
242	0x3fe20494	1.7657647
243	0x3f410c44	0.7540934
244	0xbd3dccd5	-0.04633792
245	0x3e403b6e	0.1877267
246	0x3fc2156b	1.5162786
247	0xbfabc150	-1.3418369
248	0x3d9deecf	0.07711565
249	0xbf5e7442	-0.86896145
250	0x3e18867c	0.14895052
251	0x3f3e0615	0.7422803
252	0xbe920cbd	-0.28525344
253	0x3e6e2766	0.23257217
254	0xbf8db750	-1.1071568
255	0xbf413140	-0.75465775

weight_ih_l0 f4 [100, 100]
0	0x3e6a0166	0.22852096
1	0x3e799c6d	0.24376078
2	0xbee1d0d0	-0.44104624
3	0xbde75ba3	-0.11296775
4	0xbea63240	-0.32460213
5	0xbe5f2d09	-0.21794523
6	0x3eadb32c	0.3392576
7	0xbedd4056	-0.43213147
8	0xbdac93f3	-0.084266566
9	0x3e011e78	0.12609279
10	0xbe6926db	-0.22768728
11	0xbcbc34fa	-0.02297448
12	0x3e529142	0.20563224
13	0x3e7a44b8	0.24440277
14	0xbe2ddb03	-0.16978078
15	0xbe03c064	-0.1286636
16	0xbee8c362	-0.45461565
17	0x3ea33df4	0.31883204
18	0x3f0d5333	0.55205077
19	0xbc858622	-0.016299311
20	0x3ddc2615	0.10749451
21	0xbb2af557	-0.0026086175
22	0x3d9fee0c	0.07809076
23	0x3f2ef268	0.6833863
24	0xbcce790f	-0.02520421
25	0x3d116950	0.035500824
26	0xbe62e057	-0.22155891
27	0xbdf97760	-0.12180972
28	0xbd0269d8	-0.03183922
29	0x3e09b0e6	0.13446388
30	0x3ea8c4e1	0.32962707
31	0xbe0cc030	-0.13745189
32	0xbeac9fc9	-0.33715656
33	0x3ef506dc	0.47856796
34	0x3f09d0d2	0.5383426
35	0xbe4a214e	-0.19739267
36	0x3d62332f	0.055224594
37	0x3df74537	0.120737486
38	0x3d984d3b	0.074366055
39	0xbf03fc72	-0.51557076
40	0x3eec9edd	0.46214953
41	0x3d552ef8	0.052046746
42	0xbece7807	-0.4032595
43	0xbda04a94	-0.07826725
44	0x3eac2755	0.33623758
45	0x3db1afc7	0.08676105
46	0xbdb952c8	-0.090489924
47	0x3ee558a2	0.44794184
48	0xbe13892d	-0.14407797
49	0xbe02687c	-0.1273517
50	0xbed5ce8f	-0.41759154
51	0x3f843378	1.0328207
52	0xbf247e12	-0.6425487
53	0xbd54be91	-0.05193955
54	0xbd1e24f4	-0.03860946
55	0x3e5c7b3a	0.21531382
56	0x3f216c94	0.630563
57	0xbdeb7c9c	-0.11498377
58	0xbe395a45	-0.18100841
59	0x3cb531ee	0.022118535
60	0xbd5d0f49	-0.053969655
61	0x3df4756b	0.11936458
62	0xbe80b7c8	-0.25140214
63	0xbe198d4b	-0.14995305
64	0x3dbc42ab	0.091924034
65	0x3dac6002	0.084167495
66	0x3f54f6d0	0.83189106
67	0xbe81025c	-0.25197113
68	0x3de50883	0.11183264
69	0x3ea8c98a	0.32966262
70	0x3e764a50	0.24051785
71	0x3ca4b36c	0.020105086
72	0x3e4b1d7f	0.1983547
73	0x3e10f01e	0.14154097
74	0x3dd8833f	0.10571908
75	0x3da17bab	0.07884916
76	0xbd9bcb3f	-0.076071255
77	0xbd799a16	-0.060937963
78	0x3dab6a04	0.0836983
79	0xbca65c17	-0.020307584
80	0xbf0201b7	-0.50783867
81	0xbe323eb9	-0.1740674
82	0xbc0f6e54	-0.008754332
83	0xbeeda6f8	-0.4641645
84	0xbed46b8e	-0.41488308
85	0xba910c1f	-0.0011066234
86	0x3d6aeff0	0.05735773
87	0xbccdf410	-0.025140792
88	0x3f11292c	0.5670345
89	0xbe9f5809	-0.31121853
90	0xbf66d2ba	-0.90165293
91	0x3e889d6c	0.26682603
92	0x3f1faf4d	0.6237686
93	0xbd0a9753	-0.03383572
94	0xbddf36e1	-0.10899139
95	0xbe18eae2	-0.1493335
96	0xbee5cde9	-0.4488366
97	0xbe7f6724	-0.24941689
98	0x3f11e7f4	0.5699456
99	0xbf75223f	-0.9575538
100	0x3d3ab7d8	0.045585483
101	0x3ebbee8d	0.36705437
102	0x3edd5007	0.4322512
103	0xbec9bae3	-0.39400396
104	0x3e0ab2e4	0.13544804
105	0x3d75e141	0.060029272
106	0xbf492b85	-0.7858203
107	0x3e8117a6	0.25213355
108	0xbe4df7bd	-0.20114036
109	0xbeb8c71e	-0.36089414
110	0x3ea4b7c0	0.3217144
111	0xbe2acd7d	-0.1667995
112	0xbf50f915	-0.8163007
113	0xbe72cef2	-0.23711756
114	0xbe2456cd	-0.16048737
115	0x3eecbe56	0.46238965
116	0xbd21fb28	-0.039546162
117	0x3f47ffb7	0.78124565
118	0xbdf049cc	-0.11732826
119	0xbe3e3161	-0.18573524
120	0xbf0ad62f	-0.5423307
121	0xbf089d33	-0.53364867
122	0x3f38104e	0.7189988
123	0x3f204280	0.6260147
124	0x3d86d872	0.065842524
125	0x3f0d38b3	0.5516464
126	0x3cb64834	0.022251226
127	0x3e1fff5e	0.15624759
128	0xbea2dfd6	-0.31811398
129	0x3c7a6cf6	0.015284767
130	0x3f0dd55d	0.5540369
131	0x3f1b5132	0.6067077
132	0xbf3c0f16	-0.7346052
133	0x3e9ff621	0.3124247
134	0x3ef778a8	0.4833424
135	0xbb746950	-0.0037294216
136	0xbe304d3d	-0.17216964
137	0xbbdeb29d	-0.0067961947
138	0x3e8f358c	0.2797054
139	0xbea5e602	-0.32402045
140	0x3c6228f6	0.013803711
141	0xbe664b49	-0.22489657
142	0x3e3893fd	0.18025203
143	0xbe11b401	-0.14228822
144	0xbd0d68d4	-0.0345238
145	0x3dfd4129	0.12365944
146	0x3e06ab94	0.1315139
147	0xbe91af8b	-0.2845424
148	0x3e45e35c	0.19325012
149	0xbe769d04	-0.24083334
150	0xbee1d86e	-0.44110435
151	0xbe31b354	-0.17353565
152	0xbedd9ca4	-0.4328357
153	0x3e208540	0.15675831
154	0xbde63606	-0.11240773
155	0x3efa5835	0.48895422
156	0x3deff916	0.11717431
157	0xbded9228	-0.11600143
158	0x3e0e13d4	0.13874751
159	0xbe80af26	-0.25133628
160	0x3e479744	0.19491297
161	0x3e0534f1	0.13008477
162	0x3e90dfa6	0.2829563
163	0xbe8076ec	-0.2509073
164	0x3e532b7d	0.20622058
165	0xbf0092ee	-0.50224197
166	0x3df4ab73	0.11946764
167	0xbec4ce64	-0.38438714
168	0xbf33f851	-0.70300776
169	0x3e9510c1	0.29114345
170	0xbe192f9e	-0.14959571
171	0x3e6499f5	0.22324355
172	0xbf85c223	-1.0449871
173	0xbe34893b	-0.17630474
174	0x3eb3ffc8	0.35156083
175	0x3eb9f5eb	0.36320433
176	0x3e1b5832	0.15170363
177	0xbd536b8f	-0.051616248
178	0xbf46d6d8	-0.77671576
179	0xbebbdcb4	-0.3669182
180	0xbec0bca1	-0.37643912
181	0xbe9732ba	-0.2953089
182	0x3e6fb69a	0.234095
183	0x3e1f8d18	0.15581167
184	0x3d8370e2	0.06418015
185	0x3e29d997	0.1658691
186	0xbf0cdd3c	-0.55025077
187	0xbf0c3fd9	-0.54784924
188	0x3e57cd82	0.21074489
189	0xbe94ea0c	-0.29084814
190	0xbc2f1d89	-0.010688194
191	0x3de99e1b	0.11407109
192	0xbf27e40c	-0.65582347
193	0x3eee834a	0.4658454
194	0x3f046868	0.5172181
195	0x3d29a775	0.041419465
196	0xbc96079c	-0.018314175
197	0x3ea92163	0.33033285
198	0x3e340164	0.17578655
199	0x3f166ee6	0.5876297
200	0x3dc4127a	0.095738366
201	0xbd6b5e2f	-0.057462867
202	0xbeb01b47	-0.3439581
203	0x3d0e7317	0.034777727
204	0xbc848e14	-0.01618103
205	0xbe2b0b84	-0.16703612
206	0xbe4f8e6a	-0.2026917
207	0x3e3df5e2	0.18550828
208	0x3c7c094c	0.015383076
209	0x3e615155	0.22003682
210	0x3f120104	0.570328
211	0x3e62195c	0.22079986
212	0x3edb8790	0.42876863
213	0xbdc6c2fc	-0.09705159
214	0x3d3693cf	0.044574555
215	0x3e9b5e8e	0.30345577
216	0xbe0bd09b	-0.13653795
217	0xbc183918	-0.009290956
218	0x3d8b9e43	0.068172954
219	0x3e4ff703	0.20309071
220	0xbdbe2aa1	-0.092854746
221	0x3ee39f13	0.44457301
222	0x3ce72d92	0.028219972
223	0x3da66489	0.08124644
224	0x3f2d1e4a	0.6762434
225	0x3ed98aba	0.42488652
226	0x3e0adea8	0.13561499
227	0xbe877049	-0.26452854
228	0x3ecce73c	0.40020168
229	0xbec8b80c	-0.39202917
230	0x3ea500f1	0.3222728
231	0x3e00a510	0.12562966
232	0x3e94ed3d	0.29087248
233	0x3dd7c028	0.10534698
234	0xbe8740af	-0.26416537
235	0x3ddd9628	0.10819656
236	0x3d5a76a6	0.05333581
237	0xbf0d42ca	-0.5518004
238	0xbe6cbfb6	-0.23120007
239	0x3e134c20	0.14384508
240	0xbed7495e	-0.42048162
241	0xbe5bde01	-0.21471407
242	0xbe43a229	-0.19104828
243	0x3df83aea	0.12120612
244	0xbe458064	-0.19287258
245	0xbe8b2375	-0.2717549
246	0x3cd845d1	0.026400479
247	0x3dde0ea4	0.10842636
248	0x3ef546eb	0.4790567
249	0xbdc5b189	-0.09653003
250	0x3e907d66	0.2822067
251	0x3e8ea0a3	0.2785693
252	0x3ec7d127	0.39026758
253	0xbd0e2a4b	-0.034708302
254	0xbe5721e2	-0.21009019
255	0xbe8dd098	-0.27698207

weight_hh_l0 f4 [100, 100]
0	0xbf366597	-0.71248764
1	0x3d46dcb0	0.048550308
2	0xbe870039	-0.26367357
3	0x3e3c2299	0.18372573
4	0xbe4a6fb1	-0.1976917
5	0x3d2eb2b8	0.04265091
6	0x3dd8cd16	0.10585992
7	0xbe716160	-0.23572302
8	0x3e809c57	0.25119278
9	0x3ead2960	0.3382063
10	0xbc96a0cb	-0.018387219
11	0xbeaf3679	-0.34221247
12	0x3db1b303	0.08676722
13	0x3ee45ced	0.44602147
14	0x3f361cd8	0.7113776
15	0x3ee6b5c5	0.45060554
16	0x3e0f281f	0.13980149
17	0xbcd48313	-0.025941407
18	0xbe7cf216	-0.24701723
19	0xbe8f66ae	-0.28008026
20	0x3f1500b7	0.58204216
21	0x3e79fc8a	0.24412742
22	0xbef73eca	-0.48290092
23	0x3e0ee2c5	0.13953693
24	0x3f05ac83	0.52216357
25	0xbe802bab	-0.25033316
26	0xbe9d3f47	-0.3071234
27	0xbda19171	-0.07889069
28	0x3e6b78c9	0.22995295
29	0x3e02d614	0.12776977
30	0x3efb6430	0.49099874
31	0x3deae231	0.11468924
32	0xbc07d95c	-0.008291569
33	0xbd606f05	-0.054793376
34	0xbe84abad	-0.25912228
35	0xbe7cce90	-0.24688172
36	0xbedb67fa	-0.42852765
37	0xbe8be809	-0.27325466
38	0xbedba2be	-0.428976
39	0xbd519701	-0.0511694
40	0xbe548542	-0.20753959
41	0xbd94e7b3	-0.072707556
42	0x3e339e34	0.17540818
43	0x3e3db08f	0.18524383
44	0xbf3d1a1b	-0.7386796
45	0xbe07a48b	-0.13246362
46	0xbe3a12fa	-0.18171301
47	0xbd157e52	-0.03649742
48	0xbd6ace76	-0.057325803
49	0x3e70376a	0.23458639
50	0x3ed27633	0.41105804
51	0x3e4787c7	0.19485389
52	0xbd368d75	-0.044568498
53	0x3e027e29	0.12743439
54	0xbcbebb03	-0.023282534
55	0xbe0ff7f3	-0.14059429
56	0xbb6bb41e	-0.0035965513
57	0x3f1cbd90	0.6122675
58	0xbe9e792c	-0.30951822
59	0x3e3b44ff	0.18288039
60	0x3a861b25	0.0010231478
61	0x3e6f8b13	0.23392896
62	0xbcf5f05b	-0.030021837
63	0xbc9bbc5d	-0.019010717
64	0xbeab5d4c	-0.33469617
65	0xbee2544b	-0.44204935
66	0xbe078f1f	-0.1323819
67	0xbdaa307c	-0.08310029
68	0x3f047606	0.5174259
69	0xbd464745	-0.04840781
70	0x3e2a4626	0.16628322
71	0xbe29b861	-0.16574241
72	0x3ed1d172	0.40980107
73	0xbe817da7	-0.25291178
74	0xbe5434ec	-0.20723313
75	0x3d8125e6	0.06306057
76	0xbd5d8610	-0.05408293
77	0x3eca873a	0.39556295
78	0xbed8f27f	-0.4237251
79	0xbee2a340	-0.44265175
80	0x3e62de19	0.22155036
81	0x3ca1ddb8	0.019759044
82	0xbd8bc372	-0.068243876
83	0xbe112224	-0.1417318
84	0xbc164aa8	-0.009173073
85	0x3e6dee1f	0.23235367
86	0xbd9f7f00	-0.07787895
87	0x3d0491bd	0.03236555
88	0xbe97bae3	-0.2963477
89	0x3d1cd9e4	0.038293734
90	0xbbf2c926	-0.0074092327
91	0xbd64cbbd	-0.055858362
92	0x3d73cd23	0.059521805
93	0xbd686d32	-0.05674476
94	0x3f2a8bcd	0.6661957
95	0x3d31b8b8	0.043389052
96	0xbe0c419e	-0.13696906
97	0x3f0fb1d9	0.5613075
98	0x3e4c1866	0.19931182
99	0x3ec0d3e1	0.3766165
100	0x3ed46987	0.4148676
101	0x3e8de9e2	0.277175
102	0xbdad7756	-0.08470027
103	0xbcdddf6e	-0.027084079
104	0x3f0cf813	0.5506603
105	0x3d8016ec	0.06254372
106	0xbf0dc307	-0.55375713
107	0x3eb08155	0.34473673
108	0xbea2b9a6	-0.31782264
109	0x3d8f8829	0.07008392
110	0x3f21a019	0.63134915
111	0x3efea4e9	0.4973519
112	0xbe1cfe3e	-0.1533136
113	0xbe6f78f0	-0.23385978
114	0xbf1fe468	-0.62457895
115	0x3ef18b47	0.47176573
116	0xbe6306cd	-0.22170563
117	0xbe068438	-0.13136375
118	0xbe3f070a	-0.18655029
119	0x3cff0237	0.031128986
120	0xbd2e41bc	-0.042543158
121	0x3e067a5c	0.13132614
122	0x3e2560bd	0.16150184
123	0x3ecd74b1	0.4012809
124	0x3d69cd08	0.0570803
125	0x3eada338	0.3391359
126	0x3dbafed2	0.09130634
127	0x3ece38e6	0.40277785
128	0xbe157320	-0.14594698
129	0xbe8e6dc1	-0.2781811
130	0xbc9b465f	-0.018954454
131	0x3e9072f9	0.28212717
132	0x3cc69480	0.024240732
133	0x3e40cb97	0.18827663
134	0x3e2233c2	0.15840057
135	0x3cc085f1	0.023501368
136	0x3d8e4552	0.069468156
137	0xbca44ade	-0.02005523
138	0xbcf505d2	-0.029910002
139	0xbe4529ac	-0.19254178
140	0x3d99c509	0.075082846
141	0x3e867295	0.26259294
142	0x3d64cce8	0.055859476
143	0xbe25e9a9	-0.16202416
144	0xbe89e801	-0.26934817
145	0xbeb12937	-0.34601757
146	0xbe251514	-0.16121322
147	0xbe97e922	-0.29670054
148	0x3e067406	0.13130197
149	0x3ed23c6b	0.4106172
150	0x3efabb01	0.48970798
151	0x3ec51a61	0.38496688
152	0xbd37ede0	-0.04490459
153	0x3ee49e99	0.4465225
154	0xbf13d0b8	-0.57740355
155	0x3dd08151	0.10180915
156	0x3e679e6b	0.22619025
157	0xbe80aa9f	-0.25130174
158	0xbc5f353f	-0.013623535
159	0x3d8a0691	0.06739534
160	0xbeea4a77	-0.45759937
161	0xbead44e0	-0.3384161
162	0x3f053dfe	0.5204772
163	0x3e7bbd35	0.24583896
164	0x3e4848fa	0.19559088
165	0x3e12a154	0.14319354
166	0x3e84b273	0.25917396
167	0x3d35066b	0.044195574
168	0x3ec06541	0.3757725
169	0x3f2e49fb	0.68081635
170	0x3f306f14	0.6891949
171	0x3e568c51	0.20951964
172	0x3ede705d	0.434451
173	0x3e358925	0.17728098
174	0xbe7eb65e	-0.24874255
175	0xbe0ddd62	-0.13853982
176	0x3d8b6a53	0.06807389
177	0x3e0f54ad	0.13997145
178	0x3e70b520	0.23506594
179	0xbf20b9cf	-0.6278352
180	0x3e055287	0.13019763
181	0x3e109c87	0.1412221
182	0x3ded4e0b	0.11587151
183	0x3f4ec6d7	0.80772156
184	0xbefc4a3b	-0.49275383
185	0xbf10ae81	-0.5651627
186	0xbce91f84	-0.02845741
187	0xbe21334e	-0.15742227
188	0x3d9969ee	0.074909076
189	0xbc4a4e42	-0.01234776
190	0xbd9e2753	-0.07722344
191	0x3e7d54ad	0.24739332
192	0x3d4faf7c	0.050704464
193	0x3e7fa3e3	0.24964862
194	0xbf4234d3	-0.75861853
195	0x3cf5be70	0.029998034
196	0xbea80afa	-0.32820874
197	0x3e122282	0.14270976
198	0xbdd68053	-0.10473695
199	0xbedb9c23	-0.4289256
200	0x3e0416e0	0.12899351
201	0x3e4531b5	0.19257243
202	0x3e8590cf	0.26087043
203	0x3f1633b4	0.5867264
204	0x3dc24c85	0.09487251
205	0x3e8a2949	0.26984623
206	0x3c5272b5	0.012844731
207	0x3e9962ff	0.2995834
208	0xbe84547e	-0.25845712
209	0x3f0fb6d2	0.56138337
210	0xbdca1798	-0.098677814
211	0x3e5012da	0.20319691
212	0x3db1f17a	0.08688636
213	0x3dc8a643	0.09797337
214	0x3e3f3834	0.18673784
215	0xbed63c75	-0.41843
216	0x3e131f52	0.14367417
217	0x3d982abb	0.07430025
218	0xbebe418e	-0.3715939
219	0x3de0de75	0.1097993
220	0x3d91abb0	0.07112825
221	0x3dc66f58	0.09689206
222	0xbe9a9f8e	-0.30199856
223	0x3f009390	0.5022516
224	0x3e405bf0	0.18785071
225	0x3e97e657	0.29667923
226	0x3d4f1cd7	0.050564613
227	0xbe9a1287	-0.3009226
228	0xbdb2422a	-0.08704026
229	0xbf887bb3	-1.066275
230	0x3ef48d1e	0.47763914
231	0xbbde43af	-0.006782971
232	0xbe1fd884	-0.15609938
233	0xbefb73d6	-0.49111813
234	0x3e46695c	0.19376129
235	0xbe44b21d	-0.1920857
236	0x3e14080e	0.14456198
237	0xbe278cc3	-0.1636229
238	0xbed616bc	-0.4181422
239	0xbe1ce77a	-0.15322676
240	0xbe8d41f6	-0.27589387
241	0xbf128f0f	-0.5724954
242	0x3dc4159e	0.09574436
243	0x3dc2725a	0.09494467
244	0xbe2472fb	-0.16059487
245	0xbe84a649	-0.25908116
246	0x3efc1166	0.49232024
247	0x3e508313	0.20362501
248	0x3ed50b85	0.4161035
249	0x3ebab7cc	0.3646835
250	0xbe389c24	-0.18028313
251	0xbcbc544f	-0.02298942
252	0xbcc16a51	-0.023610266
253	0x3da6a762	0.081373945
254	0x3ee7572c	0.45183694
255	0x3e7aed0a	0.24504486

bias_ih_l0 f4 [100]
0	0xbe8b4e43	-0.27208146
1	0x3e18de2a	0.14928499
2	0x3e42aafb	0.19010536
3	0x3f07a1be	0.52981174
4	0xbe488e90	-0.19585633
5	0x3e0ec68a	0.13942924
6	0x3df221f5	0.11822883
7	0xbdff5d0e	-0.12468921
8	0xbe75b3f6	-0.23994431
9	0xbe22cbc8	-0.15898049
10	0x3e857e38	0.2607286
11	0xbe9f8959	-0.31159475
12	0x3c6cfb49	0.014464208
13	0xbe93662a	-0.28788882
14	0xbe8ea548	-0.27860475
15	0xbe337749	-0.17525972
16	0x3d051075	0.032486398
17	0x3c309cdc	0.010779586
18	0xbde3246c	-0.11090931
19	0x3eebb4a6	0.4603626
20	0xbec579c4	-0.38569462
21	0x3b19792e	0.0023418176
22	0x3e327498	0.1742729
23	0x3e58d24c	0.21173972
24	0x3eb8040d	0.3594059
25	0x3e06a031	0.13147046
26	0xbdf658bf	-0.12028646
27	0xbe622c28	-0.22087157
28	0x3ea4589f	0.32098863
29	0x3d9a365d	0.075299
30	0x3e0c45f7	0.13698564
31	0xbe5f8f9b	-0.21832125
32	0x3d353de4	0.044248477
33	0x3f080f3c	0.53148246
34	0x3f0e09c3	0.55483645
35	0xbd4059ec	-0.046960756
36	0xbe18e866	-0.14932403
37	0x3e0b8f8f	0.13628982
38	0x3df9ca4f	0.121967904
39	0x3c13f02c	0.009029429
40	0xbe468a65	-0.19388731
41	0x3d744db1	0.059644405
42	0x3e5b25d7	0.21401154
43	0xbc1de127	-0.0096362
44	0x3e99a6e1	0.3001013
45	0xbe711e0d	-0.2354662
46	0x3e5680b0	0.20947528
47	0xbcdc13fa	-0.026864994
48	0xbe68de70	-0.22741103
49	0x3d8ec207	0.069706015
50	0x3e4900ac	0.19629163
51	0xbe3f7162	-0.18695596
52	0xbee2a729	-0.44268158
53	0x3e00493d	0.12527938
54	0x3a81c524	0.0009900671
55	0x3e0600fe	0.13086316
56	0x3d3feb74	0.046855405
57	0xbe89626b	-0.268329
58	0xbe333473	-0.17500477
59	0x3f2e1b12	0.68010056
60	0xbeb3db51	-0.35128263
61	0x3dfe5442	0.12418415
62	0x3d9f5a6e	0.0778092
63	0x3e0df4a5	0.13862856
64	0x3d59105c	0.052994117
65	0xbe3d22b7	-0.18470274
66	0x3dcbae01	0.09945298
67	0xbde0d5ad	-0.109782554
68	0x3d1230f7	0.035691228
69	0x3e43db18	0.19126546
70	0x3ecaba49	0.3959525
71	0x3e2531b6	0.16132244
72	0x3e618c8c	0.2202627
73	0x3c07442a	0.008255998
74	0xbe5cbc01	-0.21556093
75	0xbd99c9c4	-0.07509187
76	0x3da6ef59	0.08151121
77	0x3e669852	0.22519043
78	0x3d777297	0.060412016
79	0x3e27571d	0.16341825
80	0x3e0adbe7	0.13560449
81	0x3ea1d51a	0.31607896
82	0xbf1a5d3e	-0.60298526
83	0x3eb1b2e3	0.34706792
84	0xbe363bd6	-0.17796263
85	0xbedbecec	-0.42954195
86	0x3e2a37d8	0.16622865
87	0x3ec42989	0.3831294
88	0x3ed7a965	0.42121425
89	0xbd803ca3	-0.062615655
90	0xbdccc564	-0.09998587
91	0x3d56b4f2	0.052418657
92	0xbe04e235	-0.12976916
93	0x3e81565a	0.25261194
94	0xbdaa3727	-0.08311301
95	0x3df7253e	0.1206765
96	0xbd7e6cdf	-0.062115546
97	0xbe1f790f	-0.15573524
98	0x3e60ea7e	0.21964452
99	0xbe6fddd5	-0.23424466

bias_hh_l0 f4 [100]
0	0xbe79fa0c	-0.24411792
1	0x3e2c7ea2	0.16845182
2	0x3de631c7	0.11239963
3	0x3f09a2ff	0.5376434
4	0xbe50e5c4	-0.20400149
5	0x3d8be218	0.06830233
6	0x3d6b77c5	0.057487268
7	0xbde53ee8	-0.11193639
8	0xbe3cd605	-0.18441017
9	0xbddaf6ec	-0.10691628
10	0x3ebdbe1c	0.37059104
11	0xbe84ea09	-0.25959805
12	0x3c9f4d50	0.019446045
13	0xbe30bede	-0.1726031
14	0xbe86fc76	-0.26364487
15	0xbe7aee09	-0.24504866
16	0xbd90255a	-0.07038374
17	0x3d1663e6	0.036716364
18	0xbd69659a	-0.05698166
19	0x3eef4323	0.4673091
20	0xbec6ba72	-0.3881412
21	0x3da46a7a	0.08028121
22	0x3e8a92bd	0.27065077
23	0x3e9e8914	0.30963957
24	0x3ebdbb64	0.3705703
25	0x3cd09075	0.025459507
26	0xbdb2ac92	-0.087243214
27	0xbd9d4953	-0.07680001
28	0x3e06f8fe	0.1318092
29	0x3d9c3c92	0.0762874
30	0x3d0a4674	0.033758596
31	0xbe984ba2	-0.29745203
32	0x3e3789a2	0.17923597
33	0x3f023597	0.5086302
34	0x3f046a36	0.51724565
35	0x3ccd0d38	0.025030717
36	0xbe5eeffb	-0.21771233
37	0x3e28384c	0.16427726
38	0x3e05dc4a	0.13072315
39	0xbdcf8535	-0.10132829
40	0xbd54e111	-0.051972453
41	0x3e02479f	0.12722634
42	0x3ebc2516	0.36747044
43	0x3dc1d000	0.09463501
44	0x3e5d7b3d	0.21629043
45	0xbd7647db	-0.06012712
46	0x3de3cb8c	0.11122808
47	0xbe01108e	-0.12603971
48	0xbe42b23b	-0.19013302
49	0x3b10968d	0.0022062392
50	0x3e092af1	0.13395287
51	0xbe5eff89	-0.21777166
52	0xbeb05d72	-0.34446293
53	0x3e13d24f	0.14435695
54	0xbd2ef203	-0.04271127
55	0x3dc230f4	0.09481993
56	0xbd9a2a3d	-0.075275876
57	0xbebecaa7	-0.37263986
58	0xbea1ab81	-0.3157616
59	0x3f37277a	0.7154461
60	0xbeccda19	-0.40010145
61	0x3e19b798	0.15011442
62	0x3e684114	0.22681075
63	0x3d1aed33	0.037823867
64	0xbd235e01	-0.03988457
65	0xbd4a1f88	-0.049346477
66	0x3e8da3bc	0.27663982
67	0xbd219e63	-0.03945769
68	0x3df504f7	0.119638376
69	0x3e6a2958	0.22867334
70	0x3f073114	0.5280926
71	0x3e21c3d6	0.15797362
72	0x3e197cc4	0.14989
73	0x3db4619f	0.08807682
74	0xbdc6f695	-0.097150005
75	0xbc7ca301	-0.015419723
76	0x3d1274b4	0.035755828
77	0x3dbc36df	0.09190153
78	0x3e0c2a84	0.13688093
79	0x3e2ec9a5	0.17069109
80	0x3d78a332	0.06070251
81	0x3ea4a5a5	0.32157627
82	0xbee497f0	-0.4464717
83	0x3ee93550	0.45548487
84	0xbdc50a4b	-0.09621104
85	0xbee44290	-0.44582033
86	0x3d675bd3	0.056484055
87	0x3edc4730	0.43023062
88	0x3e96201c	0.29321373
89	0xbd947167	-0.07248192
90	0xbd4d3449	-0.05009869
91	0xbdc76d81	-0.09737683
92	0xbde822bf	-0.11334752
93	0x3eac41a6	0.33643836
94	0xbe369da2	-0.1783357
95	0x3dab643b	0.08368727
96	0xbde5aea7	-0.11214953
97	0xbe0e5425	-0.13899286
98	0x3e7ed12f	0.24884485
99	0xbe7ec955	-0.2488149

weight_ih_l1 f4 [100, 100]
0	0xbe4e4396	-0.2014297
1	0x3f1b3f08	0.60643053
2	0xbe851113	-0.2598959
3	0x3ede960a	0.43473846
4	0xbf0ab998	-0.54189444
5	0xbf393c9c	-0.7235811
6	0x3f07847b	0.52936524
7	0xbec66ab3	-0.3875328
8	0x3eac5ffd	0.33666983
9	0x3e972e4e	0.29527515
10	0x3e85f4bb	0.26163277
11	0xbeeaf23d	-0.45887938
12	0xbc1eee8c	-0.009700429
13	0x3e9eb8a5	0.31000248
14	0xbeab7d6c	-0.33494127
15	0xbe16963a	-0.14705744
16	0xbdd01730	-0.10160673
17	0x3ef6ad41	0.48179057
18	0xbe7dac50	-0.24772763
19	0xbca93ccd	-0.020658875
20	0xbf1fa171	-0.62355715
21	0xbea8c3bb	-0.3296183
22	0x3ec708c1	0.38873866
23	0x3d215b0f	0.03939348
24	0x3d0fb95b	0.035088878
25	0xbea87a25	-0.3290569
26	0xbf2b7302	-0.66972363
27	0xbd06fcef	-0.03295606
28	0x3ccc7406	0.024957668
29	0x3f3a93ce	0.7288178
30	0xbe4e1fef	-0.20129369
31	0xbe2930d4	-0.16522533
32	0xbcab68a7	-0.020923926
33	0x3f0b56f5	0.5442956
34	0x3ebc2806	0.36749285
35	0xbda01906	-0.07817273
36	0xbed4036e	-0.41408867
37	0xbf2658a4	-0.64979005
38	0xbeb2db65	-0.3493301
39	0xbeac64c1	-0.3367062
40	0x3d179471	0.0370068
41	0x3e4344ab	0.19069164
42	0x3dacfbb0	0.08446443
43	0xbef3cc16	-0.47616643
44	0x3e9883cc	0.29788053
45	0xbe0a5013	-0.13507108
46	0x3e13b238	0.14423454
47	0xbef313db	-0.47476086
48	0x3e4f7ee5	0.2026325
49	0xbecddf67	-0.40209505
50	0x3e631138	0.22174537
51	0x3eef8689	0.4678233
52	0x3d56d01d	0.052444566
53	0xbcd6d8d6	-0.026226442
54	0x3f268e84	0.6506121
55	0xbb48d3fc	-0.003064393
56	0xbf2ef5d7	-0.6834387
57	0xbc79982b	-0.015234034
58	0xbdda9e01	-0.10674668
59	0x3f2d485f	0.67688555
60	0xbe141ce1	-0.14464141
61	0x3ebbff57	0.36718246
62	0x3ecdd07c	0.40198123
63	0xbf003bcb	-0.50091237
64	0x3eac58da	0.33661538
65	0xbefcc492	-0.4936872
66	0x3e97a838	0.29620528
67	0x3eac1781	0.33611682
68	0x3f00fa75	0.5038217
69	0x3efcb29a	0.49355012
70	0xbb58fcd7	-0.0033109689
71	0xbe1e828e	-0.1547949
72	0x3e69d5a0	0.22835398
73	0xbeb59823	-0.35467634
74	0x3e849f39	0.25902727
75	0x3ea914a4	0.3302356
76	0x3d9c5475	0.076332964
77	0xbe1e9cdd	-0.15489526
78	0xbf00d7d5	-0.50329334
79	0xbea053dc	-0.3131398
80	0x3e3829bc	0.1798467
81	0xbd8f48b9	-0.069962926
82	0xbdacc02c	-0.084350914
83	0x3e5c9655	0.21541722
84	0x3e6a75a9	0.22896446
85	0xbeb35fc8	-0.35034013
86	0x3cd24f4d	0.02567258
87	0x3e84b59c	0.25919807
88	0x3db745e7	0.0894888
89	0xbc2d8c45	-0.010592525
90	0xbd38c3b5	-0.045108516
91	0x3ebc96a9	0.36833695
92	0x3e21952a	0.15779558
93	0xbeafddda	-0.34348947
94	0x3ece332a	0.4027341
95	0x3eb8c34d	0.36086503
96	0x3e928fba	0.2862528
97	0x3ebbffc3	0.36718568
98	0xbe0d75fb	-0.13814537
99	0xbec1a0bb	-0.3781794
100	0x3eee65c7	0.46562025
101	0xbcb01ec7	-0.02149905
102	0x3f0b8f44	0.5451548
103	0xbddff599	-0.10935516
104	0xbd730216	-0.05932816
105	0xbe396195	-0.18103631
106	0x3e18c14b	0.14917485
107	0xbe58fc4c	-0.21189994
108	0x3e67cb01	0.22636034
109	0x3ee7d52f	0.45279834
110	0xbd07c0c0	-0.033142805
111	0x3cc8313b	0.024437537
112	0x3eb01cf4	0.3439709
113	0xbded5183	-0.11587813
114	0xbe981637	-0.2970445
115	0xbeee3e87	-0.4653208
116	0xbda67dea	-0.08129485
117	0xbed7264d	-0.4202141
118	0x3f056d61	0.52120024
119	0x3cd1abc8	0.025594607
120	0xbf357f2e	-0.70897186
121	0xbf0d396f	-0.5516576
122	0xbe423b87	-0.1896802
123	0x3e9949c5	0.29939094
124	0xbe31a7a6	-0.17349109
125	0x3f198e2c	0.5998256
126	0xbe3486e8	-0.17629588
127	0xbe19ccab	-0.15019481
128	0x3dadba62	0.08482815
129	0xbbbd6e4d	-0.005780971
130	0xbf056521	-0.52107435
131	0x3ee84eda	0.4537266
132	0xbe01dd91	-0.12682177
133	0xbe31827f	-0.17334937
134	0x3d5921e7	0.053010847
135	0xbf1918a7	-0.5980324
136	0x3ebc124f	0.36732718
137	0x3eb9fe51	0.3632684
138	0xbd99d618	-0.07511538
139	0x3ed5128a	0.41615707
140	0x3ec3218a	0.38111526
141	0xbdd7c977	-0.10536473
142	0xbea6660c	-0.3249973
143	0x3e8fef94	0.2811247
144	0xbc541dae	-0.012946529
145	0xbe73ad7d	-0.2379665
146	0x3f0ed041	0.5578652
147	0xbe3e878b	-0.18606393
148	0x3c803ecf	0.01565495
149	0xbec91b87	-0.39278814
150	0x3e01727d	0.1264133
151	0xbdef84cd	-0.116952516
152	0x3e88dc28	0.26730466
153	0xbe99be73	-0.30028114
154	0x3ee257cf	0.44207618
155	0xbec49ba8	-0.38400006
156	0xbc8d0fee	-0.01721951
157	0xbdf4900f	-0.119415395
158	0x3c9548d3	0.018223202
159	0xbdfc5717	-0.123212986
160	0x3cf9027a	0.030396689
161	0xbebec876	-0.37262315
162	0xbecb0ee3	-0.39659795
163	0xbecade06	-0.39622515
164	0xbd3c6b71	-0.0460009
165	0xbebd0a54	-0.36921942
166	0x3e481651	0.19539763
167	0xbeb6c0dd	-0.35694018
168	0x3dbc6e2e	0.092007026
169	0x3e31bd5a	0.17357388
170	0xbc7ac8ab	-0.015306632
171	0x3de3ed8c	0.11129293
172	0xbeef6c1a	-0.46762162
173	0x3f017b3e	0.5057868
174	0x3e17ab9a	0.14811555
175	0xbeb72733	-0.35772094
176	0x3ed15aad	0.40889493
177	0xbe5f4795	-0.2180465
178	0xbddafc34	-0.10692635
179	0xbe71cd1e	-0.23613402
180	0x3f48b31b	0.78398293
181	0x3ec55dbf	0.38548085
182	0xbdaa607e	-0.08319186
183	0xbf022bc4	-0.5084803
184	0xbd41a64f	-0.047277745
185	0xbd195080	-0.037430286
186	0x3e147f3d	0.14501663
187	0xbec6ae5b	-0.38804898
188	0x3d4a00fc	0.049317345
189	0x3efc3bcf	0.4926438
190	0xbcbc184b	-0.022960803
191	0xbe6300a1	-0.22168209
192	0xbf5a0387	-0.8516163
193	0xbf0708ed	-0.52747995
194	0x3e29b040	0.1657114
195	0xbec2d1c3	-0.3805066
196	0x3f50ea51	0.8160754
197	0xbed11574	-0.4083668
198	0x3f56014a	0.83595717
199	0xbf307cf4	-0.68940663
200	0xbdb20a22	-0.08693339
201	0xbe8ed574	-0.27897227
202	0x3ecad53a	0.39615804
203	0xbea68b0f	-0.32527968
204	0xbe6bd69d	-0.23031087
205	0xbd48ff23	-0.049071442
206	0xbee6bed3	-0.45067462
207	0xbda8d21a	-0.08243199
208	0xbec86be7	-0.39144823
209	0x3c417b5d	0.011809197
210	0x3e4efb97	0.20213161
211	0xbec450a0	-0.38342762
212	0x3cd3ffe7	0.02587886
213	0x3f2abd7d	0.66695386
214	0xbee7ff9c	-0.45312202
215	0x3eb1c9e7	0.34724352
216	0x3e026e3e	0.12737367
217	0x3d8b9ddd	0.068172194
218	0x3e1a3deb	0.15062682
219	0x3cdac406	0.0267048
220	0xbebc9009	-0.3682864
221	0x3e5c5550	0.21516919
222	0x3c013909	0.007887133
223	0x3d679d7b	0.05654667
224	0x3f714785	0.94249755
225	0x3e3ca05b	0.18420546
226	0xbbd7eb08	-0.006589297
227	0xbf07ee86	-0.5309833
228	0xbf05832f	-0.52153295
229	0xbf01da2a	-0.50723517
230	0xbebe20ad	-0.37134305
231	0x3dcaea4e	0.09907971
232	0xbe426945	-0.1898547
233	0xbcd888da	-0.026432443
234	0x3e991621	0.29899696
235	0xbe37b6eb	-0.17940871
236	0xbe70a19b	-0.23499148
237	0x3f115dfe	0.56784046
238	0xbed55a51	-0.41670468
239	0x3ef22b9b	0.47298893
240	0x3c80d54c	0.015726708
241	0xbf485bbe	-0.7826499
242	0xbdf12eb7	-0.11776488
243	0xbe7d464f	-0.24733852
244	0xba5dbb02	-0.00084583473
245	0xbd87deaf	-0.066342704
246	0xbf5c0816	-0.8594984
247	0xbef3dffe	-0.4763183
248	0x3e17ff14	0.14843398
249	0x3e1786c5	0.14797504
250	0xbe775ab5	-0.24155696
251	0xbe576191	-0.21033312
252	0x3f1efc95	0.6210416
253	0xbf21023b	-0.6289403
254	0xbe80d886	-0.25165194
255	0x3d8ac0e4	0.06775072

weight_hh_l1 f4 [100, 100]
0	0x3e25ca8b	0.16190545
1	0x3e49f5c4	0.19722658
2	0x3c0f98c9	0.008764454
3	0xbe33e27c	-0.17566866
4	0xbd304ba0	-0.04304087
5	0xbe10a0eb	-0.14123885
6	0x3ebbb556	0.36661786
7	0xbd5e961e	-0.05434238
8	0x3e2d6903	0.1693459
9	0xbd30be38	-0.043150157
10	0x3ea7f4ce	0.3280396
11	0x3dab9109	0.08377273
12	0xbda83c52	-0.0821463
13	0x3db0aac5	0.08626322
14	0xbaaa2ba5	-0.0012982978
15	0xbd8650ec	-0.065584034
16	0xbe5a75dc	-0.21334022
17	0xbefe0deb	-0.49619994
18	0xbea04eca	-0.3131011
19	0xbd4405cd	-0.047857095
20	0x3dbd554b	0.09244784
21	0xbda7b791	-0.081893094
22	0x3e7dd061	0.24786521
23	0xbdfdda9a	-0.123952106
24	0x3eb7e051	0.35913327
25	0xbe5ac81b	-0.21365397
26	0x3e2d6371	0.16932465
27	0x3eca50be	0.39514726
28	0x3dc0b588	0.09409624
29	0xbddeef67	-0.10885506
30	0xbe329ebc	-0.17443365
31	0x3def1d7d	0.11675546
32	0xbe9984db	-0.29984173
33	0xbd5c15d7	-0.053731766
34	0xbd4217c2	-0.04738594
35	0x3de6a75a	0.112623885
36	0xbe8d0f73	-0.2755085
37	0xbea7d792	-0.32781655
38	0xbe94bc45	-0.29049888
39	0xbde0764d	-0.10960064
40	0xbe054588	-0.13014805
41	0xbdcb814a	-0.09936769
42	0x3d9f211d	0.07769988
43	0xbb974dcf	-0.00461743
44	0x3e32e35d	0.17469545
45	0xbdb71264	-0.089390546
46	0xbdb57ef2	-0.088621035
47	0x3dc099a8	0.094043076
48	0xbdead96c	-0.11467251
49	0xbe9b2e55	-0.30308786
50	0x3e558948	0.2085315
51	0x3d4110e8	0.047135264
52	0xbc8178ca	-0.015804667
53	0xbda58f13	-0.0808393
54	0xbe0cbc6c	-0.13743752
55	0x3dbdd68b	0.092694364
56	0xbeed8aac	-0.4639486
57	0xb9c522c6	-0.00037600676
58	0x3cafb32f	0.021447746
59	0x3bb19262	0.0054190615
60	0xbe555d66	-0.2083641
61	0x3e994a32	0.2993942
62	0xbd85f41f	-0.06540703
63	0xbcab96c6	-0.020945918
64	0x3c9d3607	0.019190801
65	0xbea446b4	-0.32085192
66	0xbd0b1a80	-0.03396082
67	0x3d7d6de6	0.061872385
68	0x3dbe507b	0.09292694
69	0xbe847a7c	-0.25874698
70	0xbd870a50	-0.06593764
71	0xbdaf5e07	-0.08562856
72	0x3ef23b28	0.47310758
73	0x3e0cf3b9	0.13764848
74	0x3e61ffbb	0.2207021
75	0x3d4fe82f	0.050758537
76	0x3d62e421	0.055393342
77	0x3d62ba08	0.055353194
78	0xbc8cf69f	-0.017207442
79	0xbdd2f93c	-0.10301444
80	0x3e72158c	0.23641032
81	0x3be33e21	0.0069348966
82	0xb8c9b07f	-9.617302e-05
83	0x3f1a777d	0.60338575
84	0xbe83b983	-0.25727472
85	0xbd16fc20	-0.03686154
86	0x3cffb9a9	0.03121646
87	0x3d032b2d	0.032023598
88	0x3e97c51a	0.29642564
89	0xbcfa99f6	-0.030590992
90	0xbe35dfb8	-0.17761123
91	0x3d817088	0.06320292
92	0xbcaa3f6b	-0.020782193
93	0xbe9bc130	-0.30420828
94	0xbe675af5	-0.22593291
95	0x3cb7e184	0.022446401
96	0x3e421df3	0.18956737
97	0x3ec9cea1	0.39415458
98	0x3d9509ea	0.072772816
99	0xbc6a96a1	-0.014318139
100	0x3ececb18	0.40389323
101	0x3db6c5c2	0.08924438
102	0x3e208175	0.15674384
103	0x3e5b8ff7	0.21441637
104	0x3e9908e0	0.29889584
105	0xbee5f9b1	-0.44917062
106	0x3e544f2e	0.2073333
107	0x3e42eb2d	0.19035025
108	0x3e87a930	0.26496267
109	0xbe2033cc	-0.15644759
110	0xbe889eb4	-0.2668358
111	0xbdd93f1a	-0.10607739
112	0xbe259f5d	-0.16174074
113	0x3f04d064	0.5188048
114	0x3dd5d438	0.10440868
115	0x3e905d04	0.28195965
116	0xbde3de6a	-0.111264065
117	0x3deea5e0	0.11652732
118	0x3de1020f	0.10986721
119	0xbe081bf1	-0.13291909
120	0xbe208634	-0.15676194
121	0xbdc52840	-0.09626818
122	0x3edffbf0	0.437469
123	0xbdd463c5	-0.10370592
124	0x3dcea9cf	0.10090982
125	0x3e880f36	0.26574105
126	0x3d209f93	0.03921468
127	0x3bb9e379	0.005672869
128	0xbd63ec94	-0.05564554
129	0xbd8793b6	-0.066199705
130	0xbdaeca5b	-0.0853469
131	0xbe2fe97f	-0.17178915
132	0xbdc16dce	-0.09444772
133	0xbe9892a8	-0.2979939
134	0xbf0330bc	-0.5124624
135	0x3d9094c6	0.07059626
136	0x3eadeaf6	0.33968323
137	0x3d3ae79b	0.045631032
138	0x3e1cfbe4	0.15330464
139	0xbdcf7aef	-0.101308696
140	0x3c002628	0.007821597
141	0x3ea604b6	0.3242547
142	0x3ee9cc1c	0.45663536
143	0x3e7a65d5	0.24452908
144	0x3dc9a782	0.09846403
145	0xbe4ccf91	-0.20001055
146	0xbca84fbd	-0.020545835
147	0x3f0d1f29	0.5512567
148	0xbe9b3068	-0.3031037
149	0xbe82bb06	-0.25533313
150	0xbeb1a1b1	-0.34693673
151	0xbe06d042	-0.13165382
152	0x3e9c0441	0.30471995
153	0x3cb53597	0.02212028
154	0x3de8f94d	0.11375675
155	0xbe153f31	-0.14574887
156	0x3e57bfe2	0.21069291
157	0xbdb3100f	-0.08743297
158	0x3c814923	0.015781945
159	0x3ed87522	0.42276865
160	0xbdbcf9a3	-0.09227302
161	0x3b9c47ed	0.0047693164
162	0xbd7f153c	-0.06227611
163	0xbeaaef69	-0.3338578
164	0xbe478c5a	-0.19487134
165	0xbe8af30a	-0.2713855
166	0xbc9710fb	-0.018440714
167	0x3d31ba62	0.04339064
168	0xbe1188b7	-0.14212309
169	0x3e8c6fe8	0.27429128
170	0x3e1229c4	0.14273745
171	0xbd8f9b51	-0.07012046
172	0xbcabb4c2	-0.020960215
173	0xbf485924	-0.7826102
174	0x3e8102e8	0.2519753
175	0xbc5b53e0	-0.013386697
176	0x3e029b8e	0.12754652
177	0x3e83cf8a	0.25744277
178	0xbde88da8	-0.11355144
179	0x3dfb8925	0.122820176
180	0xbd080f9c	-0.03321801
181	0xbed9196a	-0.42402202
182	0x3e554cc7	0.2083007
183	0xbea1abb7	-0.3157632
184	0xbc9f39f7	-0.01943682
185	0xbe45d859	-0.19320811
186	0x3e9f0fad	0.31066647
187	0xbcb501b5	-0.02209554
188	0xbe477a5f	-0.19480275
189	0xbe038e78	-0.12847316
190	0xbd1be851	-0.03806335
191	0x3d820675	0.06348888
192	0x3e1baf13	0.15203504
193	0xbec7e899	-0.39044645
194	0xbe84494c	-0.2583717
195	0x3e7cd98a	0.2469236
196	0x3d0ce1b7	0.034394946
197	0xbe04f25f	-0.12983082
198	0x3e5a5b64	0.21323925
199	0x3c8b5f0c	0.017013095
200	0x3e7a5459	0.24446239
201	0x3d87ce85	0.06631187
202	0x3b82ec0f	0.0039954255
203	0x3e7ac11d	0.2448773
204	0x3e3ba786	0.18325624
205	0xbe32fb4c	-0.17478675
206	0xbe9ee696	-0.31035298
207	0x3e340673	0.17580585
208	0xbeed3564	-0.46329796
209	0xbddc69a3	-0.10762336
210	0xbdfaa83f	-0.12239122
211	0xbda6b5e0	-0.08140159
212	0xbc97e9a5	-0.018544028
213	0x3e4803a1	0.19532634
214	0xbb48cfe0	-0.0030641481
215	0x3df4aa81	0.119465835
216	0xbe8884e2	-0.26663882
217	0x3deb34fd	0.11484716
218	0xbe354490	-0.17701936
219	0x3ea23a2f	0.31685016
220	0x3cbfbf04	0.023406513
221	0x3e2470e0	0.16058683
222	0xbea61010	-0.3243413
223	0xbd8f0353	-0.06983056
224	0x3ef6a5c5	0.48173347
225	0x3e46aeef	0.1940267
226	0x3c96e7fa	0.018421162
227	0xbe05cc7b	-0.13066284
228	0xbe74098f	-0.23831771
229	0x3ea4581b	0.3209847
230	0xbe0c8813	-0.13723783
231	0x3e974998	0.29548335
232	0x3d75f68c	0.06004958
233	0xbe9170a2	-0.28406245
234	0xbe5894e9	-0.21150555
235	0x3e67977c	0.2261638
236	0x3e209515	0.1568187
237	0x3e5843d0	0.21119618
238	0x3e4787f4	0.19485456
239	0xbe64d3a6	-0.22346362
240	0xbcfe4bc5	-0.03104199
241	0xbe06ac56	-0.13151678
242	0x3e3a4750	0.18191266
243	0x3e0e0e77	0.13872705
244	0x3d3d40e0	0.046204448
245	0x3d8ec2fb	0.06970783
246	0x3ee51e52	0.44749695
247	0x3d015c9d	0.031582464
248	0xbe4224b1	-0.18959309
249	0xbe346755	-0.17617543
250	0xbe6bdd47	-0.2303363
251	0xbed92af1	-0.42415574
252	0x3e9262d9	0.2859104
253	0x3e1868a2	0.14883664
254	0x38e3aaa3	0.00010855987
255	0x3ec25890	0.37958193

bias_ih_l1 f4 [100]
0	0x3ec7bf3a	0.39013082
1	0x3e30ae01	0.17253877
2	0x3ea8f580	0.32999802
3	0xbe9ed325	-0.31020465
4	0xbe655a31	-0.22397687
5	0x3e4d05be	0.20021722
6	0xbed46d21	-0.4148951
7	0x3e8a9190	0.2706418
8	0x3f1e5b69	0.6185823
9	0xbeedd0b5	-0.46448293
10	0x3e9533ed	0.2914118
11	0xbc3e6e70	-0.01162301
12	0xbe11e9a0	-0.14249277
13	0xbe270f2c	-0.16314381
14	0x3e94f7a9	0.290952
15	0x3d22d620	0.039754987
16	0x3dffca4d	0.12489758
17	0x3f0228ed	0.508437
18	0xbc872e7e	-0.016501661
19	0x3e35e7c8	0.17764199
20	0x3ed6a356	0.4192149
21	0xbe16ccfb	-0.14726631
22	0x3e1d10c8	0.15338433
23	0xbcb01a80	-0.021497011
24	0xbdfd1083	-0.12356665
25	0x3d6e4a92	0.058176585
26	0x3f035988	0.5130849
27	0x3d965e72	0.07342233
28	0xbdafddb4	-0.085872084
29	0x3e3221de	0.17395732
30	0xbd5389a4	-0.051644936
31	0xbe6e5aac	-0.23276776
32	0xbcfe81ad	-0.031067694
33	0xbd01447a	-0.031559445
34	0x3e8bd4ec	0.27310884
35	0x3eb1dda6	0.34739417
36	0x3ead3f20	0.33837223
37	0xbc747fdf	-0.014923065
38	0x3c9eee1f	0.019400654
39	0x3e48c1e2	0.1960521
40	0xbe8858a2	-0.2663012
41	0x3e09ac14	0.13444549
42	0x3ea4aa3f	0.32161137
43	0xbcf1c1d5	-0.029511372
44	0xbeb13fe4	-0.34619057
45	0xbe276897	-0.16348492
46	0xbd3f9208	-0.046770126
47	0x3df74a2f	0.12074696
48	0xbd8e6e77	-0.06954663
49	0x3d5b68a3	0.053566586
50	0xbcb64b77	-0.022252781
51	0x3d56fabc	0.052485213
52	0xbe422096	-0.18957743
53	0x3e7e3c26	0.24827632
54	0xbf276478	-0.6538768
55	0xbd8a9c49	-0.0676809
56	0x3eb78b36	0.35848397
57	0xbe2aea2b	-0.1669089
58	0x3d71ea9a	0.059061624
59	0xbe1f71c7	-0.15570746
60	0xbef700a4	-0.48242676
61	0x3d69f54f	0.05711871
62	0x3ee35b34	0.4440552
63	0x3d0e4c47	0.034740712
64	0xbeab74b7	-0.33487484
65	0x3c895d66	0.016768169
66	0xbdae7dc5	-0.085200824
67	0xbd3105cc	-0.04321842
68	0xbea21d26	-0.31662863
69	0x3e39ba90	0.18137574
70	0x3c60141b	0.0136766685
71	0xbea200ec	-0.31641328
72	0x3e8ee99f	0.27912614
73	0x3e864711	0.26226094
74	0x3ed72ae1	0.42024902
75	0x3d2a30c9	0.04155043
76	0xbdcef45d	-0.10105202
77	0x3e18d57d	0.1492519
78	0xbbb909f7	-0.00564694
79	0x3de803ed	0.11328874
80	0xbe0408df	-0.12894009
81	0xbe1b4f47	-0.1516696
82	0xbe774aaa	-0.24149576
83	0xbafde6e2	-0.0019371177
84	0x3eeb2109	0.4592364
85	0xbedebc17	-0.43502876
86	0x3ee774ff	0.45206448
87	0xbe41d25d	-0.18927903
88	0xbe6475e8	-0.22310603
89	0xbc132f68	-0.0089834705
90	0xbe0a1953	-0.13486223
91	0x3e5e4f93	0.21710043
92	0xbe8b5bfd	-0.2721862
93	0xbdecf612	-0.11570372
94	0xbe378401	-0.17921449
95	0x3d9a273c	0.075270146
96	0xbd25cea4	-0.04048027
97	0x3e02e217	0.12781559
98	0x3ec9ddb2	0.39426953
99	0xbbcb369d	-0.006201579

bias_hh_l1 f4 [100]
0	0x3ec57682	0.38566977
1	0x3ea4361f	0.3207254
2	0x3eb43f5d	0.35204592
3	0xbeb03441	-0.34414867
4	0xbe175825	-0.14779718
5	0x3e840466	0.25784606
6	0xbed27139	-0.41102007
7	0x3e8a53b1	0.27016976
8	0x3f1ee5f1	0.6206961
9	0xbeda7b79	-0.42672327
10	0x3e464db2	0.19365576
11	0x3d5e2622	0.054235585
12	0xbdcbb447	-0.099464945
13	0xbe7397be	-0.23788354
14	0x3e880260	0.26564312
15	0x3d6b86d0	0.057501614
16	0x3e6e54e8	0.23274577
17	0x3f03e42a	0.51520026
18	0x3d936a0e	0.07197963
19	0x3e4e1020	0.20123339
20	0x3ec85a63	0.3913146
21	0xbb8c8c8d	-0.004289216
22	0x3c2ca8bc	0.010538276
23	0xbd02b588	-0.031911403
24	0xbe187e7e	-0.14892003
25	0xbd0f47ec	-0.0349807
26	0x3f058e65	0.521704
27	0x3e5c032d	0.21485586
28	0x3d5ab5e4	0.05339612
29	0x3e8df00f	0.27722213
30	0xbe2daabd	-0.16959663
31	0xbe26af7f	-0.16277884
32	0xbaf4a797	-0.0018665668
33	0x3d0dc8d1	0.03461534
34	0x3ed5b2e5	0.41738048
35	0x3eaec5b3	0.34135208
36	0x3ec6b8d3	0.38812885
37	0xbc3f647e	-0.011681674
38	0xbd58a5da	-0.052892543
39	0x3e6ac08c	0.22925013
40	0xbe950526	-0.2910549
41	0x3d9dee1e	0.07711433
42	0x3e939e81	0.28831866
43	0x3c5259ad	0.012838763
44	0xbe9cfc0f	-0.30661055
45	0xbe4dbd7d	-0.20091815
46	0xbe00dec1	-0.12584974
47	0x3e2a2257	0.16614662
48	0xbd57335d	-0.05253922
49	0x3db5d63f	0.08878755
50	0xbe106cf5	-0.14104064
51	0x3c66efcb	0.014095257
52	0xbd80c501	-0.062875755
53	0x3e45259c	0.19252628
54	0xbf0e0bd0	-0.55486774
55	0xbdc42d2e	-0.0957893
56	0x3e316318	0.17322958
57	0xbe09fc1c	-0.13475078
58	0x3b1cc619	0.0023921786
59	0xbe5292c3	-0.20563798
60	0xbf0a5d3b	-0.5404851
61	0x3d0a9e85	0.033842582
62	0x3ee41bb2	0.4455238
63	0x3e15fde5	0.14647634
64	0xbe83b376	-0.25722855
65	0x3d675c6d	0.05648463
66	0xbd952d99	-0.07284088
67	0x3d2e9ff5	0.042633016
68	0xbe7bda3a	-0.24594966
69	0x3e1bcae2	0.15214112
70	0xbdcd4749	-0.10023362
71	0xbea4b28c	-0.3216747
72	0x3e344bd0	0.17607045
73	0x3e0aac02	0.13542178
74	0x3eed2d42	0.4632359
75	0x3db89967	0.09013634
76	0xbe1ac4d1	-0.15114142
77	0x3e074027	0.13208066
78	0xbcb301b8	-0.021851406
79	0x3e992f9e	0.29919142
80	0xbd8296db	-0.0637643
81	0xbe4fa588	-0.20277989
82	0xbdc22c08	-0.094810545
83	0x3db77e2d	0.08959613
84	0x3eeeb224	0.46620286
85	0xbeb0cf56	-0.34533185
86	0x3f05ca4f	0.52261823
87	0xbe1098b6	-0.14120755
88	0xbdd73285	-0.10507683
89	0xbda6ddef	-0.08147799
90	0xbe1f1971	-0.15537049
91	0x3e31730c	0.17329043
92	0xbece8fd2	-0.403441
93	0x3c36210a	0.011116276
94	0xbe043d91	-0.1291411
95	0xbd5ba76e	-0.05362647
96	0xbda442ed	-0.080205776
97	0x3e2817b2	0.16415289
98	0x3ee7e6c9	0.45293263
99	0x3dea4e65	0.11440734
