Models/Trump_GRU.pt (torch_old, 811204 bytes, 15 tensors)

weight f4 [100, 100]
00000000: f3a9 5cbe a25a 3e3d b6f0 123f f77c aa3f
00000010: bbdb 753e c8fd 23bf caca b3be 8714 0640
00000020: 906b 9c3d 022b 02bf 3618 84be 104a 823f
00000030: a6d0 42bf caba 1040 349d ea3d 6d61 f3be
00000040: 5ada 143e 3ec2 b63f 51eb d33d e747 3cbf
00000050: 6e9c 573f de9d 113e 4adc 7bbf 836c 183f
00000060: c4ad 693f 1d56 1d3f 8de9 79bf 22e6 843f
00000070: f55c 34ba 4539 0abf a7d8 4ebe 3e85 133f
00000080: eb40 d73e 1b82 75bf 30a1 4840 6838 c03e
00000090: a241 353e 3bd5 03c0 b50d 51bf 5c74 95be
000000a0: 65d7 6c3f eec7 05bf 73f6 063f fb8a 103f
000000b0: ae52 1040 9573 99bf da83 38bf b73e 853f
000000c0: 09b7 b0bf fd0b ed3e 991b 89bf 8d9d 033f
000000d0: 177a 64bf cd54 f1bd 0f13 5fbf d266 dabd
000000e0: 8892 7c3e 85cb 773f c520 913e f704 573f
000000f0: a020 ba3f b2fc 283f 9806 363e 5936 0a40
00000100: db69 ba3e 92a5 06bf 29ac e6be ef0b fc3e
00000110: e7e6 8bbd 293d ddbe d42f 67be 76d3 7fbf
00000120: 16ca ea3d 93a5 08bf 0c54 033e 0b89 60bf
00000130: 9c99 8e3f 7c64 71be d9d6 1d3f e006 3cbf
00000140: 4a76 cd3f 87a3 94bf f40c f63e 11d6 60bf
00000150: 1f46 a03e 9f95 6fbf 74c4 c73f 10b1 d7bf
00000160: e540 0a40 9c23 353f f11c 283f c7b8 013f
00000170: dbfb 18bf cf15 1c3f 862b 8fbf 82fd 60bf
00000180: cd2a 2abf c148 7fbf cf51 383f 7f5b a93d
00000190: 9194 663f 164f 1540 267b b53e 9562 063e
000001a0: 45e8 01bf 8423 293f 1ce1 99be 28d9 813f
000001b0: 2f38 563e ddf0 32bf 910a 59bf 2f0a c63b
000001c0: 80b7 16be 86bc 3d3f 8021 413e bbdc 0d3f
000001d0: ad98 bc3d 6d2a 42be 0164 3f3f c344 18bf
000001e0: 8cf6 b8bf 1367 acbf b842 f7bd 9d5b 893e
000001f0: 1d26 7cbf e178 8abe 13b0 f2bd 0d32 94be
00000200: b994 39bf f587 983f 6392 7f3f 96df 46bf
00000210: bb6b e13d 9059 3cbd e96a e4be 91aa a6bf
00000220: aa54 883f 2a99 3e3e 7114 863f ab42 943f
00000230: 5deb fc3c 0d56 75be 070e dfbf 3156 b03d
00000240: 10ff 993d d944 76bf 2041 f6be d191 b23e
00000250: afda 643e 05f7 5340 b25b 083f 047e 3d3f
00000260: 48d5 263f 9aa2 673f 2b48 7e3f 240b ddbf
00000270: 035a ebbe d715 d83f 9da4 993f 5327 bdbf
00000280: 7667 aa3f 05c9 c63e c1f5 973f 1e88 833f
00000290: 3fe5 5ebe 5a7d 6dbe 8f8b 6bbf 4f8e 243f
000002a0: 4fd9 1ec0 611c 053e a967 c83f 6967 0bbf
000002b0: fdb1 88bf c8cb 9ebe 9c89 023f a0e3 123f
000002c0: 2639 8c3f 6593 1d3e 3d7b 713f 2573 593e
000002d0: 7525 9e3e 518e 29bf 34fd 7a3e 5d85 b1bf
000002e0: 5142 c73f 1cbd f4bf 0bae db3e 2104 1bbf
000002f0: 9451 06bf 0d2f 543f 1211 c53e f843 e33e
00000300: c267 8ebf a53d a8bf 89ed c1be 3686 4c3e
00000310: 511e 623f 4b1b ef3e af09 f4bf 7e0f 0d3f
00000320: 65fe ef3f 62f6 5840 79c6 903f 67f5 83bf
00000330: 0636 3e3e b5b7 9abf 08d7 093f 7171 0940
00000340: 0c46 6cbf 4c9f 953f 96eb 0cc0 1fea 7bbf
00000350: bc9d b4bf e367 813f 7df3 9cbe 4a70 d73f
00000360: 05ea a03f ad6f f6bf 07a6 af3f f318 5bbe
00000370: ee60 82bf f44d 4fbf 4763 a23e 8dc2 ce3e
00000380: 5c56 2a3f f091 48bf 6e12 bfbe d257 84bf
00000390: f74f e83f c831 2c3f 3b18 423e 7bc0 12be
000003a0: 4e2d b3bf dcfe 26be 1647 d53e c871 a6bf
000003b0: 99e6 cfbd 98cd e4be cedf 41bf 59e9 853f
000003c0: 0078 6bbe e25c cd3e 4edc 85bf d8a5 c3bf
000003d0: 025f c8bf ecc9 2ec0 4f2f 7b3e 0878 073f
000003e0: 4da9 82bf 0552 873f e656 63bf a413 7d3f
000003f0: 9a34 40bf 1d3c 0a40 ce20 28bf d64e 343f
-0.21549205 0.046473153 0.57398546 1.3319386 0.24009602 -0.64059114 -0.35115653 2.095003
0.076377034 -0.50846875 -0.2579972 1.0178852 -0.7609962 2.2614007 0.11455765 -0.47535267
0.1453642 1.4278028 0.103476174 -0.73547214 0.8422307 0.14220378 -0.9838301 0.59540576
0.9128077 0.61459523 -0.97621995 1.0382731 -0.0006880307 -0.53993636 -0.20199834 0.57625186
0.42041716 -0.9590165 3.134838 0.37543035 0.17700818 -2.0598896 -0.8166154 -0.29190338
0.92516166 -0.52258193 0.527198 0.5646207 2.2550464 -1.1988398 -0.7207619 1.0409764
-1.3805858 0.4629821 -1.0711547 0.5141228 -0.89248794 -0.117837526 -0.87138456 -0.10664143
0.24665272 0.9679492 0.28345314 0.8399195 1.4541206 0.6601058 0.17775953 2.159567
0.36408886 -0.5259639 -0.45053223 0.49227855 -0.068311505 -0.43210724 -0.22576839 -0.9993204
0.11464326 -0.53377646 0.1282503 -0.8770911 1.1140628 -0.23573488 0.61655957 -0.7344799
1.6051724 -1.1612405 0.48056757 -0.8782664 0.31303498 -0.9358768 1.5606828 -1.685091
2.1602108 0.7075746 0.6566916 0.5067257 -0.597593 0.6097078 -1.1185157 -0.8788682
-0.6647156 -0.9972039 0.7199983 0.082694046 0.90070444 2.332952 0.35445517 0.13123544
-0.5074504 0.6606982 -0.30054557 1.0144396 0.2091987 -0.6989878 -0.8478175 0.0060436944
-0.14718437 0.7411579 0.18860435 0.5541493 0.09208808 -0.18961497 0.7476197 -0.5947992
-1.445024 -1.3468956 -0.120732725 0.26827708 -0.98495656 -0.27045348 -0.1184999 -0.28944436
-0.7249256 1.1916491 0.99832743 -0.77684915 0.11006876 -0.04598385 -0.44612816 -1.3020803
1.0650837 0.18613115 1.0474988 1.1582845 0.030873949 -0.23958607 -1.7426156 0.0861019
0.075193524 -0.96198803 -0.4809656 0.34876874 0.22349046 3.3119519 0.53264916 0.7402041
0.6516919 0.90482485 0.9932887 -1.7269025 -0.4596711 1.6881665 1.2003361 -1.4777626
1.3312824 0.3882524 1.1871873 1.0275915 -0.21767138 -0.23192349 -0.92009825 0.64279646
-2.4820135 0.12999107 1.5656635 -0.54454666 -1.0679318 -0.31014848 0.50991225 0.5737858
1.095494 0.15388258 0.9432867 0.2123533 0.30887952 -0.6623278 0.24510652 -1.3868824
1.5567113 -1.9120212 0.42906222 -0.60553175 -0.5246823 0.82884294 0.38489586 0.44387794
-1.1125414 -1.3143812 -0.37876537 0.19973072 0.8832751 0.4670051 -1.9065455 0.55101764
1.874951 3.390038 1.1310569 -1.0309266 0.18575296 -1.2087313 0.53843737 2.147549
-0.92294383 1.1689239 -2.201879 -0.98404115 -1.4110637 1.0109829 -0.30654517 1.6831143
1.2571417 -1.9252831 1.3722543 -0.21396236 -1.018583 -0.8097832 0.31716368 0.40382805
0.66538024 -0.7834768 -0.37318748 -1.0339301 1.8149403 0.6726346 0.18954556 -0.14331238
-1.3998201 -0.16308159 0.41655797 -1.3003473 -0.10151405 -0.44688106 -0.75732124 1.0461837
-0.22994995 0.40109926 -1.0457857 -1.5284986 -1.5653994 -2.7310743 0.24529766 0.5291753
-1.0207916 1.0571905 -0.8880447 0.98858094 -0.75080264 2.159919 -0.65675056 0.70432794

weight_ih_l0 f4 [300, 100]
00000000: 3f73 2dbf 5541 19bf 22f8 2abf d57a 3cbf
00000010: b019 003f 04f5 21be 93a2 b7bf a942 05be
00000020: 814a 973e 364c f9be 2ecf adbe e6d1 673d
00000030: 7724 723e 0bb6 afbd 8338 a3be cfdf be3e
00000040: fbdd 14bd 5a79 e6be 7d88 d13e 682a 273e
00000050: 2d63 843f e8fa 5dbe c16c 8c3e 720d 2a3f
00000060: 5e35 0abf ff65 37bd e587 a8be 0e47 503d
00000070: 0a9d 0abe 8ca1 023e ba27 243f 94ea 90be
00000080: 526d 87be 2517 08bf 9040 4e3e e430 e6be
00000090: 5e14 043f ab72 b1bd 1eac 8bbe 07d4 193d
000000a0: 0204 003e 4dc0 01bf 751b 293e 3c64 313e
000000b0: 2b5c fcbe b9ca 5fbe 6ae7 0ebf 1977 c83c
000000c0: a0a8 66bd 51a9 b7be a5b1 09bf 0654 42be
000000d0: 6325 16bf 9f1d 74bd 7b2c d13e 6422 ef3e
000000e0: 170d 433e 2f52 3dbe 8f70 24bf 5882 b43d
000000f0: 84e1 67be 53ab aabe 41d6 5d3f 163b b5bd
00000100: bb8d ef3d 97f5 4cbf ba89 c63c 1e0c dbbd
00000110: d1b7 babe 4ac2 993e 48bf a73d dc50 c8be
00000120: 8062 95be 6c14 3abe 825a 9ebf be81 223f
00000130: 1115 b2be c0a3 8b3d ae00 4fbf b3ef b93f
00000140: 1025 4abe 2b9f 593f c7d9 143f b23f c6be
00000150: a49e 23be 3d39 fbbe 5b96 e63e 8f1b bf3e
00000160: 67c1 60be e183 5ebe 335d cfbe 771f 1fbe
00000170: 9f9f d6bd 5aeb 05bf 7f3c 833e ef39 21bf
00000180: 6a32 bcbe e34d 5ebf 7d89 3e3f 5140 373f
00000190: f1ac 16be 2472 ac3e b240 123e cff2 743f
000001a0: d66c 70be dbe0 c33e d98d e2bd adfa 0dbf
000001b0: 35df d13c 7a4f 53bc d89b 3e3f f174 1e3f
000001c0: 18c8 fcbe 4045 863e f998 683c e1af 1c3e
000001d0: 6ab8 ff3d e0b6 323c 7396 583d 1cf3 5b3e
000001e0: f6fd f73e 37c8 86be 6f18 c53e af44 3f3e
000001f0: 0ee4 513b 9a7d a63f d417 033e f05b 74be
00000200: 5f9b 91be 3ca5 5a3e 2304 653e 197c 59bd
00000210: c302 afbe 3a1b c0be e52d 6bbd dbe1 603e
00000220: 109d 7b3f dd4c 8dbe 9957 58be aa6a 263e
00000230: ec1e 89bc e389 dcbd 47c4 98be 21ca 58be
00000240: 46c3 1dbe 0384 f7bd 9393 ffbd ff26 843d
00000250: 940a 3a3e a21a ca3e ac8c 053f ba78 383f
00000260: 1cc0 6c3f 26d2 d9be c620 203f 8cd2 0d3f
00000270: 5f8e 75bf 9606 ad3d b8a8 a8bf 1901 c63d
00000280: bdb6 c43d 1cca 933e c47c 3dbd 6e62 bb3e
00000290: 5efb 33bf f99c 60be 626e e9be 6016 693d
000002a0: 6f20 8d3e affe adbe b480 e03c c95d 37bf
000002b0: 5627 5ebe 42c8 903f 6714 be3e fcb0 fe3d
000002c0: ecba 953d b6fd 54be b201 923d 6355 15bf
000002d0: aef8 cebe e003 723e a6b3 d0bd b56a 41bd
000002e0: 155c c3be a9fa c6be fd1d b1bc 46da 583e
000002f0: f520 b5bd 299c 803e 84a2 0c3d da34 e4be
00000300: cdff 7abe be1e 923c a611 02bf c069 8cbe
00000310: 79c1 86be 1b1d 15be 065e 94bd c7fb 1e3f
00000320: ebd1 023f 7028 953e 922b 81be 39fc 823e
00000330: b7db ddbe 5276 303d cc44 1fbb 8a75 54be
00000340: 2f58 dbbe 04f6 c3be bee2 3a3f 6af4 84be
00000350: f583 e63d 8e89 a8bc 766b 2c3f 1c30 3b3f
00000360: b90b 543e 6672 6b3e decc c4bd a74f 6ebe
00000370: 30a5 c6bd 1ce5 07be 411f 8bbc fb69 633e
00000380: d75d a5bd 9935 a3be 6061 a83e 4cae c73e
00000390: 6e4d 59bf 5ea7 a53e 1a4e 6abe a8a2 713d
000003a0: 5550 e1be 04a8 f33d 5919 02be d4cf c23b
000003b0: 32ad d3be 386d e03e cef2 d43d 58b8 88be
000003c0: 045a 96be c9b6 703e ef9c 8abe 8a2d a7bd
000003d0: 3c56 693e 3bc9 2a3e ccda 68bf 0cae 72bd
000003e0: 20e2 b1bd 1512 ffbe 4c8a 00bf 8747 e43e
000003f0: ff33 4cbe 3f59 303e 58b3 5e3e 5fa4 57bf
-0.67753977 -0.59865314 -0.6678487 -0.73624927 0.50039196 -0.15816122 -1.4346489 -0.1301371
0.2954903 -0.48690957 -0.33947128 0.05659666 0.23646723 -0.08579644 -0.31879053 0.37280127
-0.03634451 -0.4501446 0.40924445 0.1632477 1.0342766 -0.21677744 0.27426723 0.66426766
-0.5398768 -0.044775005 -0.3291618 0.050849013 -0.13536468 0.12756938 0.6412312 -0.2830397
-0.26450592 -0.53160316 0.20141816 -0.44959176 0.5159358 -0.08664449 -0.27279752 0.03755572
0.12501529 -0.5068405 0.1651438 0.17323393 -0.4928907 -0.21854676 -0.5582186 0.024470853
-0.056313157 -0.35871366 -0.5378669 -0.18977365 -0.586508 -0.05959856 0.40854248 0.46705925
0.19047962 -0.18488382 -0.6423425 0.088139236 -0.22644621 -0.33333835 0.8665505 -0.088491604
0.11696955 -0.8006224 0.024235595 -0.106956705 -0.36468366 0.30031043 0.08190781 -0.3912419
-0.29176712 -0.18171853 -1.2371371 0.6347922 -0.34781697 0.06818342 -0.8086041 1.4526275
-0.197407 0.85008496 0.581448 -0.3872047 -0.15978485 -0.49067107 0.45036587 0.37325713
-0.21948777 -0.21729995 -0.40500793 -0.15539347 -0.10479664 -0.52312243 0.25632092 -0.62979025
-0.36757213 -0.86837596 0.7442854 0.71582514 -0.1471441 0.33680832 0.14282492 0.95682997
-0.23479018 0.3825749 -0.110622115 -0.55460626 0.025619129 -0.012897367 0.7445655 0.6189719
-0.4937141 0.2622471 0.014196628 0.15301467 0.12486346 0.010907859 0.052877855 0.21479458
0.48435944 -0.26324627 0.38495204 0.18678544 0.00320268 1.300708 0.12802058 -0.23863196
-0.2843885 0.21352094 0.2236486 -0.053096864 -0.34181795 -0.37520772 -0.057416815 0.21961157
0.98286533 -0.27597705 -0.21127166 0.16251627 -0.016738378 -0.10768487 -0.29837248 -0.21170856
-0.15406522 -0.12085726 -0.124793194 0.064527504 0.18168098 0.39473444 0.52167773 0.72059214
0.92480636 -0.42543143 0.6255001 0.55399394 -0.95920366 0.08448522 -1.3176489 0.09668178
0.09605167 0.28865135 -0.046261564 0.36598533 -0.7030543 -0.2193488 -0.45592028 0.056906104
0.27563807 -0.3398337 0.02740512 -0.7162748 -0.21694693 1.1311114 0.3712494 0.12436101
0.07311043 -0.20799908 0.071292296 -0.58333415 -0.40424103 0.2363429 -0.10190515 -0.047220904
-0.3815619 -0.38863114 -0.021620745 0.21177015 -0.08844177 0.2511914 0.034334674 -0.44571573
-0.24511643 0.017836925 -0.5080818 -0.2742443 -0.26319483 -0.14561884 -0.07244496 0.6210293
0.5110156 0.29132414 -0.25228554 0.25583056 -0.43331692 0.04308159 -0.002430248 -0.20747963
-0.42840716 -0.38273633 0.7300223 -0.25967723 0.112556376 -0.020573404 0.6735147 0.73120284
0.20707597 0.22992858 -0.09609388 -0.23272572 -0.09699476 -0.13270992 -0.016982676 0.22208397
-0.08074539 -0.3187683 0.3288679 0.39000165 -0.84883773 0.32354254 -0.22881356 0.05899301
-0.440066 0.11897281 -0.12704982 0.005945185 -0.41343075 0.43833327 0.10397874 -0.26703143
-0.2936555 0.23507227 -0.27072856 -0.08162983 0.22786802 0.16678326 -0.9095886 -0.059248015
-0.08685708 -0.49818483 -0.50211024 0.4458582 -0.1994171 0.17221545 0.21748102 -0.84235185

weight_hh_l0 f4 [300, 100]
00000000: d883 c73d c2ff c3be 3e31 ac3e 7a49 1bbf
00000010: c1ec 0e3f e306 bdbe 7799 16be 1bc1 ab3e
00000020: ebee 86bf 026b 113f 796d 043f d7d3 cc3d
00000030: 6a4a 043f 510a b93e c30e 3f3f 58e5 1b3f
00000040: 8742 4e3f 7965 89be 5dbf 403f 6a72 ee3e
00000050: 06a9 aa3d d695 a0bd 65ef 233f a455 823d
00000060: 4765 d43d 7527 7a3e 6e6f 933e f090 293f
00000070: 9503 803e 5562 823e 6f7a a0be aa7b f2be
00000080: 9160 a13e e5ab 40bf 7faf 17be 117b 183e
00000090: 8085 023f 7514 7c3e 9b86 2abf 5a6a 94be
000000a0: 5483 ad3d 5328 993e 4818 813d ba13 813d
000000b0: 6c6b ce3e 16c6 823e 2e8f 10bf 7bbc 7e3e
000000c0: a761 283f c660 81bf 7db3 a83d c99b debe
000000d0: 9f17 b83f f362 43bf 6dce abbd 3c57 a1bf
000000e0: 4c25 8f3e a410 70bf ff1a be3d f46e 31bf
000000f0: ce7f 10be 783a 873d afdb d03e 744d 8b3e
00000100: 2a67 9e3d b886 d3be 3183 00bd b7e1 62be
00000110: d48b d83e b815 223f 86d0 b23d e966 e83e
00000120: 2a4d 313d aeb5 88be bade 54be e762 2fbd
00000130: 6655 eebd 7709 d5be 264c 9dbf 04f1 c8be
00000140: 9f14 a03d 7dc3 27bf b126 863e 1f93 863d
00000150: 476d 953d edcb 0dbe 05bb 513b 824d 41be
00000160: 97f0 433d a55c 93bd 5402 193f c35b 38be
00000170: a92b 82bf adc1 76bf 3b8f 083f f261 20be
00000180: e1c2 11be db8e 5fbd 0ea3 bebe b071 14bf
00000190: 5706 253e e8a2 483e a29b 5c3d ecf3 b5be
000001a0: d305 4fbe 1e79 023c 9722 453f df9f c0be
000001b0: f1fc ae3d f46c c1be c7aa f1be c880 b13e
000001c0: 0303 08be 06b7 033e b183 ae3e 10ce d53d
000001d0: 885a 583e 17ac 98be e690 ccbd 8636 82bf
000001e0: 5705 25bf 1225 9dbe 1ebd e73d 987d 6bbf
000001f0: cc69 61be 98dc 243e 2392 8c3e d861 863c
00000200: 07c3 9fbe 9481 833e 9390 1cbd d3b9 8f3e
00000210: 7c17 073f cbfe 373f 5e90 8cbe 6bdb e4be
00000220: f0bc 77be c776 b53d 1c67 31bf e3ee ce3e
00000230: 05dc f23e 24c2 483d b728 15be 3dea 0dbe
00000240: 2433 6e3e ae17 0bbf 57cb ca3d d246 5cbe
00000250: 6ccc b83e 45ad 3b3d 8384 a8be b305 9d3e
00000260: 2efc 34be 9696 6b3e 10a8 cb3d b531 353f
00000270: 5d6e 59bd d7ad febe 6479 63be e4d3 523e
00000280: 548d 003f 3c2a 17be 3192 2dbf 468b 45bf
00000290: 4bff 093f a4d5 273f 540f a7bc 95ae af3e
000002a0: a78c 30bf 2aaf 3d3f dc34 8c3d 226b 0b3e
000002b0: 853f 2e3c 68f9 9d3e 7684 353c 0c18 dc3e
000002c0: a875 60bc c013 61be b998 7ebd 8b9b b2be
000002d0: 4882 bf3e 6cbc 9b3d 866a b93e d0bc 70bd
000002e0: 554b 3bbf b1f6 c73e 0a29 a1be a88a e4be
000002f0: e96a 83bd a540 843d 0a22 953e fdd1 cabd
00000300: 6fa9 ea3e fc0a 91be 9a9c 323e d5bd 70be
00000310: 1354 3abe e63d 763e 51e2 0e3f 3ef1 e03d
00000320: c5a7 003d 7d64 a33e 48f7 e9bd 2d13 f3be
00000330: ad33 dc3e 7788 7cbe 2cd6 8cbe 2f01 5d3e
00000340: f0a1 083e 3f54 89bd 290c 553f 4d82 b8be
00000350: 6167 d1be 5c92 b53e 599e 8f3f 0f30 4b3e
00000360: fe25 53bd a36c 43be 0470 323c 1ce6 f83e
00000370: 05ba 743e aa5c 6d3f 01a8 ae3e 248b 373e
00000380: 64e9 a6be 785a 1bbe 70fd afbd fcbb 83bd
00000390: 197f e63e ed81 3f3f 610b 3b3e 35e8 14bf
000003a0: a9e9 f2be b2e2 fdbe 7bdc d43e f7db 17bf
000003b0: ce70 21be 3a32 09be b511 e5be 7456 b23e
000003c0: 5173 ccbc 288f d5be c983 29be 3c9a 263d
000003d0: 8a3b 23bf d0cd 5c3f 8f2c 1dbe 73c3 a73e
000003e0: a4bb ab3e 2df1 7fbf 2470 c9bd 04d8 24bf
000003f0: b569 ed3e a97e 41bf fa40 73be 10da 973e
0.09741944 -0.38281065 0.3363132 -0.6065899 0.5583001 -0.36919317 -0.1470698 0.33545765
-1.0541662 0.56803906 0.5172954 0.10001343 0.51676047 0.36140683 0.746319 0.60896826
0.8057026 -0.2683523 0.75292 0.46571666 0.0833302 -0.07841079 0.6403716 0.06363991
0.103708796 0.24429114 0.28795952 0.6623678 0.25002733 0.25465646 -0.3134341 -0.47359973
0.31518987 -0.7526229 -0.1481304 0.14890696 0.50984955 0.24617179 -0.6661164 -0.2898739
0.084723145 0.29913577 0.063034594 0.06302591 0.4031633 0.25541753 -0.56468475 0.24876587
0.65774006 -1.0107658 0.0823736 -0.4347823 1.4382209 -0.7632286 -0.08388982 -1.2604747
0.27958143 -0.9377539 0.09282493 -0.69309926 -0.14111254 0.06602949 0.40792605 0.2720753
0.07734521 -0.4131372 -0.031375114 -0.22156416 0.4229418 0.6331439 0.08731179 0.45391014
0.04328648 -0.2670111 -0.20788088 -0.04281893 -0.11637382 -0.41608784 -1.2288864 -0.3924638
0.07816433 -0.65532666 0.26201394 0.0657103 0.072962336 -0.13847323 0.0032002341 -0.18877223
0.047836866 -0.07195405 0.5976918 -0.18003754 -1.0169574 -0.96389276 0.5334355 -0.15662363
-0.14234497 -0.054579597 -0.37233776 -0.57985973 0.161157 0.19593394 0.05385936 -0.3553766
-0.20217066 0.007963447 0.77005905 -0.37621972 0.085443385 -0.37778437 -0.47200605 0.34668565
-0.13282399 0.12862787 0.34084848 0.10439694 0.21128285 -0.29818794 -0.09988575 -1.0172889
-0.6446127 -0.30692345 0.11315368 -0.91988516 -0.22013015 0.16099775 0.27455243 0.016404077
-0.31203482 0.25684798 -0.038223814 0.2807146 0.5277021 0.7187316 -0.27453893 -0.44698653
-0.24193168 0.088605456 -0.6929796 0.4041663 0.47433487 0.049013272 -0.14566313 -0.13858886
0.23261696 -0.5433301 0.09902065 -0.21511391 0.36093462 0.04581954 -0.32913598 0.3066841
-0.17674324 0.23006663 0.09944165 0.7077897 -0.053083766 -0.49742004 -0.22214276 0.20588642
0.5021565 -0.14762205 -0.67801195 -0.7716564 0.5390517 0.65560365 -0.020393051 0.34312883
-0.6896462 0.74095404 0.068460196 0.13615087 0.010635261 0.30854344 0.011078944 0.42987096
-0.013699926 -0.2198019 -0.062157366 -0.34884295 0.37404084 0.07604298 0.36214083 -0.058773816
-0.7316182 0.39055398 -0.31476623 -0.44637036 -0.06416876 0.064576425 0.29127532 -0.09903333
0.45832393 -0.28328693 0.17442551 -0.23509915 -0.18196134 0.2404705 0.5581408 0.10983513
0.031409997 0.31912604 -0.11424118 -0.47475567 0.43008175 -0.24661432 -0.2750715 0.21582483
0.13343024 -0.06705522 0.8322168 -0.36036912 -0.40899184 0.35463226 1.1220199 0.19842552
-0.051549904 -0.1908441 0.010890964 0.4861306 0.23899086 0.9271952 0.34112552 0.17924172
-0.32599938 -0.1517123 -0.08593261 -0.064323395 0.45018843 0.74807626 0.1826606 -0.5816682
-0.47443894 -0.49587017 0.41574463 -0.59320015 -0.15765688 -0.13398066 -0.44740072 0.34831583
-0.02495733 -0.41710782 -0.16554178 0.040674433 -0.63762724 0.86251545 -0.15349029 0.32766303
0.33541596 -0.9997738 -0.09835842 -0.64392114 0.4636971 -0.75583893 -0.23755255 0.29658556

bias_ih_l0 f4 [300]
00000000: 6e25 eabe e7c7 273d 8547 47be 7f9a f93d
00000010: 0b9a 703d 6795 d33e ba38 373e 9e89 07bf
00000020: 0425 20bf 4d11 413e 8b41 c0be 8f46 843e
00000030: 0d6d 06bf f23d b1bd ba27 13bf 30f1 98be
00000040: 438c 9d3d c051 05bf 765f 93b9 0fbc dcbd
00000050: e1fe f83d 8640 30bf 07d9 a3bd 2f19 80bd
00000060: dab6 103e 98eb 12bf 5ad2 00be 54f2 45bc
00000070: 8105 913e 18a7 5bbe 7006 31bf 1193 7bbe
00000080: 32a7 dabe 3db4 c0be dc23 8fbe b9cb 28bd
00000090: d67d 8bbe cde5 313c 0b1c 063e 46e6 ee3c
000000a0: f387 2cbe 815b 533e cd14 2a3e 8f83 8cbe
000000b0: 7e7d bdbe 16f1 ffbe 68d8 1cbe e6b4 f8be
000000c0: df8c 10bf 5377 8ebe bce1 dfbe 8e93 6cbd
000000d0: 100b 3ebf facd 1fbf 9118 273d 3e47 29be
000000e0: 6162 87bd 7c6d 94be 876e 18be 775b b8be
000000f0: d0f1 67be 9a36 21bf b9d1 d2bd 4cb2 29bd
00000100: c3ed a3be f163 57be 8db0 37be 9704 31bd
00000110: acbb f2bd 6fe9 833e edbe 303e efae 80be
00000120: 0ee9 45bf 1552 f8be 40b4 42bf 15ea 033d
00000130: 95c9 b73b 0841 76be 3760 e6bd 1b43 e6be
00000140: b036 0fbf 2dfb 11bf df49 c2be 7e9e 1bbc
00000150: 330d abbe 94f9 03be 5ace 1dbe ea5f f0be
00000160: 6a78 98be 4e5a 91be 33c4 acbe 01b5 eabd
00000170: dc80 54be 1c34 14bf 91df c6be a544 c8be
00000180: 45cc ec3c 5299 01bf 2d3d c8be 8b30 2a3d
00000190: bde2 8abe a334 51bf 1889 b0bf 509f b6be
000001a0: 63dd 9f3e 6e4a 6dbf 227b c3be ebdc 68bd
000001b0: 91e4 fdbd 3fd1 0bbe 53cd 08bf 246c 08bf
000001c0: ba2d 63bf 3b80 bf3e 3dbc 2abf ece2 9bbe
000001d0: ef31 71be 1b55 c3be daab c8be 8fdb d2be
000001e0: b6ae 24bf 099f 12be f640 0bbf 7039 dbbe
000001f0: 431f 78be 9383 c6be b8cb b3be ee72 cabe
00000200: 6dc7 17bf 9c70 21bf 780d 23bf d861 08bf
00000210: 75bc 2bbf 19e2 36bf 5f16 4dbe e283 f8be
00000220: b603 03bf 8a91 a3bf 2938 a2be 80ff 953e
00000230: c7ac 26bf 80b1 e5be 5748 4fbf ae4a 00bf
00000240: e381 7cbf 0381 713e 14e6 febd 6c7b 5fbf
00000250: 231a f0be c78f 0cbe f6db 6abe 229a 07bf
00000260: 5dc2 bbbe f9ab 10bf 58c5 39bf d342 b0be
00000270: 7ce4 4fbf baf1 03bf cb80 84bf 354a ae3d
00000280: eaed 82be c85b 3fbf 1348 64bf 0c14 40bf
00000290: e443 43bf 2e25 2ebf 64e8 4abe 85e9 9bbe
000002a0: c80f 2fbf 171b 05bf daf2 cdbe 1cbc 7dbe
000002b0: 5d1a 50bf d754 76bf 4eef 20be 9cba 1dbf
000002c0: 08ef d4be b788 c7bd d514 08bf 4485 6a3e
000002d0: 86f2 11bf f06f 26bf b9e2 1dbe 8a70 efbe
000002e0: 4aca 24bf 9324 9cbe 2cf3 9e3d 59b4 4dbf
000002f0: 6f38 06bf 7c77 00be 9583 cbbe b7b5 d9bd
00000300: f2c0 20be 909f 8dbf 2d6e 73bf 7f06 29bf
00000310: 693a db3e c764 5cbf f0e3 1fbf 2645 23bf
00000320: 61c7 ae3d c914 e1bd 42d2 b53e c856 6d3e
00000330: 876c 09be 6004 d43e cee5 99be 3dcb e2be
00000340: c79c b53d 2160 44be da33 583e 9e61 4ebe
00000350: f0d5 8f3e 0433 38bd 5169 f3be 6099 75be
00000360: 44fd 46be 7ab4 803e 4dfd b8be 746b b93d
00000370: 9a2a 8fbe 7d14 cfbc 5561 363e fe0d 653e
00000380: ed45 8c3e a625 56be 555f ad3e f118 b23d
00000390: a152 b23e 74ff 1fbe 621a d9bd 70a3 023e
000003a0: 1739 ab3e 8b88 9b3e 55af 133e ce9e 17be
000003b0: 05cc cc3d a33e 08bc a685 6d3e 16ba e23d
000003c0: ea37 5dbe 8663 703e 42d7 bcbe b4c0 30be
000003d0: 54f8 00bd 6fe3 cabe e797 a4bd c8df 313e
000003e0: 5f7a 4e3e 1f9f 6c3e d18b d5bd 974e 043e
000003f0: 56c2 77be 54e5 753e 9b9e 40bf 4c90 a9bd
-0.45731682 0.040962126 -0.19460876 0.12187671 0.058740657 0.41324922 0.17892733 -0.5294436
-0.6255648 0.18854256 -0.37550005 0.25835082 -0.5251015 -0.08654393 -0.5748249 -0.2987151
0.076927684 -0.52077866 -0.0002810915 -0.10778057 0.12157989 -0.68848455 -0.08000379 -0.062548034
0.14132252 -0.5739074 -0.12580243 -0.012081701 0.28324512 -0.2145046 -0.6915045 -0.2456782
-0.42705685 -0.3763751 -0.27957046 -0.04120991 -0.27244443 0.010858011 0.13096635 0.029162537
-0.16848736 0.20640375 0.16609497 -0.2744412 -0.37009805 -0.4998862 -0.15316927 -0.48575515
-0.5646495 -0.27825412 -0.4372691 -0.057757907 -0.7423563 -0.6242367 0.040794913 -0.16531083
-0.06610561 -0.2898978 -0.14885913 -0.36007282 -0.22650838 -0.6297394 -0.10293908 -0.041429803
-0.32017335 -0.21034218 -0.17938443 -0.043217268 -0.11852202 0.25764033 0.17260332 -0.25133464
-0.7730874 -0.48500124 -0.7605629 0.03220566 0.0056087472 -0.24048245 -0.1124882 -0.44973072
-0.5594282 -0.5702389 -0.37946984 -0.009498237 -0.33408508 -0.12888175 -0.15410748 -0.46948177
-0.2977937 -0.2838921 -0.33743438 -0.11460305 -0.20752281 -0.5789201 -0.38842443 -0.39114872
0.028905997 -0.50624573 -0.39109173 0.0415502 -0.27126113 -0.8172094 -1.3791838 -0.3566842
0.31223592 -0.92691696 -0.3817988 -0.05685131 -0.12397111 -0.1365404 -0.534383 -0.5329001
-0.8874165 0.3740252 -0.6669348 -0.30446565 -0.23554204 -0.38150868 -0.39193612 -0.41183135
-0.6432909 -0.1431848 -0.54396 -0.4281726 -0.24230675 -0.38772258 -0.35116363 -0.3954081
-0.59288675 -0.63062453 -0.63692427 -0.532743 -0.6708444 -0.7143875 -0.20028065 -0.4853812
-0.5117754 -1.277879 -0.31683472 0.29296494 -0.6510739 -0.44861984 -0.80969757 -0.5011395
-0.9863569 0.2358437 -0.12446228 -0.872977 -0.4689494 -0.13726722 -0.22935471 -0.52969563
-0.36671725 -0.5651241 -0.7256675 -0.34425983 -0.81208014 -0.5154072 -1.0351804 0.085102476
-0.2557214 -0.7474942 -0.89172477 -0.7503059 -0.7627547 -0.6802548 -0.19815212 -0.304516
-0.68383455 -0.5199446 -0.40224344 -0.2477879 -0.8129023 -0.96223205 -0.15716287 -0.6161287
-0.41588616 -0.09742873 -0.5315679 0.229024 -0.57010686 -0.65014553 -0.15418519 -0.46765548
-0.6437117 -0.30496654 0.07761225 -0.80353314 -0.5242986 -0.1254558 -0.39748827 -0.106303625
-0.15698603 -1.106432 -0.9508999 -0.6602554 0.42818 -0.86091274 -0.6245718 -0.6377739
0.08534122 -0.109902926 0.35511976 0.23177636 -0.13420306 0.41409588 -0.3005814 -0.44295684
0.088677935 -0.19177295 0.2111353 -0.20154426 0.2809291 -0.044970527 -0.47541288 -0.23984289
-0.1943255 0.25137693 -0.36130753 0.09053698 -0.2796219 -0.025278324 0.17810567 0.22368619
0.273971 -0.20912799 0.33861795 0.086961634 0.34828666 -0.15624791 -0.10600735 0.12757659
0.33441994 0.30377612 0.14422353 -0.14806673 0.09999851 -0.008315715 0.23195514 0.11070649
-0.21603361 0.23475465 -0.3688298 -0.1726101 -0.031486824 -0.39626643 -0.080367856 0.17370522
0.20163868 0.23107575 -0.104270585 0.12920605 -0.24195227 0.24013263 -0.7524201 -0.082794756

bias_hh_l0 f4 [300]
00000000: c9f8 f7be 3d9c 7ebd 39d2 1ebe 7250 833e
00000010: fdff 0b3b 9dcf 9a3e d5ba 383e 847f e3be
00000020: 5fb7 1abf 0e5c 2e3e 58cd e0be 4c10 883e
00000030: cf03 e7be 27a3 d1bc 6899 2fbf 8447 acbe
00000040: 1a4a 633c 9b0d fbbe fe13 b83d 0298 c73c
00000050: 6ee0 b13b 16db 24bf 2698 97bd 0406 0b3d
00000060: fd22 7d3d ab04 07bf cac5 1cbd 1abe 133e
00000070: 4418 903e 1966 bdbe 9d16 2cbf d732 a7be
00000080: 1485 f9be b0b4 8bbe fe45 52be 8e84 efbd
00000090: 4039 dcbe 160d 943c 3943 413d a2f9 bbbc
000000a0: 479a 80bd 8895 143e 77a0 623e bbb9 c0be
000000b0: a81c f8be 2ec0 bdbe 5ed8 77be 2e73 0ebf
000000c0: 5b31 0fbf fdff b3be 0e44 f1be 4044 15bd
000000d0: b98c 3ebf a5b7 07bf 06cf 16bd b87b 48be
000000e0: f5a8 0cbd 45db 33be 7cfb 6fbd 0cbf b8be
000000f0: 2daa 28be e584 0abf 938d cbbd b9a9 d5bd
00000100: e3f8 87be 6050 71be 5d8a 44be 6b52 f5bc
00000110: 0865 4ebe 413f 823e ab7a 093e 8b04 e7bd
00000120: 26a9 32bf 1399 cabe 4301 34bf 065f 303e
00000130: ea7e 003d e46d c0be 7c40 08bc 2947 01bf
00000140: 5352 15bf 07e6 1bbf d80d c2be 4bdd 21be
00000150: 505d b8be 48d2 ddbd bbb2 d1bd aa65 a7be
00000160: 0aee 50be 4212 a2be 0334 bdbe 40b1 81be
00000170: 2a81 a9be 9e3a 02bf af4d babe 6698 a5be
00000180: c971 3bbd 32f7 0bbf cab0 c3be 59ea 023e
00000190: 2875 bebe e3f2 50bf 0582 aabf 553e adbe
000001a0: 034e ab3e 9e1a 75bf 7bd6 b5be 9e81 48bb
000001b0: cd88 ddbd f406 73be 4777 13bf 60bf 03bf
000001c0: 3fa1 6dbf 993f b63e 81ca 15bf 2711 9bbe
000001d0: 1f12 6abe dfb1 03bf 5d13 c1be 3b9d f3be
000001e0: cdd1 1ebf 7fbb 80bc 4c1d 16bf d800 01bf
000001f0: 9a46 94be bad8 03bf 0511 cdbe 16c5 03bf
00000200: e0a6 27bf f55a 28bf b1e5 e3be 16fa d9be
00000210: 13ff 3fbf bf41 2dbf 74c8 f3bd 8fab d6be
00000220: eeb8 29bf c8a0 99bf 8173 6abe 6998 713e
00000230: 661d 33bf 5133 dbbe b72c 68bf fac6 27bf
00000240: a78a 83bf e847 633e c297 0bbe 4b98 6abf
00000250: 88fb 02bf e243 41be cc1d b0be c2aa d7be
00000260: eece 03bf e628 18bf 1ba7 5abf 52cd 7dbe
00000270: 5611 4bbf ec00 2dbf d4a3 78bf 7dc5 c73d
00000280: 52d2 8ebe 8a6e 3dbf 0579 65bf 1f78 54bf
00000290: 9da6 29bf c2e6 46bf 897b 9bbe 2ffd 1abe
000002a0: 6d21 3bbf 8419 d9be 5b90 9ebe bae7 9fbe
000002b0: fe10 42bf 2e14 83bf 9bdc 19bd fd88 e9be
000002c0: 8a77 ddbe 3b74 79be 1399 0cbf 02a7 2e3e
000002d0: 7892 0ebf 48a6 16bf 1f51 35be 9714 1cbf
000002e0: d99c fdbe 0073 31be efd0 483d 6b0c 49bf
000002f0: 93ef 02bf e81d 86be fcb4 e4be 1ad6 19bd
00000300: 8e01 51be 2b82 71bf c61a 52bf 4dd5 43bf
00000310: c073 f43e 1188 4ebf 70c9 1bbf 4a79 39bf
00000320: dede 013f 10b6 5b3d 0701 2e3e 8abc 6fbd
00000330: e5fc cdbe 7249 d33e 5664 d3be 84b3 bebe
00000340: 12f6 8cbe c218 f0be dc6e 343e 21c5 dabd
00000350: 6a26 243c c36c bfbe d08f 0abf a73e 41bd
00000360: eea3 a0be 82e3 223e e578 64be b4a7 143e
00000370: b326 3dbf 1e0b 05bc 0e57 353e 5a4e e13e
00000380: 5ce4 d33e dc7c a1be c0ab 203f e5ed aa3e
00000390: 144b cb3d ee24 e0be 248e 85be a5bd 00be
000003a0: 99f0 033f d63d f23e 043c 94bd fad0 fabe
000003b0: 109e 883e 37d3 a23e 97e3 743e 788f 62bd
000003c0: 03cb 31bd 4546 d33d 6d1f 20bf 9136 993d
000003d0: af3c 683e b7ab 98bd 1e5c 46be 2672 853e
000003e0: 2cbd 023e dd7c 693e 7f38 47be f5b3 3b3e
000003f0: 4306 f8be 8f4c d23d ccab 06bf 0d3a 0c3e
-0.48431996 -0.06216072 -0.15509881 0.25647312 0.0021362298 0.3023652 0.18040021 -0.44433224
-0.6043605 0.17027304 -0.43906665 0.26574934 -0.45120093 -0.025590492 -0.68593454 -0.33648312
0.013872648 -0.49033818 0.08988188 0.024364475 0.0054283654 -0.643968 -0.07402067 0.033941284
0.061800946 -0.527415 -0.038274564 0.14427987 0.28143513 -0.36991957 -0.67222005 -0.32655975
-0.48734343 -0.2728629 -0.20534512 -0.11695205 -0.43012428 0.018072646 0.04718325 -0.022946183
-0.06279426 0.14510167 0.22131525 -0.376417 -0.48459363 -0.37060684 -0.24203631 -0.556445
-0.55934685 -0.3515624 -0.47122234 -0.03644204 -0.74433476 -0.53014594 -0.036818527 -0.19578445
-0.034340817 -0.17564113 -0.058589444 -0.36083257 -0.16471167 -0.5410903 -0.099391125 -0.10432763
-0.26557073 -0.23565817 -0.19193406 -0.029946527 -0.20155728 0.25438884 0.134257 -0.112801634
-0.6978935 -0.3956991 -0.70314425 0.17223749 0.031371035 -0.3758384 -0.0083161555 -0.50499207
-0.5832874 -0.6089787 -0.37901187 -0.15807073 -0.36008692 -0.108311236 -0.10239168 -0.3269475
-0.20403305 -0.31654555 -0.36953744 -0.25330544 -0.33106357 -0.5087069 -0.36387393 -0.32342833
-0.04576281 -0.54674065 -0.38220817 0.12784709 -0.37198758 -0.81620616 -1.3320929 -0.33836618
0.33457956 -0.9574374 -0.35515198 -0.0030594836 -0.10817108 -0.23733121 -0.5760388 -0.5146389
-0.92824167 0.35595396 -0.5851212 -0.30286524 -0.22858475 -0.51443285 -0.37710086 -0.47580895
-0.6203888 -0.015714405 -0.58638453 -0.5039191 -0.28960115 -0.51502573 -0.40052047 -0.51472604
-0.65489006 -0.6576379 -0.44511178 -0.42573613 -0.7499859 -0.67678446 -0.11903468 -0.41927764
-0.66297805 -1.2002192 -0.22895624 0.23593296 -0.69966733 -0.4281259 -0.9069323 -0.6553799
-1.0276688 0.22195399 -0.1363211 -0.9163863 -0.51165056 -0.18873551 -0.34397733 -0.42122465
-0.51487625 -0.59437406 -0.8541123 -0.24785355 -0.7932333 -0.6757953 -0.9712498 0.09754465
-0.27894837 -0.73996794 -0.89637786 -0.8299579 -0.66269857 -0.7769586 -0.30367687 -0.15135644
-0.7309788 -0.4240228 -0.3096951 -0.3123148 -0.7580718 -1.0240533 -0.0375639 -0.45612326
-0.43255264 -0.24360745 -0.5492107 0.17055896 -0.55692244 -0.58847475 -0.17706726 -0.6096892
-0.49533728 -0.17329025 0.04902738 -0.78534573 -0.5114681 -0.26194692 -0.4466933 -0.0375577
-0.2041075 -0.94339246 -0.82072103 -0.76497346 0.4774456 -0.8067637 -0.60854244 -0.724507
0.50730693 0.053640425 0.1699258 -0.058529414 -0.40232006 0.41266972 -0.41287488 -0.37246335
-0.27531487 -0.4689389 0.17620414 -0.106821306 0.010018924 -0.37387666 -0.5412569 -0.04717889
-0.31375068 0.159071 -0.22311743 0.14517099 -0.73887175 -0.008120326 0.1770899 0.4400509
0.41385162 -0.31540573 0.6276207 0.33384624 0.099264294 -0.43778175 -0.26085007 -0.12572344
0.51539 0.47312802 -0.072380096 -0.4898756 0.26683092 0.3180177 0.23914944 -0.055312604
-0.043406498 0.10316137 -0.6254795 0.07481111 0.22679399 -0.07454627 -0.19371077 0.2606365
0.12767476 0.22801538 -0.19455145 0.18330367 -0.48442277 0.10268509 -0.5260589 0.1369402

weight_ih_l1 f4 [300, 100]
00000000: a2a4 183f d06b 633f 79f1 f63e bad1 53bf
00000010: 1d25 dbbd 6022 6abe a6d0 8d3e 6702 d9bd
00000020: 032d 073f 6254 063d 84b8 bfbe fe65 263d
00000030: b294 d0be 6dec 86be d23b f6bd b298 22be
00000040: 2ca3 d0bd 8ea7 0fbe 4e2a 3fbf d0f7 0c3b
00000050: 6e2c 953e f6e8 18bf 6f94 e8bd 1beb 433e
00000060: f685 94bd 47af b3be fbee 8c3f 19bf 69be
00000070: 93e0 0a3d 9006 9bbd 8f01 8cbd 52ad 483f
00000080: 58bf 31bd 07ee cc3e bbef fa3e 7a80 043f
00000090: 90ac b0bf 4480 10bf 84d9 cf3e 10b6 8fbd
000000a0: 6cea e6bc 1419 d2be 230b 433e 4ce0 c5be
000000b0: f0a5 023f 65db ee3e 3036 893d 3e08 06bf
000000c0: 7fb9 35bd c32d 5f3f abdb 5fbb be2e 50be
000000d0: f608 93be e36b 7e3f 4c5c 873f f43a 073f
000000e0: 347c a6be c1c0 293f 72d7 12bf 27c2 22be
000000f0: d0f4 873c 38a1 e2be 7fc9 f7bc f1ab 81be
00000100: 7b2b 05bf 5612 fdbe 1f10 17bf 9290 14bf
00000110: 04c3 fabe 0574 fcbe 2aa3 83be 76af 2a3f
00000120: ae30 aabe 830f 683e be30 fabe 8659 223e
00000130: 4fd2 3c3e 98fd b03e 7319 29bd 3d18 9a3d
00000140: 3683 dabd c4f5 09bf f171 94be aeb8 4bbe
00000150: 5ba4 053e e2b4 743e a864 89bf a8bb 163f
00000160: d0f2 8e3e e7c7 fe3e 67c4 d43e 6cef 08be
00000170: cd87 873e 9c3d 923d 8adb 22bf 2fe6 5f3f
00000180: 1455 f23e ffd3 84be 60f5 f93e bfae e43e
00000190: a94f b33e eece 313f cbb7 de3e c1ed 79bf
000001a0: e232 05bf 62cd abbe 563a 953e f78c 1d3e
000001b0: 0fa9 af3d 3d1a a93e 0617 c13a 6ef1 9bbf
000001c0: a13b acbd 9d18 b13e 9491 8dbf 9f5f 30be
000001d0: 69e5 70bd 7b83 f03e f7c8 0abf f268 7dbe
000001e0: cbf8 60bf 6033 2d3d 48e6 213f 398b f3bd
000001f0: 33f9 3d3e 10b2 cabe b5c1 043f 4978 8d3e
00000200: 54fd b2bc 506f a6bf df90 623e f2cb d83c
00000210: 4637 ba3e 043c a83d f4c5 1e3e 7630 aabf
00000220: 6d5d 5bbf 2c3b ec3d 0eed f5be 0f1f b03f
00000230: ab1a 03bf ef57 1fbf 10bd a63d a39f f53e
00000240: 35c9 803e 8f1c abbd a221 01bf 9228 c03c
00000250: 1f0d 0dbf 72ed abbd 82eb 073f f818 b23f
00000260: 9b77 74be 6be8 db3e 154f 1e3f 0a68 ff3e
00000270: cd26 c2be 67af d23e dc5e 24bf 21a6 a83f
00000280: 22ef 2b3e ea45 ea3d 315c 323f d284 493f
00000290: 86e4 973d 15bb 3d3e cf64 bebe 8090 a3bf
000002a0: d126 10be 7f4f 8fbc 788e 52bf 9ae2 e1be
000002b0: 53be 2bbf c402 67bf 3807 67be dfd9 4f3f
000002c0: bb24 a63d 89c2 0fbf ff8a 2c3e 78ee 5cbf
000002d0: 303d 303f b763 d43e 764c 97bb bf36 a6be
000002e0: 76ab 78be ee2a cd3f d8e8 f13d 5b39 c0be
000002f0: ca8d f73e da29 843f c25c f9bd bc4d 71be
00000300: dd62 0bbe d8da 043f d2bb 65bf 2519 d13e
00000310: 2c73 2b3e 5046 e3be 5bf2 e0be 4390 993f
00000320: edca 303e 942e 26be aa42 3a3e a4d0 2bbf
00000330: 7b30 233f c9dc 16bc 30fe 3bbf 7ccd c1bc
00000340: 2fd0 cfbd 31f7 583e c683 a3be d60e 49bf
00000350: a023 453f 6584 ed3e f936 68be 1c08 563e
00000360: cdb4 723f 4432 72be bda5 24be e086 9abe
00000370: 4157 e23e cb8d 783c 9908 3a3e 8ac0 a1be
00000380: 818f 2abf b974 773e 8761 05bf adcb 113f
00000390: 52ee 87bd c11d f13e 056a cebe 3247 003f
000003a0: f792 1f3f 57ee ff3e 2803 993e 1d40 c13e
000003b0: 8fff 3f3e e468 063e e2b3 03bf 6590 af3d
000003c0: dbef 313e c922 393e a7c1 87be 3f66 883f
000003d0: 8a34 9d3f 9376 50be b78a 193e 6351 e63e
000003e0: 2436 3a3d 550e 06bf 02f9 e63e 8ed8 6c3e
000003f0: 65e1 923e 6bae 703f 882d 073e 797a 6ebf
0.5962621 0.88836384 0.48231104 -0.8274189 -0.10700438 -0.22864676 0.2769825 -0.10596161
0.5280306 0.032795317 -0.37445462 0.04062461 -0.40738446 -0.26352254 -0.120231286 -0.15878561
-0.101873726 -0.14028761 -0.74673927 0.0021510012 0.2913546 -0.5973047 -0.113564365 0.19132654
-0.072521135 -0.35094664 1.1010431 -0.22826804 0.033905577 -0.07569611 -0.06836235 0.78389466
-0.04339537 0.4002535 0.49011025 0.5175854 -1.3802662 -0.5644572 0.4059564 -0.070171475
-0.028187953 -0.41034758 0.19047217 -0.38647687 0.5103445 0.4665176 0.066997886 -0.52356327
-0.044366356 0.871792 -0.0034158032 -0.2033033 -0.28717774 0.9938337 1.0575042 0.5282433
-0.32516634 0.66309744 -0.57359993 -0.15894376 0.016596228 -0.44263625 -0.030247448 -0.25326493
-0.5201947 -0.49428052 -0.59008974 -0.58033097 -0.4897691 -0.49307266 -0.25710422 0.6667398
-0.33240265 0.22662167 -0.48865312 0.15854463 0.18439601 0.34568477 -0.041284036 0.07524154
-0.10669558 -0.53890634 -0.2899318 -0.19894668 0.13050978 0.23897126 -1.0733843 0.5888009
0.27919626 0.49761888 0.41556093 -0.13372582 0.26470795 0.07140657 -0.6361624 0.8746061
0.47330534 -0.2594299 0.4882002 0.4466457 0.35021713 0.69456375 0.43499598 -0.9762841
-0.52030766 -0.33555132 0.2914607 0.15385805 0.08577167 0.3302783 0.0014731593 -1.2183053
-0.08409811 0.3458909 -1.1060052 -0.17223977 -0.058812533 0.46975312 -0.542129 -0.24747065
-0.8787963 0.042285323 0.63242006 -0.11891789 0.18552093 -0.39588976 0.51858073 0.27630833
-0.021849312 -1.300272 0.22125576 0.026464436 0.36370295 0.08214572 0.155052 -1.3296039
-0.8568943 0.11534724 -0.4803242 1.3759478 -0.5121257 -0.6224355 0.081415296 0.47973356
0.2515351 -0.083550565 -0.50441945 0.023456845 -0.55098146 -0.083948985 0.5309373 1.391387
-0.23873751 0.42950758 0.6183942 0.49884063 -0.37920228 0.41149446 -0.64207244 1.3175699
0.1679044 0.11439116 0.6967192 0.7871829 0.07416634 0.18528397 -0.37186286 -1.2778473
-0.14077307 -0.017493961 -0.8224864 -0.44118196 -0.67087287 -0.90238595 -0.22561347 0.8119182
0.081124745 -0.5615621 0.16849898 -0.86301374 0.68843365 0.41482326 -0.004617269 -0.32463643
-0.24284157 1.6028726 0.118119895 -0.3754376 0.48350364 1.0325272 -0.12175895 -0.2356481
-0.13611932 0.5189643 -0.89739716 0.40839496 0.16743153 -0.44389582 -0.43934903 1.199715
0.1726491 -0.16228706 0.18189493 -0.67115235 0.6374585 -0.009207913 -0.73434734 -0.023657553
-0.1014713 0.21188046 -0.31936473 -0.7853826 0.77007484 0.46390072 -0.2267722 0.20901531
0.9480713 -0.23651987 -0.16078849 -0.30181026 0.44207194 0.015170525 0.18167342 -0.31592208
-0.6662522 0.2416562 -0.5210194 0.5695141 -0.06637253 0.47093013 -0.4031526 0.50108635
0.62333626 0.49986526 0.2988522 0.37744227 0.18749832 0.1312595 -0.51446354 0.08572463
0.17376654 0.18079676 -0.26514933 1.0656203 1.2281659 -0.20357732 0.14994322 0.44983968
0.04546179 -0.5236562 0.45111853 0.23129484 0.28687587 0.9401614 0.13200963 -0.9315563

weight_hh_l1 f4 [300, 100]
00000000: 597e 1c3f 3374 ae3e 65d5 393e 61dd 973e
00000010: 5190 f03d ee15 023e 0093 e4be 5a37 3d3e
00000020: 1357 b73f e160 f7bc 97c3 8bbe 87cc 9dbe
00000030: 80cf a93e f536 523e 7347 43be 369d 00bd
00000040: 95ba efbe 2009 3d3d 6b55 10bf 3ca1 b8be
00000050: 32d7 8a3e 9d65 a4be 9b9c 1bbf 765c f2bd
00000060: cb70 72be da7d c8be 6da9 013e 12cf a5bc
00000070: b00f 9b3e ed6c 26be 07af 91be 3e9d 3e3e
00000080: 92eb 86be 7133 e03e ecd7 aabd fd9f 10bf
00000090: 86af 28bf 6ea4 8d3e fdb9 8abe 94be 39bd
000000a0: 75cd 26ba c979 a53e 5652 50bc 011d 87be
000000b0: f166 8e3e 8f20 653d 288a 303e 3d07 2bbd
000000c0: e80e f93d d735 84be 9aad 253f 0452 a13e
000000d0: 22d7 03be edbd 13bf fb09 77bf 4b19 1e3f
000000e0: b697 88be 1c5c 9bbd ac03 16bd 29a3 e0be
000000f0: 86dd 2abf 6535 2e3e b3a0 60bf 1cb4 09bf
00000100: 7437 09bf cb8c e0be 99d2 d1be d169 263f
00000110: fce9 f83e b313 33bf 70db dcbe deec a43d
00000120: 2269 a03e 2cf2 64bd a51b 0bbf 96fc a0bf
00000130: 1e69 cb3b dff7 113f 7827 b63e 81f9 493e
00000140: 86dc 3bbd 107c e2be 3301 813c 48ea 06bc
00000150: efaf f4bd 4358 09bf e209 d6be c90b 12bd
00000160: edb1 dd3e 0872 fc3e e895 4ebf a773 83bd
00000170: 6397 e7be 6c37 b6be fc02 383f 8401 813e
00000180: c1de f03c 76ce 593e 4d38 a3be a477 f13e
00000190: 6d86 763c 3dbc 6ebd 53e4 da3c 2f65 ae3e
000001a0: 1159 fdbe 7857 173e aba8 eebe 07a0 b3be
000001b0: ddbb 323f 2d60 023f fbbb 8dbc 0dfd 12be
000001c0: 78ad c8be 27c8 993f f75a 363e 36f5 76be
000001d0: e090 193f 3894 153f ba5d e93d ebbb c83d
000001e0: 08cd 8ebe 699a c43c dc84 eabd 8fbc 823e
000001f0: 925d aabd 0d55 cfbe 6f52 72be 2c23 15bf
00000200: 9d57 0e3f 2b12 b2be 1c49 31bd 2992 e53e
00000210: ea98 84bd 83dc e3bd a9be 87be 403e 183c
00000220: c946 d5be cf2b 8abd 17ce ed3e 587d c73e
00000230: f52c c13e 5453 f83e d31f f43e 9f7d f6bb
00000240: b5b8 a0be 1b57 b63d a038 7c3e 8c27 d9be
00000250: d5d0 0cbe b55d cbbd 5aa6 283f b1d9 553f
00000260: 246c 9bbc 0a35 53bf 551b 03bf 168a bbbb
00000270: f199 11be cf19 37be 6e8d 8f3e 38c0 98bf
00000280: dc9b c2be b054 1c3f 83f9 fabe ba6e 03bf
00000290: c47a 2bbe f7a8 0a3f 9f01 d0bd 6013 853e
000002a0: 73e9 823e 589f 9a3f 8433 06bf eea3 3abe
000002b0: 5ea6 19be 458d db3e a0fb 4cbf 9537 6d3f
000002c0: bf7c d23e 492a e5be 99a0 743e d6d7 c0be
000002d0: 063f 2c3f ff43 00bf 5b9f 4f3e 36fe d13e
000002e0: a4ef cc3e b1be 2e3d 5a7a 80bb 20d4 8e3e
000002f0: 8b71 953e 3aea e7be 14a3 45bf 1348 773f
00000300: 9d48 2b3e 1437 943f de8f 253d a099 c8be
00000310: 6303 8f3e 318b da3e 8011 e4be 3a76 cbbf
00000320: ee8c 74be 3cc7 c4bd 5fb2 a43d d8da dd3e
00000330: 1625 743e 4472 083e 7da5 43bf dee4 cabe
00000340: 6809 2dbd a4ca febd a1be 5bbe e5e2 a33d
00000350: 70ec 253e 26b7 013f 0785 773e 170c b73c
00000360: 0620 c7bc b0f3 b03e b919 2d3d b585 72be
00000370: 09c4 0ebe 67ee d7be eac3 1d3f 71da 3ebd
00000380: 70b1 ecbe 1027 303e a5d7 273e 824c 8b3d
00000390: 6754 45be f09e 983d 8a13 0f3f 5a8f 51be
000003a0: e2e3 f53e f46c 433d a67d 2d3d d0c0 473d
000003b0: 1cba 28bf 0df7 513f 5f79 83be 8c5b 873f
000003c0: 271c 94be 776f 003f 764f 7cbe fa86 023e
000003d0: 3ca3 bdbc a2ed 22be 3919 203f b82e f93e
000003e0: f6da bd3d e26b 5c3e 8123 413d 2084 38bf
000003f0: 1cec 81be ec6a 2bbe d164 29bd c2f2 26be
0.6113029 0.34073028 0.1814781 0.29661086 0.11746276 0.12703678 -0.44643402 0.18478146
1.4323448 -0.030197563 -0.2729766 -0.30820104 0.33166122 0.20528777 -0.19070224 -0.031399928
-0.46822038 0.04615128 -0.5638034 -0.36060512 0.27117306 -0.32108775 -0.60785836 -0.11834042
-0.2367584 -0.39158517 0.12662287 -0.02024034 0.30285406 -0.1625249 -0.28453848 0.1861467
-0.263516 0.43789247 -0.08341965 -0.5649412 -0.6589283 0.27664512 -0.27095023 -0.045347765
-0.0006363013 0.32319477 -0.012714943 -0.26389316 0.27812913 0.055939253 0.17240202 -0.04175495
0.12161046 -0.25822327 0.6471802 0.31507885 -0.12875035 -0.5771168 -0.96499604 0.61757344
-0.26678246 -0.07585928 -0.036624596 -0.4387448 -0.6674427 0.17012556 -0.8774521 -0.5379045
-0.5360024 -0.43857417 -0.40980986 0.65005213 0.48616016 -0.69951934 -0.43136168 0.08052991
0.3133021 -0.055895016 -0.5433906 -1.2577083 0.0062075993 0.57018846 0.35576987 0.19724084
-0.045864604 -0.44235277 0.015747642 -0.008234568 -0.11947619 -0.536503 -0.41804415 -0.03565577
0.4329981 0.4930575 -0.8069749 -0.06418543 -0.45232686 -0.3558916 0.71879554 0.2519647
0.029403092 0.21270165 -0.31878892 0.4716159 0.015046698 -0.058284987 0.026720202 0.34061572
-0.49482015 0.1477946 -0.46613058 -0.3508303 0.69817907 0.50928 -0.01730155 -0.14354344
-0.39194846 1.2014207 0.17808138 -0.24116978 0.59986687 0.5842929 0.1139483 0.098014675
-0.278908 0.02399941 -0.11451122 0.25534484 -0.08318628 -0.40494576 -0.23664258 -0.58256793
0.5560244 -0.34779486 -0.043282613 0.44838074 -0.064744785 -0.11126044 -0.2651265 0.009292185
-0.41655567 -0.06746637 0.46446297 0.38962817 0.37729612 0.48501074 0.4768053 -0.0075222994
-0.3139092 0.08903333 0.24630976 -0.42412984 -0.13751538 -0.099299826 0.6587883 0.83535296
-0.018972464 -0.82502806 -0.5121358 -0.0057232482 -0.1421888 -0.17880939 0.2803759 -1.193366
-0.38009536 0.6106672 -0.49018487 -0.5134083 -0.1674605 0.5416407 -0.10156559 0.25991344
0.25568733 1.2079878 -0.52422357 -0.18226597 -0.1500487 0.42881218 -0.8007145 0.92662936
0.411108 -0.44758824 0.23889388 -0.3766467 0.67283666 -0.50103754 0.20275633 0.4101426
0.4002658 0.042662326 -0.0039208354 0.27896214 0.2918819 -0.45295888 -0.7720196 0.9659435
0.16726919 1.1579309 0.040420406 -0.39179707 0.2793227 0.4268432 -0.445446 -1.5895455
-0.23881885 -0.096083134 0.08041834 0.43331027 0.23842272 0.13324839 -0.7642439 -0.39627737
-0.0422453 -0.124409944 -0.21459438 0.08002261 0.16203475 0.5067009 0.2417184 0.022344632
-0.024307262 0.3456092 0.04226086 -0.23683818 -0.13941969 -0.42174074 0.61627066 -0.04659504
-0.46229124 0.17202401 0.16390856 0.06801702 -0.19270478 0.0745219 0.5588919 -0.2046484
0.48025423 0.047711328 0.042356156 0.048767865 -0.6590898 0.82017595 -0.25678536 1.0574813
-0.2892773 0.5017008 -0.24639687 0.12746802 -0.023149125 -0.15910962 0.62538487 0.48668456
0.09270279 0.21525529 0.047153 -0.72076607 -0.2537545 -0.16740006 -0.04135591 -0.16303542

bias_ih_l1 f4 [300]
00000000: 6d65 12be 848e da3e 1f51 0fbe 97d6 89be
00000010: e7f1 3fb9 39a4 393e dc53 9dbc 837d fabc
00000020: 9253 bfbe ab1b 763e 8920 73be 7470 34bd
00000030: 5b27 a0bd 863b 603f 491a 0bbc ce54 ec3b
00000040: 9d01 52be e6ec 3dbc 13dd 293f e5bb fc3e
00000050: 8dde 04bd 0ba9 1b3f a733 5fbe e450 e93d
00000060: 612c c03d 0e60 fcbe cdd8 853d 0dfb a83e
00000070: daa2 6bbd f910 83be f4cc 103f 947e 9d3e
00000080: be00 22bd 1e7e 6bbe 3a05 66be 05b6 7e3e
00000090: 4e72 90be a20b cebb 01f1 8b3e aa37 63be
000000a0: 0810 0bbe 73e9 c33d 8501 e7bd 264a 61be
000000b0: 3954 28bd 1ec3 debd 50ca 91be 0e5c a53e
000000c0: 4171 a83e 6b9d edbd 3c89 093c edec 2fbb
000000d0: a8fa b7be 4b91 94bb bbab 37be f47a c63e
000000e0: fb4d b5be 9132 52bd 0910 12be 1305 d33d
000000f0: 3761 993e bc0e 923e 0dc7 bfbe 4909 27bc
00000100: 4407 903b e414 c03e c71f 3ebe 575c a23e
00000110: 8c11 91be 9028 1dbe 4a7a a93b 8dc8 a53e
00000120: 7559 213d 42b2 00bd 8f0a 2abe 1aec 673d
00000130: a827 a9be 8274 d9be 0b22 063f a186 3dbe
00000140: 1448 6c3d 0ba7 f1be f82a 0a3e 5031 543d
00000150: 17a2 613e ac1a bebe c3e3 a5be bf1c 3d3e
00000160: cda4 913d b2a9 783e cba4 f1be 5449 1cbe
00000170: c170 1e3e 4ba0 913e 5a13 e1be e116 c9be
00000180: 1e65 b7be 6911 d2bc f5d5 5dbe 650d 6e3e
00000190: 991b a0be 26d0 8b3d b654 90be 4ba6 6fbd
000001a0: 7545 96be 442d 913e 82d5 00bd 9af4 0abf
000001b0: 147c c7be 0e58 b4be 3992 89be 8cb0 50be
000001c0: c788 cfbe 819c 1dbf ddb9 0d3f 64c3 65bd
000001d0: 9d8b 3abf df3a 0ebf 0291 7ebe a476 2bbe
000001e0: 1dfe 9c3d 1387 63bf 0790 acbe f586 56bf
000001f0: 85ef 57bf 8e89 ecbe eb51 c6be e551 b5be
00000200: 2ff2 11bf a55b 1cbf fb29 c8bd de70 49bf
00000210: 4941 a8be d355 3cbf d108 03bd f578 62be
00000220: 9790 593d d30e 68be 1dd5 a6be b874 84be
00000230: 53b1 20be 6106 d9be 2458 62be eef1 a53d
00000240: 64e7 a2be c4d3 55bf a7a4 cbbe 32ee 57bf
00000250: bb4e 66bc d17e a1be 2082 2a3d 73a9 e4be
00000260: c99e 92be 4371 03be edac 23be a949 8cbe
00000270: 9d5c 513e 7dc5 35be e09b 8abe f839 98be
00000280: 739a adbe 9c64 00bf 2408 fbbe 6962 8bbe
00000290: 7da8 25bf bbf5 cbbc ce29 08bf 4df4 a8be
000002a0: 5cc4 25bf f390 0dbf 48fd 79be b730 37be
000002b0: ab84 01bf 8ecc 183f ff41 05bf 29b9 17bf
000002c0: 51c1 dabe 96dd 34be 551d 473e facd e2be
000002d0: 2f1d ecbe 316e 26bf 983e 91bd 042d 95bf
000002e0: d827 8a3f a0c0 09bf 77de 89be 2f7d 91be
000002f0: 8b1d 6dbe bfff 65bf 2470 9fbe 4db0 11be
00000300: c007 74be 1de3 1cbf 3f3f 73be 7ed1 f0be
00000310: fd86 f2be 555f 9d3d 09e5 7ebe 0a1f 4dbe
00000320: 29a1 8fbb bfc1 9ebe ac8f 6dbe 9dfa 4d3d
00000330: d4d7 023e 13fb 32be 14c9 bcbd bca1 e03c
00000340: 084a 0bbe 6d20 803d f10c 0e3e a7a9 293e
00000350: c047 84be d454 09bf b228 c4bd 7dff 2cbd
00000360: 9bf2 9dbd 4774 ecbd 6f90 8a3e 0290 ab3e
00000370: e5ba c2be 8e65 e63e 1708 b03d 5ea6 4e3e
00000380: 73de 283e 6475 7a3e 2f8e 39be 1ba9 2c3f
00000390: 1c44 2dbe 87ac f03b 3085 30be e347 cb3d
000003a0: 5889 afbd d7f5 d03d dfe3 debd 26d0 753e
000003b0: 73d1 0b3e f79a d2bc dfa6 cf3e 6767 1fbe
000003c0: bb06 aa3d e704 9dbe 5744 c93d 8e22 823d
000003d0: e713 e5bd 7ddd 40be 0fe4 243d 0faf 35bf
000003e0: 803f b7be 0251 843e 5721 63bd 8fc2 88bd
000003f0: b7f5 e6bd d4a5 1f3e 2e74 b73c 40b7 e4bc
-0.14296503 0.42686856 -0.13995789 -0.26921532 -0.00018305295 0.18129052 -0.019205026 -0.030577427
-0.37368447 0.24033992 -0.2374288 -0.044052556 -0.078200065 0.87590826 -0.008490154 0.007212258
-0.20508428 -0.0115921255 0.6635296 0.49362102 -0.032438803 0.60804814 -0.21797048 0.11392382
0.093834646 -0.49292034 0.06535492 0.33004037 -0.057528354 -0.25598887 0.56562734 0.30760634
-0.03955149 -0.22997329 -0.22462931 0.24874122 -0.28212208 -0.006288008 0.2733231 -0.22189203
-0.13580334 0.09566011 -0.11279587 -0.22000942 -0.041095946 -0.108770594 -0.28474665 0.32296795
0.32898906 -0.11602291 0.008394536 -0.00268441 -0.35933423 -0.004533922 -0.17936604 0.3876568
-0.35411057 -0.051317755 -0.1426393 0.10303702 0.29956982 0.28526866 -0.3745655 -0.010195085
0.0043953974 0.37515938 -0.1856681 0.31711075 -0.283337 -0.15347505 0.0051720487 0.3237957
0.039391953 -0.03142 -0.1660559 0.05662165 -0.33038068 -0.424717 0.52395695 -0.18508388
0.057685927 -0.47197756 0.13492954 0.05180484 0.22034489 -0.37129724 -0.3240033 0.18467997
0.071115114 0.24283484 -0.4719604 -0.15262347 0.154727 0.28442606 -0.43960077 -0.39275268
-0.35819334 -0.025643067 -0.2166365 0.23247297 -0.31271055 0.068268105 -0.2818963 -0.0585082
-0.29349867 0.28354847 -0.031453617 -0.5427948 -0.38961852 -0.3522343 -0.26869372 -0.20379847
-0.4053404 -0.6156693 0.5536173 -0.056094542 -0.7286928 -0.5555858 -0.24860004 -0.16744477
0.07665656 -0.8887798 -0.33703634 -0.8379968 -0.8434985 -0.46198696 -0.38734373 -0.35414043
-0.5701017 -0.6107734 -0.09773632 -0.78687847 -0.3286231 -0.7356846 -0.03199083 -0.22116454
0.053116407 -0.22661905 -0.32584468 -0.258703 -0.15692644 -0.4238768 -0.22103935 0.08102785
-0.31817162 -0.83526254 -0.39774057 -0.8434783 -0.014056857 -0.31542066 0.041628003 -0.4466053
-0.28636768 -0.12836175 -0.15983935 -0.27399948 0.20445485 -0.17751117 -0.27072048 -0.29731727
-0.33906898 -0.5015352 -0.49029648 -0.27223518 -0.6471022 -0.024897447 -0.5318879 -0.32998887
-0.64752746 -0.552993 -0.24413025 -0.17889677 -0.5059306 0.59687126 -0.5205383 -0.59266907
-0.42725614 -0.17662653 0.19444783 -0.44297773 -0.46116015 -0.6501189 -0.07092017 -1.1654363
1.0793409 -0.5380955 -0.2692754 -0.2841582 -0.23155801 -0.8984336 -0.31140244 -0.1422741
-0.23831081 -0.6128405 -0.23754595 -0.4703483 -0.47368613 0.07684199 -0.24892057 -0.20031372
-0.0043832255 -0.31007192 -0.23199338 0.05028783 0.12777644 -0.1747859 -0.0921804 0.027420871
-0.1360246 0.06256185 0.13872124 0.16568623 -0.2583599 -0.5364506 -0.095780745 -0.04223584
-0.07712289 -0.11545616 0.2706332 0.33508307 -0.38033214 0.44999355 0.08595293 0.20180652
0.16491108 0.24458843 -0.18120645 0.67445534 -0.16920513 0.0073447856 -0.17238307 0.09925821
-0.08571118 0.1020314 -0.10883307 0.24005184 0.13654117 -0.025708659 0.40557 -0.15566789
0.08302065 -0.30667803 0.09827488 0.06354247 -0.11185437 -0.18834491 0.040256556 -0.70970243
-0.35790634 0.25843054 -0.055451717 -0.06677734 -0.11277335 0.15590602 0.022394266 -0.027919412
